a_output_actual/dig-s2.tflite (tflite, 356492 bytes, 12 tensors)

dense_5/bias f4 [11]
-0.23098032 -0.1719844 -0.1936084 -0.1314639 -0.16310601 -0.16143042 -0.19599368 -0.19737619
-0.17378026 -0.1409479 -0.1473982
00000000: 1b86 6cbe ae1c 30be 4841 46be 799e 06be
00000010: 4305 27be 044e 25be 91b2 48be fc1c 4abe
00000020: 74f3 31be a554 10be 8eef 16be

dense_4/bias f4 [256]
-0.02825989 0.04245126 -0.0523313 0.0048877313 -0.005504284 0.03165037 0.011403504 -0.014596794
-0.11709215 0.08087631 -0.017805224 -0.036841605 -0.05295013 -0.022826113 -0.035189584 0.043704048
0.004288668 0.03317335 0.041898564 -0.0355073 -0.030309195 0.070030995 -0.025603814 0.011035534
0.08224081 -0.05958873 0.09489187 -0.066310175 0.001167978 -0.015035208 0.024110004 -0.06619405
0.022913907 -0.025303593 0.096002765 0.015382416 0.0023367985 0.001102918 -0.010090439 0.047537968
0.004617892 0.03686464 0.04131827 0.027856035 -0.003201513 -0.028707443 0.034931794 -0.003232536
-0.055231087 -0.027596409 -0.018174173 -0.08596557 0.020980304 -0.08986328 0.042303216 0.0099191815
0.0007956916 -0.023889069 -0.024207205 -0.053249072 0.013702832 -0.025186729 -0.033534653 -0.069442295
0.044470042 -0.1309967 -0.03846995 -0.0022998059 -0.0462414 -0.025172284 -0.0043824557 -0.10937695
-0.018094407 -0.00082971074 -0.10273555 0.051441267 -0.040064454 0.0064252177 -0.0680637 -0.036440693
-0.011704565 0.011748362 -0.032503963 -0.032307483 -0.011247744 -0.041793577 -0.133101 -0.0041529583
-0.04330807 -0.035379432 0.1008876 -0.06013609 -0.08463441 -0.027970526 -0.025279725 0.0016800747
-0.034183107 0.006701844 -0.008084995 0.03246954 -0.01177996 -0.0131336525 0.05381578 -0.04211894
-0.033099078 -0.05826767 -0.0106872 0.027939176 -0.0131237125 0.045274526 -0.0014328418 0.038050808
-0.02547876 0.035823353 -0.010529362 -0.0025858765 -0.017481681 -0.053760078 0.08097077 0.08642017
-0.022430334 -0.031674117 -0.017696235 -0.08777359 -0.0139801 0.07854647 -0.006891107 -0.11732804
0.025296837 -0.027048746 -0.0056003737 -0.014950776 -0.094397515 -0.07349681 -0.030790044 0.073711835
-0.01981105 -0.01091783 -0.014121758 -0.0133686215 -0.029613597 0.018252341 0.0019498972 0.013623929
0.024101412 -0.032723065 -0.013334478 0.022301475 0.01726718 -0.042447478 -0.009962835 -0.009044637
-0.03229758 -0.09186985 -0.0188235 -0.003207705 -0.08380102 0.030149812 -0.11129105 -0.05663422
0.0026199755 -0.0028745858 -0.03948813 0.09505348 0.006066511 0.087770425 -0.06063111 -0.075863644
-0.09780667 -0.03341315 0.07226476 0.029732415 -0.043170556 -0.019478446 0.06588877 0.018801501
-0.021607697 0.046769682 -0.011336644 -0.013842971 -0.0030632915 -0.017071465 -0.043752696 -0.034135148
-0.023074163 -0.04324032 -0.026901249 0.1281719 0.023920562 -0.036139373 0.06077819 0.024241567
-0.043858502 0.015215715 -0.061965816 0.004007053 -0.035949033 -0.002148429 -0.031459223 0.046937462
-0.007389928 -0.054165717 0.1048956 -0.011955157 -0.06498916 -0.01474777 0.0141929025 -0.033035737
-0.028627114 -0.025921667 -0.031002477 -0.015872303 0.010173924 0.009647172 0.06647019 0.010763865
0.04396757 6.452443e-05 -0.08597002 -0.016436223 -0.02630322 0.010280232 0.013816832 0.007114416
-0.008014362 -0.0028788494 0.017355788 -0.069789544 -0.005928914 -0.13211441 -0.0100843655 0.030759187
0.05884252 0.16522166 -0.016169868 -0.065419406 0.013833017 -0.05245686 -0.12540099 0.080359936
0.00015194087 -0.0935808 0.04496113 0.0040883874 0.13519393 0.113091454 0.01521945 -0.0055323644
0.0030895025 -0.101256736 0.026910387 -0.014483722 -0.03638224 -0.0753287 0.01623043 0.0043017957
00000000: 4981 e7bc 5fe1 2d3d 5859 56bd 4329 a03b
00000010: 485d b4bb d2a3 013d c3d5 3a3c 6427 6fbc
00000020: 02ce efbd 7ba2 a53d 43dc 91bc 39e7 16bd
00000030: 3ce2 58bd d4fd babc f422 10bd 0403 333d
00000040: f487 8c3b c7e0 073d d49d 2b3d 1a70 11bd
00000050: fd4a f8bc 696c 8f3d 17bf d1bc 62ce 343c
00000060: df6d a83d 5013 74bd ab56 c23d a1cd 87bd
00000070: d716 993a 3c56 76bc 5882 c53c bf90 87bd
00000080: f2b5 bb3c 7b49 cfbc 199d c43d 8706 7c3c
00000090: f924 193b c98f 903a 5e52 25bc 2cb7 423d
000000a0: b051 973b 60ff 163d 593d 293d 5732 e43c
000000b0: 7ad0 51bb df2b ebbc a414 0f3d f4d8 53bb
000000c0: fe39 62bd dd11 e2bc 01e2 94bc b70e b0bd
000000d0: e3de ab3c 3d0a b8bd 2346 2d3d 1084 223c
000000e0: f695 503a 02b3 c3bc 304e c6bc b31b 5abd
000000f0: d881 603c 6654 cebc a25b 09bd c337 8ebd
00000100: 3826 363d 0024 06be ab92 1dbd 57b8 16bb
00000110: 9f67 3dbd 1b36 cebc b49a 8fbb 0601 e0bd
00000120: b93a 94bc f280 59ba 0467 d2bd 14b4 523d
00000130: a01a 24bd a28a d23b fb64 8bbd d642 15bd
00000140: 81c4 3fbc 347c 403c e022 05bd da54 04bd
00000150: 7548 38bc be2f 2bbd a14b 08be 8a15 88bb
00000160: ce63 31bd 06ea 10bd 289e ce3d 4351 76bd
00000170: ce54 adbd 7222 e5bc 6d17 cfbc f435 dc3a
00000180: 9603 0cbd 249b db3b ed76 04bc c8fe 043d
00000190: bc00 41bc 882e 57bc ef6d 5c3d e984 2cbd
000001a0: e692 07bd 15aa 6ebd 5e19 2fbc b3e0 e43c
000001b0: d704 57bc c871 393d 31ce bbba 2adb 1b3d
000001c0: d5b8 d0bc 82bb 123d 5883 2cbc cf77 29bb
000001d0: be35 8fbc 8733 5cbd 01d4 a53d 0ffd b03d
000001e0: d2bf b7bc b8bc 01bd b2f7 90bc a4c2 b3bd
000001f0: ca0c 65bc f9dc a03d ccce e1bb af49 f0bd
00000200: 503b cf3c 5595 ddbc 5783 b7bb 19f4 74bc
00000210: 7c53 c1bd 7f85 96bd 673b fcbc 3bf6 963d
00000220: c84a a2bc b3e0 32bc f25e 67bc 1008 5bbc
00000230: 3798 f2bc ef85 953c b193 ff3a e636 5f3c
00000240: 5370 c53c 9f08 06bd db78 5abc 95b1 b63c
00000250: e773 8d3c 68dd 2dbd 293b 23bc f52f 14bc
00000260: 784a 04bd 4326 bcbd be33 9abc 5c38 52bb
00000270: df9f abbd bdfc f63c 90ec e3bd 49f9 67bd
00000280: e5b3 2b3b 8c63 3cbb 4ebe 21bd 66ab c23d
00000290: 95c9 c63b fbc0 b33d 5458 78bd 665e 9bbd
000002a0: dd4e c8bd 3adc 08bd 8cff 933d 6591 f33c
000002b0: 9cd3 30bd 4391 9fbc b1f0 863d 9b05 9a3c
000002c0: a002 b1bc 9191 3f3d 55bd 39bc a1cd 62bc
000002d0: 81c1 48bb 75d9 8bbc 0736 33bd 4cd1 0bbd
000002e0: 0706 bdbc c31c 31bd 0260 dcbc 7f3f 033e
000002f0: 0ef5 c33c e106 14bd 8df2 783d 4096 c63c
00000300: f9a4 33bd 564b 793c decf 7dbd 994d 833b
00000310: 4b3f 13bd a8cc 0cbb 63db 00bd 7f41 403d
00000320: 3627 f2bb dfdc 5dbd 81d3 d63d 90df 43bc
00000330: 0919 85bd a1a0 71bc 5989 683c 7b50 07bd
00000340: 6983 eabc ad59 d4bc e8f8 fdbc a206 82bc
00000350: 88b0 263c 2c0f 1e3c 8621 883d ec5a 303c
00000360: 5717 343d 4a51 8738 0d11 b0bd 42a5 86bc
00000370: da79 d7bc 6b6e 283c fe5f 623c 0c20 e93b
00000380: ac4e 03bc 14ab 3cbb ba2d 8e3c d2ed 8ebd
00000390: 5647 c2bb 0049 07be e538 25bc b1fa fb3c
000003a0: db04 713d de2f 293e ac76 84bc 9cfa 85bd
000003b0: e1a3 623c 01dd 56bd 1e69 00be c093 a43d
000003c0: 5152 1f39 4aa7 bfbd 2929 383d e1f7 853b
000003d0: 4770 0a3e 7e9c e73d 005b 793c d648 b5bb
000003e0: 4079 4a3b b15f cfbd 2c73 dc3c 224d 6dbc
000003f0: 8b05 15bd ef45 9abd aef5 843c 14f6 8c3b

conv2d_8/bias f4 [32]
-0.2470088 -0.22486907 -0.09124191 -0.012545897 -0.1056139 -0.30308127 -0.1009821 -0.12402607
-0.090155885 -0.050569437 -0.07480188 -0.17192923 -0.086081065 -0.16056389 -0.13649993 -0.05355532
-0.04630096 -0.03840901 -0.03131041 0.080474846 0.015107124 -0.13193801 0.01719823 -0.034843322
-0.18457589 -0.048388813 -0.017790494 -0.10166289 -0.034611367 -0.03314431 -0.17051093 -0.06313154
00000000: e0ef 7cbe 1444 66be 0add babd 4e8d 4dbc
00000010: 1a4c d8bd 782d 9bbe b4cf cebd 6101 febd
00000020: a6a3 b8bd e621 4fbd ba31 99bd 370e 30be
00000030: 454b b0bd dc6a 24be a3c6 0bbe d35c 5bbd
00000040: 13a6 3dbd c452 1dbd 583f 00bd ffcf a43d
00000050: df83 773c c21a 07be 4de3 8c3c dfb7 0ebd
00000060: 7601 3dbe 5933 46bd 5fbd 91bc a234 d0bd
00000070: a6c4 0dbd 54c2 07bd 6b9a 2ebe 1c4b 81bd

conv2d_7/bias f4 [32]
-0.0114676105 0.0028021934 0.0015517244 -0.035810065 -0.0034456158 -0.075651914 0.02771217 -0.13480268
-0.09470919 0.19360706 -0.0004583698 -0.051133998 0.008824624 0.16710337 -0.074924044 0.022189502
-0.09740268 -0.072327666 -0.1331984 -0.16231042 0.04039794 0.03875985 -0.16493815 -0.05796788
0.23307374 0.060067017 0.24897246 0.09911865 -0.025858939 0.10164025 0.0852674 0.05429065
00000000: a5e2 3bbc 01a5 373b 3b63 cb3a 93ad 12bd
00000010: d7cf 61bb 64ef 9abd a204 e33c b709 0abe
00000020: e4f6 c1bd ee40 463e 5a51 f0b9 e271 51bd
00000030: 2895 103c 251d 2b3e c771 99bd c2c6 b53c
00000040: 0e7b c7bd 8720 94bd 2965 08be b434 26be
00000050: 4f78 253d a6c2 1e3d 8ce5 28be ba6f 6dbd
00000060: e2aa 6e3e d508 763d a3f2 7e3e b8fe ca3d
00000070: 20d6 d3bc c328 d03d ada0 ae3d df5f 5e3d

conv2d_6/bias f4 [32]
-0.20412034 0.08664807 -0.11268297 -0.07463234 -0.16968687 -0.20240411 -0.103447154 -0.094281964
-0.12077089 -0.13501516 -0.09659746 -0.15060903 -0.110370755 -0.046404444 -0.03457916 -0.021213297
-0.06857327 -0.09266463 -0.09586465 -0.15213965 -0.15924908 -0.157537 -0.028524606 -0.21203971
-0.105399184 -0.060681365 0.034448635 -0.22770122 0.01003144 -0.15295422 -0.05628789 -0.023396477
00000000: ec04 51be 8b74 b13d 54c6 e6bd d7d8 98bd
00000010: 65c2 2dbe 0643 4fbe 1adc d3bd e716 c1bd
00000020: ba56 f7bd 6a41 0abe e4d4 c5bd 4139 1abe
00000030: 100a e2bd 9612 3ebd e1a2 0dbd 82c7 adbc
00000040: 2570 8cbd f4c6 bdbd b054 c4bd 7fca 1bbe
00000050: 3112 23be 6151 21be 6fac e9bc f020 59be
00000060: 87db d7bd 068d 78bd 031a 0d3d 822a 69be
00000070: e95a 243c 08a0 1cbe 218e 66bd f8a9 bfbc

sequential_2/batch_normalization_2/FusedBatchNormV3 f4 [3]
0.013088819 0.016154107 0.011571921
00000000: 7c72 563c 9e55 843c 2898 3d3c

sequential_2/batch_normalization_2/FusedBatchNormV31 f4 [3]
-1.6850423 -2.0809853 -1.5079526
00000000: 77af d7bf dd2e 05c0 9704 c1bf

sequential_2/dense_4/MatMul f4 [256, 256]
0.05993012 -0.011585411 -0.086559504 -0.004108957 0.0728328 0.07560938 -0.04358234 -0.050341297
-0.10437982 0.013743831 -0.04819951 0.027185706 -0.05008923 -0.050792567 0.08905078 -0.038131844
-0.008491632 -0.0153033575 -0.027918695 -0.11519014 0.083850116 0.031169087 -0.012353388 0.09258571
0.06047804 0.017871413 -0.102472685 0.026746681 -0.101976685 -0.06791663 0.0621212 -0.010842709
0.0775251 -0.0060957465 0.023735054 0.01342413 -0.08399989 -0.009452539 -0.07134057 -0.10924868
-0.1043846 -0.01463433 0.040288642 0.044609454 -0.05169069 0.0063668503 -0.060874883 0.0002732749
0.044106893 0.09540139 -0.035504602 -0.000918394 -0.10975182 -0.09153014 0.018455015 -0.0874214
0.07253283 0.053635947 -0.026706308 -0.015856754 -0.08657221 0.063735716 -0.041184302 0.073165745
0.031149786 -0.02227598 -0.075375475 -0.04817537 -0.006412812 -0.082609504 0.07696409 -0.11396982
0.009987982 0.049565338 0.06461842 0.0756694 -0.09474924 -0.07179739 0.01010921 -0.058913514
0.0006900519 -0.025667904 -0.10942946 0.086750224 0.0662397 -0.036624778 -0.020400831 -0.09248322
0.0782254 -0.026515381 -0.049774725 -0.028985191 -0.10979697 0.10007605 -0.102259055 0.0141273355
-0.105835274 0.085031934 -0.03585965 0.05235969 -0.019770838 -0.06363795 0.017069332 0.035748187
-0.018220555 0.021105265 0.0655318 -0.025281807 0.038554568 -0.08717424 -0.09896272 0.0738059
0.073240176 -0.09160117 0.066666156 0.09769725 0.050888367 -0.0016838522 -0.08468161 -0.12095458
-0.05724815 -0.08828528 -0.034913268 -0.021298818 0.0011606234 0.01011592 -0.106461205 0.034743473
0.02526056 0.019053051 0.06159678 -0.09442136 -0.027204623 0.0052163275 -0.061224915 -0.006607284
-0.06212291 0.03145687 0.054863136 -0.06299606 -0.09018746 -0.10888057 0.032009456 0.05091456
-0.017541926 -0.015614844 -0.10781748 0.057750504 0.010018856 -0.017370949 0.047229722 0.06791246
-0.07323474 -0.0011283956 -0.034223124 -0.042856373 0.05624809 0.042115208 -0.011590786 -0.04368701
0.06399081 0.05084681 -0.009158545 0.08853441 -0.0691341 -0.057421878 0.03679701 0.054523334
-0.09262308 0.02570596 -0.0748766 0.046758 -0.008825818 -0.09791243 -0.08874333 0.023287192
-0.11060687 -0.07139737 0.059626713 0.004404273 0.024822906 -0.100528196 -0.019364025 0.093438715
0.0850185 0.044543743 -0.015891928 0.013116871 -0.115198754 -0.06020535 -0.07980519 -0.04534735
-0.038706824 -0.10435743 0.025974555 -0.00083915546 -0.11050748 -0.11326587 0.059090286 -0.023690619
-0.007407559 0.01790775 -0.021650475 0.09401266 0.0460524 -0.0508689 0.04378956 -0.049444016
-0.06853401 0.047298104 -0.034984984 -0.035445675 -0.08040908 -0.08864005 -0.014723237 -0.01213348
-0.046868864 -0.006495033 -0.0653608 0.02011883 -0.094646454 -0.07523438 0.013811579 -0.0992188
-0.050105393 -0.082461275 0.059120536 -0.10944293 -0.048904244 0.09032456 0.016625157 -0.009552846
0.059929684 -0.10354447 -0.11658862 -0.07573126 0.038802713 0.07532658 0.04897152 -0.026862217
-0.00091040286 -0.049954887 -0.09224914 0.07157794 -0.0029139956 0.030786807 -0.01809048 -0.071884215
-0.026554419 0.0016514442 0.05024832 0.054137625 -0.08607954 -0.06818481 -0.09538385 -0.10098388
00000000: 4979 753d bcd0 3dbc 1c46 b1bd 6ea4 86bb
00000010: 5d29 953d 17d9 9a3d 6583 32bd ad32 4ebd
00000020: 16c5 d5bd ce2d 613c d96c 45bd 8fb4 de3c
00000030: 5d2a 4dbd de0b 50bd 4160 b63d 2330 1cbd
00000040: 7c20 0bbc efba 7abc bfb5 e4bc cfe8 ebbd
00000050: 9cb9 ab3d 5056 ff3c dd65 4abc 949d bd3d
00000060: d2b7 773d 1267 923c 33dd d1bd db1b db3c
00000070: 27d9 d0bd e017 8bbd cd72 7e3d 9ea5 31bc
00000080: 7bc5 9e3d d4be c7bb 0470 c23c e2f0 5b3c
00000090: 2208 acbd d2de 1abc 011b 92bd c6bd dfbd
000000a0: 98c7 d5bd d4c4 6fbc b405 253d 67b8 363d
000000b0: 9eb9 53bd 03a1 d03b f157 79bd 5646 8f39
000000c0: 6ea9 343d ce61 c33d 466d 11bd 61c0 70ba
000000d0: 90c5 e0bd 2774 bbbd f92e 973c fe09 b3bd
000000e0: 188c 943d 5eb1 5b3d 30c7 dabc 06e6 81bc
000000f0: c54c b1bd df87 823d dfb0 28bd ecd7 953d
00000100: d62d ff3c 1e7c b6bc 755e 9abd 8953 45bd
00000110: 9122 d2bb 2c2f a9bd 599f 9d3d 0269 e9bd
00000120: a2a4 233c 0605 4b3d aa56 843d 8ff8 9a3d
00000130: e40b c2bd 830a 93bd 1aa1 253c 4c4f 71bd
00000140: 99e4 343a 7f45 d2bc 8d1c e0bd 1aaa b13d
00000150: aea8 873d dd03 16bd a51f a7bc d867 bdbd
00000160: a334 a03d c936 d9bc 95e0 4bbd 5a72 edbc
00000170: 3cdd e0bd acf4 cc3d 326d d1bd 5776 673c
00000180: 2ac0 d8bd 3925 ae3d 91e1 12bd 1d77 563d
00000190: 74f6 a1bc 9d54 82bd fcd4 8b3c b16c 123d
000001a0: 4643 95bc f3e4 ac3c 8935 863d cb1b cfbc
000001b0: 65eb 1d3d 6888 b2bd f7ac cabd 8c27 973d
000001c0: f2fe 953d 6599 bbbd 4488 883d 7f15 c83d
000001d0: 5270 503d b4b4 dcba 8d6d adbd 09b7 f7bd
000001e0: 097d 6abd eace b4bd 3701 0fbd dc7a aebc
000001f0: 0f20 983a 3ebd 253c 5508 dabd 2c4f 0e3d
00000200: 3cef ce3c 2515 9c3c e84c 7c3d fc5f c1bd
00000210: 3bdc debc baed aa3b fac6 7abd ea81 d8bb
00000220: 9874 7ebd ebd8 003d 2bb8 603d 1404 81bd
00000230: 34b4 b8bd c7fc debd 591c 033d c98b 503d
00000240: 16b4 8fbc 67d5 7fbc 69cf dcbd cb8b 6c3d
00000250: 2126 243c 854d 8ebc f473 413d b015 8b3d
00000260: 18fc 95bd ace6 93ba 8c2d 0cbd 2a8a 2fbd
00000270: 6664 663d ff80 2c3d 48e7 3dbc 26f1 32bd
00000280: 9d0d 833d bf44 503d b90d 16bc 8751 b53d
00000290: 2e96 8dbd 3433 6bbd 76b8 163d dc53 5f3d
000002a0: 2bb1 bdbd 4e95 d23c e758 99bd 5185 3f3d
000002b0: 2a9a 10bc 5086 c8bd 10bf b5bd c8c4 be3c
000002c0: db85 e2bd c938 92bd 243b 743d b851 903b
000002d0: 6859 cb3c bae1 cdbd 4ea1 9ebc cc5c bf3d
000002e0: 2e1e ae3d 8073 363d ca2f 82bc 25e8 563c
000002f0: 53ed ebbd e399 76bd e770 a3bd 25be 39bd
00000300: 0c8b 1ebd 59b9 d5bd 97c8 d43c c5fa 5bba
00000310: bf51 e2bd f0f7 e7bd a808 723d d412 c2bc
00000320: 1cbb f2bb 46b3 923c 565c b1bc b689 c03d
00000330: 71a1 3c3d e85b 50bd af5c 333d cf85 4abd
00000340: 8f5b 8cbd a8bb 413d 6a4c 0fbd 7c2f 11bd
00000350: 84ad a4bd ea88 b5bd bb39 71bc 81cb 46bc
00000360: 91f9 3fbd 49d4 d4bb e2db 85bd 3fd0 a43c
00000370: 00d6 c1bd 7c14 9abd f649 623c 3a33 cbbd
00000380: 503b 4dbd 75e1 a8bd 6028 723d 9d23 e0bd
00000390: d14f 48bd 15fc b83d 7b31 883c 8a83 1cbc
000003a0: d478 753d 200f d4bd 04c6 eebd fe18 9bbd
000003b0: 98ef 1e3d d244 9a3d 5c96 483d 270e dcbc
000003c0: 1aa8 6eba 7f9d 4cbd 1eed bcbd 7497 923d
000003d0: bcf8 3ebb 9d34 fc3c 7c32 94bc 0838 93bd
000003e0: a788 d9bc 4675 d83a 2fd1 4d3d 6abf 5d3d
000003f0: 784a b0bd 7aa4 8bbd 9c58 c3bd a3d0 cebd

sequential_2/dense_5/MatMul f4 [11, 256]
-0.035388354 -0.20038018 -0.20413512 -0.31454262 -0.26505035 -0.1750182 -0.3124114 -0.042811338
-0.16879924 -0.32109737 -0.27095205 -0.2741006 -0.22493054 -0.1729779 -0.07064194 -0.00043233047
-0.095409654 -0.3597069 -0.26840454 -0.121534415 -0.24836463 -0.1528371 0.16526629 -0.35228333
-0.57338935 -0.051279187 -0.40085253 -0.14953367 -0.24557774 -0.26157936 -0.38171488 -0.0948032
-0.28702414 -0.13245952 -0.5013207 0.06565272 0.07234858 -0.09167328 -0.124573335 -0.25699678
0.09471809 -0.35666704 0.0012853936 -0.16743638 0.114877135 -0.17898145 -0.14175622 -0.056888204
-0.034310583 -0.12294836 -0.35008213 0.058907647 -0.3177661 -0.04392033 -0.28887704 -0.018603316
-0.28891915 0.061899293 -0.052200492 -0.23989917 -0.33739072 -0.05897932 0.01483611 -0.24859336
-0.31331712 0.07709116 -0.38575366 -0.051079795 -0.23222952 -0.5079657 -0.09806454 -0.12580049
-0.0088690845 0.05943436 0.029994655 -0.29441395 -0.094951935 -0.1444763 0.16138738 -0.33677533
-0.026133766 -0.20275453 -0.09330214 -0.14158739 -0.45885998 -0.010018609 0.2069528 0.018593797
-0.13154358 -0.07067687 -0.24432218 -0.12652658 -0.27983925 -0.11674853 -0.0269254 -0.18719505
-0.021608377 -0.25741062 -0.05689397 -0.18845715 -0.09405133 0.018487498 -0.37417203 -0.32151425
-0.018093232 -0.36701727 -0.13920937 -0.21997368 -0.13756976 -0.0051902053 -0.3355568 -0.35444212
-0.30229828 -0.1784464 -0.18394351 -0.03418123 -0.04333112 0.05490219 -0.18236999 -0.3721426
-0.12592782 -0.16604187 -0.034870107 -0.05514303 -0.23588619 -0.332466 -0.1528114 0.26167804
-0.11480973 -0.13984492 -0.04782619 -0.08859276 -0.045180112 0.06842929 -0.07276006 -0.40258253
-0.050316453 -0.0069142436 0.0010940044 0.06886723 0.07017594 -0.15735853 -0.3689442 -0.17299508
-0.22067238 -0.038058575 -0.02547116 -0.33023062 -0.029693155 0.09543517 -0.07911673 -0.18691668
-0.055110957 -0.09430653 -0.19924067 -0.23764195 -0.005052855 -0.35303965 0.08558958 -0.03125888
-0.18683755 -0.13129798 -0.14410429 -0.6661553 -0.4156678 -0.40141186 -0.2477055 -0.13230859
0.028683016 -0.31004637 -0.37222302 -0.19859888 0.02420812 -0.14866441 -0.46876463 -0.21283697
0.09813528 -0.0744077 -0.19362065 -0.4143785 -0.28957662 -0.1695034 -0.15686134 -0.034925494
0.01486649 -0.26927647 -0.054939028 -0.32671997 -0.25413734 -0.3663518 -0.32972744 -0.25145
0.027893685 -0.11317021 -0.07664256 -0.21538791 -0.18671723 -0.17132387 0.0053146 -0.35643545
-0.12632251 -0.29885694 -0.24002711 -0.0022715018 -0.02422203 -0.065106556 -0.19681837 -0.094764926
-0.19426371 -0.029484574 0.012291229 -0.20432968 -0.44943327 -0.41519105 -0.21556942 -0.23145097
-0.27600348 -0.20094046 -0.022201927 -0.12314912 -0.23890579 -0.42802998 -0.5547654 -0.33669192
-0.13744251 -0.0038044995 -0.26076993 0.09808898 -0.18027312 0.047537502 -0.038370293 -0.18440259
-0.20514043 -0.26668498 0.0628944 -0.33214942 -0.16640858 -0.12548761 0.055619583 -0.3317452
0.02675975 -0.08127775 -0.008696081 -0.004312518 -0.21217677 -0.38519496 0.0016527323 -0.17319185
-0.094140664 -0.14731286 -0.4018493 -0.0898807 -0.008723748 0.02723056 -0.13194445 -0.37523046
00000000: 61f3 10bd 7630 4dbe cc08 51be bb0b a1be
00000010: aeb4 87be f937 33be 63f4 9fbe f15a 2fbd
00000020: b5d9 2cbe e066 a4be 3aba 8abe ea56 8cbe
00000030: 3154 66be 1e21 31be b9ac 90bd 6aaa e2b9
00000040: 2366 c3bd 812b b8be 526c 89be 09e7 f8bd
00000050: 4c53 7ebe 5481 1cbe 913b 293e 7b5e b4be
00000060: a5c9 12bf 200a 52bd 8b3c cdbe 5b1f 19be
00000070: bb78 7bbe bbed 85be 2270 c3be 2e28 c2bd
00000080: d4f4 92be 78a3 07be 8e56 00bf ef74 863d
00000090: 7e2b 943d 33bf bbbd 4e20 ffbd 1595 83be
000000a0: 8ffb c13d 109d b6be a77a a83a 7174 2bbe
000000b0: b444 eb3d ea46 37be 8b28 11be 9b03 69bd
000000c0: 4189 0cbd 5acc fbbd f73d b3be 2549 713d
000000d0: 3db2 a2be cee5 33bd b1e7 93be fb65 98bc
000000e0: 36ed 93be 1d8a 7d3d 2fd0 55bd 21a8 75be
000000f0: 7abe acbe 4d94 71bd 2813 733c 428f 7ebe
00000100: 1a6b a0be f8e1 9d3d 8181 c5be 0c39 51bd
00000110: 93cd 6dbe 0a0a 02bf 10d6 c8bd d8d1 00be
00000120: a34f 11bc 7271 733d 5ab7 f53c 6dbd 96be
00000130: 2976 c2bd 98f1 13be bc42 253e d16d acbe
00000140: 7b16 d6bc e29e 4fbe 3115 bfbd 49fc 10be
00000150: b2ef eabe 1825 24bc 6feb 533e 0552 983c
00000160: 5cb3 06be 09bf 90bd 982f 7abe 2f90 01be
00000170: 1747 8fbe da19 efbd a892 dcbc 0fb0 3fbe
00000180: 0d04 b1bc 53cb 83be a709 69bd e9fa 40be
00000190: fc9d c0bd 1873 973c 7a93 bfbe 849d a4be
000001a0: 4238 94bc b0e9 bbbe e78c 0ebe c840 61be
000001b0: 16df 0cbe 9912 aabb 1ace abbe 7079 b5be
000001c0: d7c6 9abe a7ba 36be b05b 3cbe 9e01 0cbd
000001d0: f97b 31bd 1ee1 603d 33bf 3abe 7a89 bebe
000001e0: 39f3 00be e106 2abe f5d3 0ebd a8dd 61bd
000001f0: 268c 71be fc38 aabe 977a 1cbe aafa 853e
00000200: 5d21 ebbd 8233 0fbe 65e5 43bd 1f70 b5bd
00000210: c80e 39bd a824 8c3d 3a03 95bd 4c1f cebe
00000220: a018 4ebd e190 e2bb b264 8f3a 430a 8d3d
00000230: 67b8 8f3d 9822 21be 41e6 bcbe 9f25 31be
00000240: f1f7 61be 4fe3 1bbd e5a8 d0bc fd13 a9be
00000250: 0f3f f3bc 8473 c33d f407 a2bd 1667 3fbe
00000260: 07bc 61bd c823 c1bd bf05 4cbe 6958 73be
00000270: 6b92 a5bb 9dc1 b4be 9749 af3d 5009 00bd
00000280: 5852 3fbe fa72 06be 1390 13be 2789 2abf
00000290: 69d2 d4be db85 cdbe 83a6 7dbe e77b 07be
000002a0: a5f8 ea3c 66be 9ebe 0494 bebe 815d 4bbe
000002b0: 1b50 c63c 7c3b 18be eb01 f0be eff1 59be
000002c0: 26fb c83d 1063 98bd 7e44 46be 6b29 d4be
000002d0: 6343 94be 4d92 2dbe 42a0 20be 090e 0fbd
000002e0: 9492 733c 9bde 89be bf07 61bd d747 a7be
000002f0: 4a1e 82be 7792 bbbe 09d2 a8be 0ebe 80be
00000300: 4c81 e43c c8c5 e7bd c6f6 9cbd a68e 5cbe
00000310: cd32 3fbe 866f 2fbe 1926 ae3b b57e b6be
00000320: b05a 01be c703 99be abc9 75be 7add 14bb
00000330: 476d c6bc 9656 85bd c18a 49be 1d14 c2bd
00000340: 11ed 46be a289 f1bc 2761 493c cd3b 51be
00000350: 1e1c e6be ec93 d4be 3bbe 5cbe 7c01 6dbe
00000360: 5450 8dbe 56c3 4dbe d1e0 b5bc 9b35 fcbd
00000370: b8a3 74be bf26 dbbe 1b05 0ebf e262 acbe
00000380: bbbd 0cbe e954 79bb a383 85be e0e2 c83d
00000390: 8499 38be afb6 423d 2b2a 1dbd 08d4 3cbe
000003a0: 5510 52be ef8a 88be c7ce 803d 7d0f aabe
000003b0: 0367 2abe d37f 00be 5cd1 633d 82da a9be
000003c0: 4337 db3c f374 a6bd 027a 0ebc 0650 8dbb
000003d0: de44 59be 4638 c5be 7ea0 d83a 3459 31be
000003e0: d2cc c0bd 2fd9 16be 31bf cdbe 5f13 b8bd
000003f0: 0dee 0ebc a012 df3c 721c 07be 351e c0be

sequential_2/conv2d_6/Conv2D f4 [32, 3, 3, 3]
-0.07271034 0.037682816 0.10869592 -0.022782713 -0.0047355746 -0.052816495 -0.06298055 0.16650909
0.11248213 -0.02541429 -0.11255035 -0.00062165124 -0.09527472 0.10261509 0.01799874 0.026081592
0.035333104 -0.033229247 0.13519669 0.014774573 -0.03434669 0.039566144 -0.15156165 -0.11719069
-0.04182676 -0.022958929 0.14251727 0.037225008 -0.08157464 0.042858172 0.0430294 0.13891764
0.15189075 0.03692263 0.14240408 0.008266205 -0.14085467 -0.0071685454 -0.12269061 -0.029881625
0.14030421 -0.06854312 0.19881032 0.32333302 0.14257412 -0.10153824 -0.024593541 -0.1601425
-0.22640973 -0.12231113 -0.11439636 -0.17395686 0.10398887 0.019057054 -0.21673903 -0.24269073
-0.16647984 -0.056492303 -0.25264376 -0.19752477 0.068090364 -0.0314835 -0.08682967 0.035358913
0.025775153 0.076880224 -0.087032884 0.07883993 -0.005413802 0.10979901 0.15654789 -0.05480971
0.29873642 0.15805665 0.21191041 0.069134265 0.14884798 0.05611903 -0.0069985534 -0.038360156
0.024004761 -0.3094223 -0.17464732 0.06218279 0.01863126 0.0035607044 -0.08135394 -0.072293244
0.09470735 -0.06557011 -0.07216091 -0.15255374 -0.12815534 0.025856452 0.09221824 0.07077178
0.07785524 -0.08587277 0.12454546 0.06889151 0.0056369314 0.03561247 0.1168343 0.03828227
0.18524377 0.10331611 -0.021384038 0.07533312 -0.16312543 0.077508524 0.033017516 -0.08094428
0.015207169 -0.076797515 -0.34628022 -0.28555185 -0.23026708 -0.07531796 -0.15728565 -0.0070682564
-0.2027011 -0.0093606515 -0.18972175 0.1187272 0.015977459 0.12863925 0.07866005 0.026758928
0.036700096 0.19266376 0.26369834 0.0028433606 0.3099082 0.27571514 0.21700455 0.046847843
0.07060377 -0.22888537 -0.08790753 0.032500274 -0.0597892 0.054161612 0.19209291 -0.092215724
0.075034834 -0.095006384 -0.042097144 0.01759364 0.0768649 -0.15361905 0.1488406 -0.04302116
-0.0067943735 -0.10742287 0.05854348 -0.050616935 0.004816499 -0.036425255 -0.10321039 0.019194553
-0.0070074718 -0.1778309 0.16286555 0.1718961 0.1009188 -0.117630325 -0.0044747363 0.12566355
-0.35428354 -0.21310376 -0.30000797 0.12597749 -0.011773785 0.010782159 0.1876435 0.089156926
0.109127685 -0.18409805 -0.20661062 -0.12418913 0.049122356 -0.00021409482 0.12878263 0.21282424
0.18288021 0.040773585 -0.10770497 -0.014160893 -0.06278819 0.103499025 0.22179359 -0.040129907
0.016889427 0.1147475 0.11338971 0.0803428 0.04237448 -0.03138385 -0.15851507 0.074522234
0.13655841 0.052594 0.08015858 0.025156785 0.034848835 -0.0015314546 0.18832356 -0.07942972
-0.25496787 -0.1855863 0.044083696 -0.21883115 -0.13538216 -0.07128087 -0.039260037 -0.0703898
-0.12585619 0.055251364 -0.040889647 -0.16225721 -0.035191067 -0.08184898 -0.015198602 0.16850264
0.046982057 -0.13223517 -0.094177 0.0061760065 0.06225832 0.017786136 0.18065983 -0.19438736
0.08297466 0.13893957 -0.1584611 -0.07626731 -0.034411415 -0.0861852 0.03487552 0.016655415
-0.07636476 -0.022682628 0.07109631 0.0033156471 0.042264808 -0.006002385 -0.13391039 -0.14956091
-0.046109717 -0.0018738206 -0.052883558 0.10686703 0.09276428 0.18710987 0.025052402 -0.002079985
00000000: 29e9 94bd 4c59 1a3d f79b de3d d0a2 babc
00000010: e12c 9bbb 1c56 58bd f2fb 80bd 5c81 2a3e
00000020: 085d e63d a131 d0bc cc80 e6bd 4ff6 22ba
00000030: 641f c3bd dc27 d23d 1872 933c 10a9 d53c
00000040: 72b9 103d 641b 08bd 0071 0a3e 0d11 723c
00000050: 1daf 0cbd 1c10 223d fa32 1bbe ac01 f0bd
00000060: 8952 2bbd 5d14 bcbc 0cf0 113e 4079 183d
00000070: 9b10 a7bd 0d8c 2f3d 993f 303d 6d40 0e3e
00000080: 4089 1b3e 2f3c 173d 60d2 113e fa6e 073c
00000090: 353c 10be 1ee6 eabb 3745 fbbd 4fca f4bc
000000a0: e8ab 0f3e 5660 8cbd ef94 4b3e e88b a53e
000000b0: f3fe 113e 48f3 cfbd 6578 c9bc 65fc 23be
000000c0: f4d7 67be 427e fabd a448 eabd bf21 32be
000000d0: 1ef8 d43d 8a1d 9c3c d6f0 5dbe eb83 78be
000000e0: b179 2abe 7964 67bd 865a 81be ef43 4abe
000000f0: f672 8b3d d8f4 00bd c1d3 b1bd 82d4 103d
00000100: 6a26 d33c 6173 9d3d 4c3e b2bd d476 a13d
00000110: 4366 b1bb 4ede e03d 174e 203e 2580 60bd
00000120: fbf3 983e 9ad9 213e 0bff 583e 4496 8d3d
00000130: 9b6b 183e 11dd 653d 1f54 e5bb 8a1f 1dbd
00000140: a2a5 c43c 9a6c 9ebe bfd6 32be 62b3 7e3d
00000150: 96a0 983c b55a 693b e59c a6bd 7b0e 94bd
00000160: edf5 c13d 9f49 86bd 19c9 93bd 0c37 1cbe
00000170: 273b 03be e9d0 d33c ebdc bc3d ccf0 903d
00000180: 9172 9f3d 10de afbd b111 ff3d fe16 8d3d
00000190: 02b6 b83b 62de 113d d246 ef3d dfcd 1c3d
000001a0: 8bb0 3d3e 6697 d33d 942d afbc 4048 9a3d
000001b0: 5a0a 27be cabc 9e3d 603d 073d 1dc6 a5bd
000001c0: 7d27 793c 0448 9dbd a44b b1be da33 92be
000001d0: 22cb 6bbe 4d40 9abd 7d0f 21be d59c e7bb
000001e0: e190 4fbe 6b5d 19bc 6b46 42be 3f27 f33d
000001f0: 29e3 823c 02ba 033e 8518 a13d 8a35 db3c
00000200: d752 163d a649 453e 7803 873e ad57 3a3b
00000210: 4aac 9e3e 892a 8d3e 7136 5e3e 86e3 3f3d
00000220: b698 903d ed60 6abe dd08 b4bd 021f 053d
00000230: 85e5 74bd 91d8 5d3d 01b4 443e 99db bcbd
00000240: ddab 993d b592 c2bd 0e6e 2cbd 8a20 903c
00000250: 586b 9d3d 504e 1dbe ac69 183e f536 30bd
00000260: 56a3 debb 8600 dcbd 4acb 6f3d b453 4fbd
00000270: b9d3 9d3b a632 15bd f85f d3bd e53d 9d3c
00000280: ef9e e5bb 4e19 36be 3ac6 263e 8805 303e
00000290: 84ae ce3d 2be8 f0bd cfa0 92bb f2ad 003e
000002a0: a764 b5be df37 5abe a59a 99be 3e00 013e
000002b0: d5e6 40bc a7a7 303c 9e25 403e e897 b63d
000002c0: 567e df3d 3384 3cbe bc91 53be df56 febd
000002d0: 8634 493d a47e 60b9 98df 033e 99ee 593e
000002e0: f344 3b3e 3402 273d 6c94 dcbd 1703 68bc
000002f0: 1897 80bd 4cf7 d33d dc1d 633e 425f 24bd
00000300: b25b 8a3c bd00 eb3d dd38 e83d c48a a43d
00000310: dd90 2d3d 5a8c 00bd c651 22be 1d9f 983d
00000320: f8d5 0b3e ce6c 573d 2e2a a43d 9a15 ce3c
00000330: a7bd 0e3d 17bb c8ba e4d7 403e 0dac a2bd
00000340: 268b 82be 560a 3ebe 1b91 343d 4615 60be
00000350: 9fa1 0abe b4fb 91bd 22cf 20bd 8728 90bd
00000360: 72e0 00be 414f 623d e77b 27bd c126 26be
00000370: 8224 10bd 70a0 a7bd 8f03 79bc f58b 2c3e
00000380: 4270 403d a868 07be dfdf c0bd 1960 ca3b
00000390: 9502 7f3d 3bb4 913c e4fe 383e 7b0d 47be
000003a0: 9eee a93d 2d46 0e3e a043 22be 0932 9cbd
000003b0: fcf2 0cbd de81 b0bd a2d9 0e3d f070 883c
000003c0: 2165 9cbd ebd0 b9bc f19a 913d 544b 593b
000003d0: dd1d 2d3d a8af c4bb ce1f 09be 7f26 19be
000003e0: 8bdd 3cbd fc9a f5ba 6e9c 58bd 1add da3d
000003f0: 33fb bd3d bb99 3f3e b23a cd3c 5c50 08bb

sequential_2/conv2d_7/Conv2D f4 [32, 3, 3, 32]
0.06288098 0.0072815903 0.043955144 0.05501599 0.10575644 -0.1582452 -0.027327945 -0.04875208
0.010616107 -0.0010354316 -0.0037955074 -0.13083124 -0.030526614 0.07462618 0.101015024 0.00741748
0.0050290804 -0.066371754 0.09679578 -0.06538937 -0.09689824 0.0014749252 0.061107635 -0.08056464
0.08877979 0.020940978 -0.047588143 -0.0011944781 0.03508285 0.07163584 -0.13291755 -0.0707538
-0.053263567 -0.057313457 -0.0730366 -0.12875322 0.026670968 -0.030887121 -0.111077316 0.047624625
-0.11856095 -0.06891866 -0.109875076 0.04715004 -0.06502662 0.08054891 -0.0239938 -0.02212722
-0.09594652 -0.01834235 -0.09241276 -0.014954312 -0.03660316 -0.019938668 0.0016321677 -0.061058767
-0.0061106747 0.010444289 0.08334985 -0.06664065 -0.05925182 -0.0838161 -0.103754684 -0.07883247
0.012496371 -0.0056839506 -0.09512123 -0.128435 0.039023723 -0.013983623 0.056485035 -0.03936208
0.005716173 0.036434274 -0.0022673567 0.0702113 0.017078526 -0.0015494502 -0.0060892 -0.0461383
-0.08352863 0.0039802114 -0.10515344 0.022078132 0.03306231 -0.055133156 -0.019456351 -0.087179445
-0.13826725 -0.07318526 -0.04602625 -0.10971307 -0.042558994 0.011886909 -0.11553954 -0.010717622
0.10292614 0.021877855 0.017866626 -0.11948815 0.06678741 -0.1057882 -0.0008982046 -0.04328284
-0.12347555 0.026664227 -0.0009623472 0.069989 -0.013529791 0.04787047 -0.021465365 -0.07114259
0.051930826 -0.037750874 -0.14732178 0.011487641 0.0077140187 0.013777009 -0.024107048 -0.16657422
-0.01802994 0.06307253 -0.017028453 -0.07503932 -0.055711415 -0.016653707 -0.13818628 -0.05453583
-0.03969635 -0.09525107 0.0076945326 -0.12344529 0.062683985 0.015157151 -0.12065645 -0.070870735
-0.016125998 -0.033414647 -0.19036308 -0.026629508 -0.11918432 -0.113058716 -0.01848328 0.012601748
0.015406149 -0.057833698 -0.040252782 -0.023930354 0.0091723 0.008916839 -0.073562205 0.029698497
0.019399667 0.010397956 -0.053166743 -0.08840442 -0.017949698 -0.10788282 -0.02344 -0.057796318
-0.09821486 -0.11653449 0.022786705 -0.08101224 -0.120276324 -0.14456053 0.05296459 -0.10967633
-0.011189645 -0.035521656 -0.1378583 0.015540954 -0.051689334 0.046086397 -0.015075529 -0.13129252
-0.0075693456 -0.13802336 -0.055785738 -0.0106127355 -0.09743175 -0.0022423915 -0.083495714 0.05406039
-0.12206797 -0.028567018 -0.030761529 -0.043553382 0.023308009 0.017106613 -0.119490266 -0.062566765
-0.06932438 -0.10843364 0.09852786 -0.037005898 -0.032496534 0.024416659 0.020608224 -0.09823282
0.053964123 0.11226342 0.011350025 -0.009588853 -0.05197056 -0.10118371 0.10736481 -0.010557079
-0.1212678 0.0033480523 -0.1182321 0.1458681 -0.10351771 0.1443745 -0.06846288 -0.0018226891
0.036525924 0.04033626 -0.084769204 -0.02787846 0.0010583414 -0.04580653 -0.17774531 0.032251127
-0.023021998 -0.07378682 -0.01794428 0.101831354 -0.0483023 -0.13916224 -0.09012321 -0.030911596
0.027063604 -0.025920266 -0.0882847 -0.09114273 -0.14602305 -0.012367038 0.028742837 -0.12973592
0.029517312 -0.08907994 -0.008818844 0.077234805 -0.057836737 -0.09173369 -0.017074952 -0.09209711
0.055968534 0.045521464 -0.026539173 -0.032515183 0.066782646 0.016134927 -0.1190083 -0.04469514
00000000: bec7 803d 689a ee3b 4f0a 343d 7258 613d
00000010: d596 d83d 080b 22be dbde dfbc 43b0 47bd
00000020: 2eef 2d3c 52b7 87ba 0cbe 78bb a0f8 05be
00000030: f312 fabc 9cd5 983d f7e0 ce3d 550e f33b
00000040: fcca a43b eaed 87bd de3c c63d ddea 85bd
00000050: 9672 c6bd 4752 c13a 004c 7a3d 13ff a4bd
00000060: 2ed2 b53d 6a8c ab3c c9eb 42bd 0990 9cba
00000070: 09b3 0f3d d0b5 923d 8a1b 08be 5ee7 90bd
00000080: e62a 5abd 84c1 6abd 3794 95bd e2d7 03be
00000090: 137d da3c fd06 fdbc 817c e3bd 0a12 433d
000000a0: 15d0 f2bd 3a25 8dbd 2f06 e1bd 6620 413d
000000b0: ad2c 85bd d4f6 a43d a58e c4bc 2544 b5bc
000000c0: 9c7f c4bd b242 96bc e742 bdbd ee02 75bc
000000d0: 32ed 15bd 6b56 a3bc 76ee d53a c218 7abd
000000e0: 0e3c c8bb 861e 2b3c 53b3 aa3d e57a 88bd
000000f0: 09b2 72bd c7a7 abbd 567d d4bd eb72 a1bd
00000100: 94bd 4c3c 6f40 babb ebce c2bd 7784 03be
00000110: 57d7 1f3d 911b 65bc da5c 673d 223a 21bd
00000120: bc4e bb3b 1b3c 153d ef97 14bb f1ca 8f3d
00000130: 44e8 8b3c ec16 cbba e987 c7bb 84fb 3cbd
00000140: 0f11 abbd 6f6c 823b b05a d7bd 33dd b43c
00000150: 586c 073d 4ed3 61bd ed62 9fbc 238b b2bd
00000160: ee95 0dbe 27e2 95bd 0586 3cbd 3fb1 e0bd
00000170: 5752 2ebd 4fc1 423c ff9f ecbd f798 2fbc
00000180: f1ca d23d 3039 b33c 085d 923c 34b6 f4bd
00000190: d6c7 883d 7ca7 d8bd 7e75 6bba 5949 31bd
000001a0: c0e0 fcbd f06e da3c 0746 7cba 6556 8f3d
000001b0: 0eac 5dbc d313 443d 22d8 afbc 35b3 91bd
000001c0: 6bb5 543d a9a0 1abd 85db 16be a936 3c3c
000001d0: e1c5 fc3b f7b8 613c 257c c5bc 6f92 2abe
000001e0: 86b3 93bc 2c2c 813d 417f 8bbc 37ae 99bd
000001f0: a731 64bd 5b6d 88bc b480 0dbe f660 5fbd
00000200: a498 22bd fe12 c3bd 6b22 fc3b e2d0 fcbd
00000210: 7660 803d b355 783c bb1a f7bd ad24 91bd
00000220: ab1a 84bc ccdd 08bd 8aee 42be 2026 dabc
00000230: e916 f4bd 548b e7bd 3f6a 97bc 9077 4e3c
00000240: 136a 7c3c 07e3 6cbd 1ae0 24bd 9709 c4bc
00000250: 6a47 163c ef17 123c c8a7 96bd 434a f33c
00000260: 0dec 9e3c 305c 2a3c 5fc5 59bd 600d b5bd
00000270: 3f0b 93bc abf1 dcbd 3e05 c0bc d5bb 6cbd
00000280: df24 c9bd a2a9 eebd 2fab ba3c bfe9 a5bd
00000290: 6f53 f6bd ad07 14be 66f1 583d fc9d e0bd
000002a0: c654 37bc 287f 11bd ba2a 0dbe 7c9f 7e3c
000002b0: 32b8 53bd 17c5 3c3d 5aff 76bc 8c71 06be
000002c0: 4608 f8bb ff55 0dbe 967f 64bd 0ae1 2dbc
000002d0: 4c8a c7bd 16f5 12bb cdff aabd 6d6e 5d3d
000002e0: c6fe f9bd 6105 eabc 9aff fbbc 0865 32bd
000002f0: 70f0 be3c 2b23 8c3c 50b7 f4bd 0123 80bd
00000300: f1f9 8dbd 7512 debd fac8 c93d 7f93 17bd
00000310: 161b 05bd 7205 c83c 94d2 a83c 4a2e c9bd
00000320: 7c09 5d3d 5dea e53d 75f5 393c 911a 1dbc
00000330: 15df 54bd 6839 cfbd 15e2 db3d 99f7 2cbc
00000340: 415b f8bd ff6a 5b3b ac23 f2bd 725e 153e
00000350: 1801 d4bd e9d6 133e 4436 8cbd 4ce7 eeba
00000360: 359c 153d a237 253d 7a9b adbd 5e61 e4bc
00000370: 0bb8 8a3a a19f 3bbd de02 36be c219 043d
00000380: a198 bcbc 8b1d 97bd e2ff 92bc f58c d03d
00000390: a2d8 45bd 8c80 0ebe 8492 b8bd 513a fdbc
000003a0: 7eb4 dd3c bd56 d4bc 9cce b4bd 0aa9 babd
000003b0: 1187 15be 1e9f 4abc 1976 eb3c 7ed9 04be
000003c0: 4ace f13c 8b6f b6bd ea7c 10bc 482d 9e3d
000003d0: 37e6 6cbd dfde bbbd c5e0 8bbc 699d bcbd
000003e0: 433f 653d b774 3a3d ae68 d9bc a42e 05bd
000003f0: 57c5 883d 652d 843c a0ba f3bd 4012 37bd

sequential_2/conv2d_8/Conv2D f4 [32, 3, 3, 32]
0.04277421 0.19250722 0.02261908 0.07186882 0.06275386 0.027268806 -0.04426221 -0.030062888
-0.2756943 -0.124006115 -0.004266274 0.1459574 0.018066263 0.070479 0.077758886 0.034162544
-0.15991405 -0.11323389 0.009689806 -0.0798766 0.06524463 0.0552078 -0.013091395 0.04620367
-0.102464415 0.010342352 -0.17391829 0.026166085 -0.04976143 -0.050641652 -0.09734143 0.20448266
-0.008934185 -0.05158898 -0.042140294 0.10118829 -0.061807785 0.033320054 -0.01304045 -0.039830495
-0.1593224 -0.020493029 0.04090201 0.18097907 0.05310834 0.008579197 -0.0021985872 0.08894616
0.060604516 -0.12506956 -0.010346183 0.09076193 -0.021020532 -0.06477813 -0.19601609 0.06725912
0.037087794 -0.10963915 -0.12727211 -0.019005964 0.2332308 0.060845055 -0.17309265 0.1360992
-0.08383646 -0.082414396 -0.05276329 0.16275516 -0.08457519 -0.18829355 -0.06615805 0.06485635
-0.10842318 -0.05178101 -0.004504136 0.108663455 0.008712809 0.07847358 0.12981522 0.06890533
0.25514376 0.32040927 -0.07073604 0.055070736 -0.030812828 -0.019859029 -0.10214643 -0.102335334
-0.062917724 -0.07262031 -0.012955813 -0.25765404 0.023078565 0.069984086 0.05812669 -0.108919114
-0.053675957 -0.023133893 0.054553334 0.0088059185 0.042068303 -0.16050524 -0.004924298 0.033370383
-0.13421221 0.1925854 0.024486091 0.16230032 0.12613893 0.01538893 -0.0013548735 0.039456557
-0.20902035 0.008092481 -0.0005611019 -0.20955494 0.16590606 0.00903956 0.16636527 -0.013295584
0.07677289 0.109309904 -0.11667856 -0.03729508 -0.031494785 -0.03874831 -0.10206813 -0.021296227
-0.03266894 -0.026375143 -0.022342153 -0.15653305 0.20006306 0.079500884 -0.07968015 -0.021855276
-0.07173063 -0.10310077 0.013276956 -0.06737119 0.09869539 -0.06510201 0.026546383 0.049853522
-0.124416366 0.047713753 -0.004027151 0.05220185 0.26868698 -0.12824422 -0.12807626 -0.0061768694
-0.2013238 -0.24895963 -0.14819345 0.040910665 0.06636464 -0.11563295 0.17822996 0.20515645
0.030990811 -0.07173762 -0.08197796 -0.1664046 0.16104105 -0.07833859 -0.24002741 -0.1654645
0.11741655 -0.22368775 -0.004006617 0.13553114 0.25086504 -0.115455724 0.19509849 -0.01948773
0.1002764 0.11558794 -0.09162906 -0.01911599 0.015623687 0.20854479 -0.058147714 -0.060101155
-0.119500495 -0.06672277 -0.23156667 0.03519821 -0.1384003 0.21453185 0.25165722 -0.07462026
0.05853252 -0.042116985 0.038211673 -0.029943753 -0.012885641 0.052414417 0.031786148 -0.058256034
0.056853097 0.10732549 -0.040932436 0.08496468 -0.10986077 0.058071945 -0.009658779 -0.10397685
-0.086333364 0.05453735 0.0023903286 -0.09839923 -0.24310441 -0.0665845 -0.059926353 -0.03592323
0.06965885 0.08826109 0.062190294 -0.03569848 -0.13718218 0.010524527 -0.011383589 0.16667902
-0.050951682 0.051199254 -0.35561064 -0.059505522 -0.011975296 0.17195828 -0.0819044 -0.24186955
-0.094017096 -0.10086395 -0.17169937 -0.09613132 -0.21516563 0.21174848 0.1575747 0.08993357
-0.14999291 -0.10250353 0.07697409 0.11890086 -0.07905733 0.06891379 -0.15332747 -0.19504733
0.00382469 0.05406279 0.10119713 0.026769815 -0.15729277 -0.00971564 -0.019130925 0.07747837
00000000: 0334 2f3d 9d20 453e a64b b93c f62f 933d
00000010: 1985 803d d562 df3c 4b4c 35bd 7246 f6bc
00000020: ce27 8dbe ebf6 fdbd 1acc 8bbb db75 153e
00000030: b3ff 933c 4b57 903d 0d40 9f3d 06ee 0b3d
00000040: 82c0 23be 2be7 e7bd fec1 1e3c 5896 a3bd
00000050: fa9e 853d 9321 623d 4a7d 56bc 0f40 3d3d
00000060: ddd8 d1bd f872 293c a317 32be 425a d63c
00000070: a4d2 4bbd 9f6d 4fbd f25a c7bd e763 513e
00000080: b060 12bc f74e 53bd 4d9b 2cbd ce3b cf3d
00000090: 292a 7dbd 9c7a 083d 9da7 55bc 4d25 23bd
000000a0: 6925 23be ffe0 a7bc de88 273d 9452 393e
000000b0: 2188 593d c38f 0c3c 2c16 10bb 6829 b63d
000000c0: 713c 783d 3c12 00be 0983 29bc 64e1 b93d
000000d0: 4033 acbc 65aa 84bd 71b8 48be 26bf 893d
000000e0: 5fe9 173d 7e8a e0bd 9f53 02be 65b2 9bbc
000000f0: 0ed4 6e3e aa38 793d 333f 31be 975d 0b3e
00000100: 73b2 abbd e1c8 a8bd 521e 58bd 4aa9 263e
00000110: c235 adbd 06d0 40be df7d 87bd 68d3 843d
00000120: f90c debd 5318 54bd 6e97 93bb f28a de3d
00000130: 2bc0 0e3c c2b6 a03d 48ee 043e 3d1e 8d3d
00000140: 34a2 823e af0c a43e 0fde 90bd da91 613d
00000150: 2f6b fcbc 67af a2bc 2632 d1bd 3095 d1bd
00000160: 02db 80bd f5b9 94bd 9e44 54bc 3beb 83be
00000170: 420f bd3c d153 8f3d 4116 6e3d fc10 dfbd
00000180: 52db 5bbd 4a83 bdbc 5173 5f3d b346 103c
00000190: d04f 2c3d 7c5b 24be 015c a1bb 62af 083d
000001a0: ed6e 09be 1b35 453e 0e97 c83c 0e32 263e
000001b0: 902a 013e da21 7c3c 0396 b1ba 339d 213d
000001c0: 6e09 56be 5396 043c e916 13ba 9295 56be
000001d0: 47e3 293e aa1a 143c a85b 2a3e b9d5 59bc
000001e0: 1b3b 9d3d dfdd df3d 2bf5 eebd bac2 18bd
000001f0: ad00 01bd 8cb6 1ebd 1909 d1bd 6d75 aebc
00000200: decf 05bd af10 d8bc e406 b7bc 334a 20be
00000210: 55dd 4c3e 5cd1 a23d 592f a3bd d609 b3bc
00000220: 82e7 92bd 7f26 d3bd 9787 593c e8f9 89bd
00000230: cf20 ca3d 3454 85bd cd77 d93c 3533 4c3d
00000240: 02ce febd 7f6f 433d 31f6 83bb 9bd1 553d
00000250: 5791 893e 7452 03be 6c26 03be 5667 cabb
00000260: d427 4ebe 46ef 7ebe 06c0 17be f191 273d
00000270: 2fea 873d f8d0 ecbd ea81 363e 8814 523e
00000280: 71e0 fd3c 2ceb 92bd 10e4 a7bd f865 2abe
00000290: f2e7 243e fc6f a0bd bfc9 75be 876f 29be
000002a0: 1778 f03d 670e 65be f049 83bb adc8 0a3e
000002b0: 6271 803e 0d74 ecbd e6c7 473e bba4 9fbc
000002c0: b75d cd3d 5fb9 ec3d 04a8 bbbd 2399 9cbc
000002d0: 7efa 7f3c c48c 553e 4c2c 6ebd a12c 76bd
000002e0: adbc f4bd f3a5 88bd d01f 6dbe 002c 103d
000002f0: cfb8 0dbe 3dae 5b3e 37d9 803e 82d2 98bd
00000300: ccbf 6f3d dc82 2cbd d883 1c3d 9a4c f5bc
00000310: 4c1e 53bc 80b0 563d 3132 023d e19d 6ebd
00000320: cbde 683d 77cd db3d c5a8 27bd f601 ae3d
00000330: affe e0bd d9dc 6d3d db3f 1ebc d1f1 d4bd
00000340: 8ccf b0bd 8e62 5f3d 0fa7 1c3b 8985 c9bd
00000350: 5df0 78be 745d 88bd 5675 75bd 3d24 13bd
00000360: 4da9 8e3d 3bc2 b43d 40bb 7e3d 9238 12bd
00000370: 7c79 0cbe 116f 2c3c 3c82 3abc e8ad 2a3e
00000380: b6b2 50bd 4fb6 513d 9912 b6be 10bc 73bd
00000390: 0834 44bc d515 303e 7ebd a7bd a7ac 77be
000003a0: 098c c0bd c291 cebd f6d1 2fbe 7fe0 c4bd
000003b0: 6154 5cbe 98d4 583e 435b 213e 172f b83d
000003c0: be97 19be 5fed d1bd 97a4 9d3d 4b82 f33d
000003d0: cfe8 a1bd ac22 8d3d e001 1dbe 7dba 47be
000003e0: a6a7 7a3b f270 5d3d 7140 cf3d 5f4c db3c
000003f0: 5b11 21be 592e 1fbc 75b8 9cbc fbac 9e3d
