a_output_actual/dig-s1.tflite (tflite, 766316 bytes, 12 tensors)

dense_3/bias f4 [11]
-0.17407964 -0.13460542 -0.18062373 -0.11947581 -0.11940156 -0.13335313 -0.20868067 -0.14491215
-0.13793032 -0.09724545 -0.08613496
00000000: ef41 32be 01d6 09be 6df5 38be bcaf f4bd
00000010: ce88 f4bd b98d 08be 63b0 55be da63 14be
00000020: 9b3d 0dbe 9f28 c7bd 8767 b0bd

dense_2/bias f4 [256]
-0.03319752 0.056986332 -0.013707167 -0.02275582 0.03913392 -0.06079624 -0.056133874 -0.061093975
0.024041994 0.009820963 0.0007749748 -0.022296876 0.044640336 -0.041973848 -0.002549553 -0.056199413
-0.0027694453 0.06491314 -0.047370367 -0.02560785 -0.018524086 0.042423554 -0.04489181 -0.034954682
0.01149552 0.004620001 0.024699397 -0.0022983067 0.012655809 0.0072154207 -0.020068875 -0.026299812
-0.0074896216 0.030226372 -0.07492795 -0.08512777 0.004654881 -0.02373558 -0.043672644 -0.025702368
0.066040665 -0.025319558 0.039043937 -0.008992703 -0.0019309584 -0.021456717 -0.013021337 0.011642849
-0.0016141001 0.01501037 0.032596648 -0.008218627 -0.034347437 -0.0031615442 -0.02623377 0.05326389
-0.0071697477 0.010782803 0.011805733 -0.064300716 -0.013598964 0.026737737 0.08307015 0.018959265
-0.017675558 0.020632116 -0.043603674 -0.0014786925 -0.028935226 -0.07773104 0.041812517 0.043368936
-0.0501011 -0.025435356 0.021265792 0.0060168207 0.016909955 0.011673667 0.020858817 -0.010722283
-0.016707044 -0.0066196746 -0.075518504 -0.022222634 -0.027027156 0.010974961 -0.011103028 -0.041647684
0.016664606 0.0044450676 -0.059320297 0.013470506 -0.025137758 -0.019826876 0.022391737 -0.018500015
-0.047870133 -0.020452382 0.069847964 -0.07197977 0.06808432 0.020028807 -0.02411126 0.03315895
-0.020816213 0.052713595 0.06259629 0.00799319 -0.0036029108 -0.046400566 0.04571573 0.031594582
-0.053795997 0.010864457 -0.028359288 0.036848035 -0.022689065 0.03950695 0.0049683927 -0.005955585
0.026647862 -0.038714014 -0.015890317 0.005397093 -0.023180937 -0.033640973 -0.014293874 0.026895115
0.042199157 0.020557052 0.025398618 -0.02090418 0.0090949265 0.00347156 -0.020854764 0.04039132
0.044153556 -0.025729502 0.03145353 0.02205284 -0.003640226 -0.054212686 0.07493828 -0.039962538
-0.034513067 0.0021895373 -0.02747872 0.0019894 0.049314704 0.04484494 0.03495502 -0.036091425
0.040082972 -0.026596596 0.01700379 -0.020632962 -0.020889984 0.0019580673 -0.01650577 0.02264783
-0.032609567 -0.015871469 0.005864411 -0.063366584 0.018053465 -0.025294518 -0.023346625 -0.0019342372
0.04613688 -0.017370926 0.03919461 0.014182949 -0.0016823395 -0.018803723 0.041094273 0.031281233
-0.038064465 0.041652746 0.03682727 -0.01968863 0.012286205 -0.024533616 0.014129316 0.089483716
-0.01607955 -0.018135654 0.0025023695 0.018124865 -0.013241675 0.020097764 -0.03904979 -0.03352084
-0.025348471 -0.036604904 -0.04022467 -0.010496583 0.04152824 0.074342355 -0.038951863 0.07070162
0.02712057 -0.03087426 -0.018562002 0.023579074 -0.015917428 0.0077890498 -0.017865518 -0.015067817
-0.03768294 -0.014397144 -0.02910938 0.03988541 -0.015726088 0.06731178 -0.037015922 -0.12657095
0.0032982277 0.012399167 -0.028480794 -0.005453292 0.010918279 -0.019386342 -0.006691126 -0.022891706
-0.03601178 -0.021285588 -0.025377596 -0.020547811 -0.019989973 0.07662156 0.0034699172 0.0010507952
-0.046351984 -0.008896604 0.022034043 -0.037211984 -0.007923318 -0.020153707 0.06689193 -0.035050765
0.049950846 0.0098119415 -0.013334786 0.05667597 -0.027481463 -0.07916228 -0.020996358 -0.05229159
-0.033538736 -0.0049905623 0.0032668067 -0.052325275 -0.03159588 -0.0071389624 -0.020809373 -0.054825477
00000000: 1ffa 07bd 806a 693d 0694 60bc 6a6a babc
00000010: e44a 203d 7a05 79bd a2ec 65bd ad3d 7abd
00000020: b7f3 c43c 1be8 203c ae27 4b3a f0a7 b6bc
00000030: c9d8 363d c5ec 2bbd 6716 27bb 5b31 66bd
00000040: 957f 35bb 2ef1 843d 6e07 42bd 8ec7 d1bc
00000050: d3bf 97bc 52c4 2d3d 79e0 37bd a42c 0fbd
00000060: b557 3c3c 6163 973b 6456 ca3c 309f 16bb
00000070: 4f5a 4f3c 566f ec3b 7b67 a4bc b472 d7bc
00000080: 806b f5bb 4c9d f73c d373 99bd 7857 aebd
00000090: f987 983b 1e71 c2bc 16e2 32bd c68d d2bc
000000a0: 5440 873d f66a cfbc 89ec 1f3d 2156 13bc
000000b0: 3618 fdba ffc5 afbc 7257 55bc a6c1 3e3c
000000c0: 3690 d3ba 0eee 753c 1084 053d 6ca7 06bc
000000d0: e6af 0cbd e931 4fbb 34e8 d6bc 3d2b 5a3d
000000e0: 34f0 eabb 5baa 303c d56c 413c 18b0 83bd
000000f0: 30ce 5ebc 1909 db3c af20 aa3d 7650 9b3c
00000100: 55cc 90bc af04 a93c c499 32bd b0d0 c1ba
00000110: 9109 edbc 7431 9fbd 9a43 2b3d a0a3 313d
00000120: d036 4dbd cf5d d0bc 9935 ae3c c028 c53b
00000130: bf86 8a3c e842 3f3c 1ce0 aa3c 84ac 2fbc
00000140: 36dd 88bc dbe9 d8bb 72a9 9abd 3e0c b6bc
00000150: 0e68 ddbc 53d0 333c 7ae9 35bc c396 2abd
00000160: 3684 883c eea7 913b d7f9 72bd 66b3 5c3c
00000170: b3ed cdbc f96b a2bc e06e b73c 588d 97bc
00000180: 7913 44bd c18b a7bc 730c 8f3d 216a 93bd
00000190: cb6f 8b3d 7413 a43c fa84 c5bc aed1 073d
000001a0: c386 aabc 36ea 573d 7c32 803d def5 023c
000001b0: d01e 6cbb 850e 3ebd 6b40 3b3d 5269 013d
000001c0: 3159 5cbd d600 323c bd51 e8bc f7ed 163d
000001d0: 6bde b9bc 0ad2 213d e6cd a23b 1127 c3bb
000001e0: 9e4c da3c 9692 1ebd 692c 82bc 19da b03b
000001f0: f3e5 bdbc 1ecb 09bd da30 6abc 2553 dc3c
00000200: 06d9 2c3d 4367 a83c c310 d03c 3e3f abbc
00000210: e302 153c 1d83 633b 9cd7 aabc 5e71 253d
00000220: 5cda 343d adc6 d2bc 6bd5 003d 28a8 b43c
00000230: dc90 6ebb 1f0e 5ebd 3e79 993d c2af 23bd
00000240: 935d 0dbd 577e 0f3b 0d1b e1bc 9860 023b
00000250: 37fe 493d 54af 373d ff2c 0f3d 9ad4 13bd
00000260: 0b2e 243d 1be1 d9bc 884b 8b3c 7506 a9bc
00000270: 7921 abbc eb52 003b 1c37 87bc f187 b93c
00000280: 9c91 05bd e204 82bc 3f2a c03b 57c6 81bd
00000290: dce4 933c 7336 cfbc 6c41 bfbc 3b86 fdba
000002a0: 06fa 3c3d 794d 8ebc 878a 203d 9a5f 683c
000002b0: f281 dcba 440a 9abc 7852 283d c020 003d
000002c0: 7ce9 1bbd 129c 2a3d 31d8 163d 0d4a a1bc
000002d0: 144c 493c b9fa c8bc a67e 673c 3d43 b73d
000002e0: 43b9 83bc 3991 94bc cbfe 233b 997a 943c
000002f0: 9cf3 58bc 11a4 a43c acf2 1fbd 264d 09bd
00000300: 99a7 cfbc 06ef 15bd a0c2 24bd dcf9 2bbc
00000310: 8419 2a3d ce40 983d fd8b 1fbd 03cc 903d
00000320: f52b de3c 04ec fcbc 570f 98bc e728 c13c
00000330: 4465 82bc 493b ff3b b55a 92bc 01df 76bc
00000340: 6d59 1abd 00e2 6bbc cb76 eebc e25e 233d
00000350: ffd3 80bc c2da 893d 029e 17bd d19b 01be
00000360: 1427 583b e025 4b3c 8e50 e9bc 87b1 b2bb
00000370: 95e2 323c 1bd0 9ebc 3c41 dbbb 6387 bbbc
00000380: 1781 13bd 1d5f aebc ade4 cfbc e253 a8bc
00000390: 03c2 a3bc c4eb 9c3d 8d67 633b d6ba 893a
000003a0: 94db 3dbd 10c3 11bc bd80 b43c 986b 18bd
000003b0: ced0 01bc 6319 a5bc a3fe 883d 6491 0fbd
000003c0: 4299 4c3d 44c2 203c 257a 5abc 1025 683d
000003d0: ce20 e1bc d51f a2bd 8e00 acbc b52f 56bd
000003e0: ea5f 09bd df87 a3bb ec17 563b 0753 56bd
000003f0: ae6a 01bd f5ed e9bb 6b78 aabc ae90 60bd

conv2d_5/bias f4 [64]
-0.17853528 -0.10812169 0.051079832 0.00065796194 -0.047364533 -0.11713982 -0.06481673 -0.018393852
0.04417375 0.007850836 -0.06062151 -0.11540264 -0.11489311 0.05117386 0.008785862 0.026175719
0.039927263 -0.088879645 -0.15060058 -0.13058178 -0.044785123 -0.033192232 -0.0722457 0.014389951
-0.056053985 -0.007820683 -0.078476734 -0.13349953 -0.043668967 -0.07146927 -0.10250398 -0.06433545
0.04344664 -0.014724006 -0.07974091 -0.102202736 -0.07860988 -0.12479675 0.049556833 -0.0045692944
-0.084465675 -0.014866394 -0.018170627 0.048726033 0.025942044 0.009571668 0.019636832 -0.100290485
-0.021278739 -0.14549197 -0.042635545 0.08412043 -0.05238289 -0.013306022 0.027277168 -0.0128472345
-0.08097232 -0.040727008 -0.008626585 -0.16159412 -0.1424527 -0.05738042 -0.017666116 0.042555258
00000000: f4d1 36be e86e ddbd 1639 513d 147b 2c3a
00000010: 5001 42bd 00e7 efbd a2be 84bd b4ae 96bc
00000020: 89ef 343d cba0 003c 434e 78bd 3858 ecbd
00000030: 144d ebbd ae9b 513d 93f2 0f3c 766e d63c
00000040: c58a 233d 8806 b6bd 0a37 1abe 3bb7 05be
00000050: 9b70 37bd 94f4 07bd 8ef5 93bd d4c3 6b3c
00000060: dd98 65bd 5222 00bc 69b8 a0bd 1ab4 08be
00000070: 3bde 32bd 7b5e 92bd 9bed d1bd 4ec2 83bd
00000080: 1bf5 313d f53c 71bc 344f a3bd ab4f d1bd
00000090: 37fe a0bd 7095 ffbd 1bfc 4a3d 05ba 95bb
000000a0: 57fc acbd 2d92 73bc 91da 94bc f394 473d
000000b0: 6984 d43c 7cd2 1c3c 6cdd a03c 1965 cdbd
000000c0: c050 aebc d9fb 14be 9ca2 2ebd 5547 ac3d
000000d0: 718f 56bd 8001 5abc 5e74 df3c 357d 52bc
000000e0: d1d4 a5bd 5dd1 26bd 8556 0dbc ee78 25be
000000f0: 1fdf 11be bb07 6bbd 88b8 90bc 6c4e 2e3d

conv2d_4/bias f4 [64]
-0.07757402 0.031451534 -0.0378864 -0.06639816 -0.19321674 -0.03975608 -0.06684291 0.008741796
-0.115026556 -0.059615597 0.19730437 -0.08659512 -0.12651806 -0.01967776 0.11413755 -0.11725606
0.031216407 -0.1563148 -0.07942924 -0.010905203 -0.18981895 -0.032642316 -0.06538186 -0.11020128
-0.036234666 0.023627669 0.089733906 0.0054146694 0.11683118 -0.077067696 0.07898655 -0.24205455
-0.0119279 0.113914885 -0.096495435 0.015631553 -0.004869492 0.031068223 0.05782032 -0.019408558
-0.04110361 -0.0041195676 0.08752631 -0.0045789587 0.0746694 -0.017542789 0.014073808 0.025342733
-0.16179706 0.096090384 0.03563725 0.07520971 0.0029696943 -0.08517226 0.078274295 -0.07664891
0.09298907 -0.07420811 0.0107248165 0.011192017 -0.073723175 0.09014883 -0.08906755 -0.0439595
00000000: 21df 9ebd 53d3 003d c52e 1bbd c2fb 87bd
00000010: 9cda 45be 45d7 22bd f0e4 88bd c039 0f3c
00000020: 0b93 ebbd 7c2f 74bd 280a 4a3e c858 b1bd
00000030: f38d 01be 4133 a1bc f3c0 e93d f223 f0bd
00000040: 8db9 ff3c fd10 20be ccab a2bd bdab 32bc
00000050: e65f 42be f3b3 05bd ede6 85bd 35b1 e1bd
00000060: cd6a 14bd d08e c13c 69c6 b73d 8a6d b13b
00000070: 3045 ef3d abd5 9dbd b3c3 a13d 26dd 77be
00000080: 3d6d 43bc 354c e93d 669f c5bd be0d 803c
00000090: 4290 9fbb c982 fe3c 00d5 6c3d b2fe 9ebc
000000a0: 425c 28bd 70fd 86bb fe40 b33d 170b 96bb
000000b0: 45ec 983d e5b5 8fbc d495 663c 909b cf3c
000000c0: 21ae 25be 09cb c43d 5df8 113d 8c07 9a3d
000000d0: 349f 423b cb6e aebd 464e a03d 1bfa 9cbd
000000e0: 0e71 be3d 6cfa 97bd 24b7 2f3c b95e 373c
000000f0: 2dfc 96bd f39f b83d 0c69 b6bd e00e 34bd

conv2d_3/bias f4 [32]
-0.076692924 -0.055266507 -0.028625207 0.0762692 0.09195042 -0.07732683 -0.06813637 -0.099273376
-0.070306934 -0.031481143 0.059457988 0.020048156 -0.23563093 -0.054328024 -0.070575155 -0.09646541
-0.05273666 -0.05910157 -0.0452439 0.0035400353 0.0442921 -0.12342332 0.08240792 -0.056934178
0.0013982038 -0.088274874 -0.09279929 -0.06461706 -0.07318023 -0.117245466 -0.06263674 -0.04441494
00000000: 2e11 9dbd 225f 62bd 697f eabc 0733 9c3d
00000010: 8050 bc3d 875d 9ebd 158b 8bbd d74f cbbd
00000020: 15fd 8fbd 5ff2 00bd 388a 733d 083c a43c
00000030: 3c49 71be 1087 5ebd b589 90bd a88f c5bd
00000040: 6502 58bd 7d14 72bd ab51 39bd f0ff 673b
00000050: a26b 353d 5ec5 fcbd 7cc5 a83d d033 69bd
00000060: ef43 b73a 75c9 b4bd 8e0d bebd f355 84bd
00000070: 84df 95bd 641e f0bd b147 80bd 71ec 35bd

sequential_1/batch_normalization_1/FusedBatchNormV3 f4 [3]
0.014420148 0.01737573 0.011880465
00000000: 7c42 6c3c 8c57 8e3c 48a6 423c

sequential_1/batch_normalization_1/FusedBatchNormV31 f4 [3]
-1.8522896 -2.17632 -1.475028
00000000: d317 edbf d448 0bc0 b8cd bcbf

sequential_1/dense_2/MatMul f4 [256, 512]
-0.020192457 0.0020889817 0.0144064715 0.051074777 -0.13081503 -0.06868004 0.013470983 0.08694013
-0.04248114 0.04635442 -0.09553333 0.06191675 -0.12504742 0.016234599 -0.11363132 -0.05569266
-0.03162632 -0.04738377 -0.030307537 0.08859698 -0.040658455 -0.08541371 -0.049027607 -0.040988173
0.016233876 -0.034085583 -0.019356968 -0.08084535 0.044148065 -0.013204991 -0.16022213 -0.021134116
0.023208303 -0.06806696 0.027471935 -0.021668587 0.062290087 0.08681155 -0.09853637 -0.0103936875
0.055910174 -0.005607408 -0.034353737 -0.041935064 -0.049655084 -0.17649482 -0.15180875 -0.046029877
-0.016686864 0.10438499 0.056520894 -0.09752899 -0.021192884 -0.09839379 -0.09486306 0.036522016
-0.073817566 0.03565918 -0.028516255 0.001669207 -0.1408741 -0.060390953 -0.089297794 0.027129581
-0.08693783 -0.019640263 -0.056041986 -0.013937638 0.046843443 -0.04175527 0.022508403 0.015580851
0.06577438 -0.108715214 0.051535327 -0.0025666978 0.062354576 -0.09519246 0.02475208 -0.13072962
-0.058864515 -0.033000723 0.13604914 0.10598261 -0.045831975 -0.021495193 0.07350237 0.0070166374
0.072165556 0.021083798 -0.13013098 0.05515143 -0.06121457 -0.0017042853 -0.11661236 -0.010218209
-0.12716669 0.0271499 0.026371075 0.11766959 0.04959455 -0.085356586 0.015030097 0.023731733
0.08447477 -0.09318792 0.021246273 -0.060775947 -0.12571354 -0.02995492 -0.097788244 0.10730926
0.067809105 -0.018181285 -0.061978966 -0.07456812 -0.013288677 -0.07861011 -0.030136408 0.041536927
-0.049343314 -0.10506421 0.047651563 0.06319586 0.11398433 -0.11466304 0.049393628 0.043206356
0.13820346 -0.07831707 -0.07334335 0.16397512 0.009060804 -0.04151737 0.17590344 -0.0557325
-0.007735816 0.07732258 0.008315839 0.05552939 0.07813545 -0.048658453 -0.083760545 -0.0203236
-0.051991206 0.1404253 0.036154386 0.06064303 0.038761962 -0.079254024 -0.11603429 0.09739192
-0.008451988 -0.08124686 -0.01778803 0.031898092 -0.07057032 -0.087254085 0.03983326 -0.054021176
0.049641326 0.056830492 -0.029373711 -0.18533833 -0.07784419 0.124181606 -0.012281303 -0.050459385
0.02711169 0.051998734 -0.033835802 -0.06202177 0.042746276 0.09441203 -0.035166707 0.051041536
0.18275015 -0.13810359 0.04716286 0.16970837 0.07914859 -0.049970523 -0.09484517 -0.031373806
-0.058400597 -0.055465687 0.021891115 -0.14803106 -0.06573104 -0.04448393 -0.08960298 0.072798096
-0.018345192 -0.04981129 0.0027439399 0.08464963 -0.0005071515 0.06550365 0.054367676 -0.07943414
0.12967634 0.039551895 -0.068403214 0.13563174 0.0957253 0.0821583 0.0031281412 0.03845567
0.047073655 0.12377374 0.028657034 0.027762862 0.23296607 -0.051007055 0.048381176 0.05606027
-0.021178422 0.039825384 0.030322993 0.12949704 -0.09100144 -0.095375866 0.02274883 -0.0031466642
-0.05544654 -0.026585834 0.16262409 -0.118974335 -0.088145 0.078211434 0.041453093 0.08197655
0.037233546 -0.009610205 0.19822066 -0.038289707 0.013622998 0.03687722 -0.09343697 -0.04133803
0.12391035 0.039243978 0.031901527 0.11610004 0.17787148 -0.007948286 -0.0691143 -0.0487083
0.04158298 0.10251278 -0.01943565 -0.08712013 -0.012980383 0.04117039 -0.0032212576 0.05317961
00000000: a76a a5bc 4ce7 083b 1f09 6c3c c933 513d
00000010: 60f4 05be 1fa8 8cbd 66b5 5c3c ab0d b23d
00000020: b400 2ebd 22de 3d3d fba6 c3bd 6b9c 7d3d
00000030: 6e0c 00be 6cfe 843c 8ab7 e8bd fd1d 64bd
00000040: 9a8a 01bd 7c15 42bd 8347 f8bc 5572 b53d
00000050: 7b89 26bd 62ed aebd 2cd1 48bd 37e3 27bd
00000060: e8fc 843c 539d 0bbd 8192 9ebc 3f92 a5bd
00000070: 9ad4 343d bf59 58bc 4511 24be 7421 adbc
00000080: 571f be3c b166 8bbd d30c e13c 5282 b1bc
00000090: e423 7f3d 41ca b13d 70cd c9bd 494a 2abc
000000a0: 1102 653d 59be b7bb 81b6 0cbd 1ac4 2bbd
000000b0: 2163 4bbd 0fbb 34be c173 1bbe d389 3cbd
000000c0: e4b2 88bc ccc7 d53d 7482 673d 47bd c7bd
000000d0: b39c adbc af82 c9bd 9047 c2bd 1c98 153d
000000e0: aa2d 97bd 5c0f 123d ec9a e9bc 4bc9 da3a
000000f0: 4d41 10be 815c 77bd c3e1 b6bd db3e de3c
00000100: 760c b2bd 9ee4 a0bc 488c 65bd b15a 64bc
00000110: e9de 3f3d 9307 2bbd 8b63 b83c d346 7f3c
00000120: b8b4 863d 15a6 debd b516 533d 0b36 28bb
00000130: 8367 7f3d 44f4 c2bd e0c4 ca3c fcdd 05be
00000140: eb1b 71bd c42b 07bd 7750 0b3e 690d d93d
00000150: 4fba 3bbd b016 b0bc 6988 963d d2eb e53b
00000160: 89cb 933d eeb7 ac3c 0e41 05be 77e6 613d
00000170: 21bc 7abd 5362 dfba 76d2 eebd 466a 27bc
00000180: fc37 02be 7869 de3c 2708 d83c c1fc f03d
00000190: a823 4b3d 6fcf aebd cc40 763c 0d69 c23c
000001a0: 1c01 ad3d 4fd9 bebd aa0c ae3c 33f0 78bd
000001b0: 0dbb 00be 0564 f5bc 3445 c8bd f5c4 db3d
000001c0: 80df 8a3d ebf0 94bc a8dd 7dbd 2cb7 98bd
000001d0: c0b8 59bc 56fe a0bd a1e0 f6bc a022 2a3d
000001e0: 371c 4abd e82b d7bd 492e 433d d56c 813d
000001f0: 9e70 e93d 75d4 eabd f950 4a3d 26f9 303d
00000200: 3585 0d3e b364 a0bd 0a35 96bd 18e9 273e
00000210: c473 143c 1e0e 2abd 0820 343e c347 64bd
00000220: ba7c fdbb 4d5b 9e3d 283f 083c c972 633d
00000230: 7b05 a03d 164e 47bd a68a abbd ae7d a6bc
00000240: bbf4 54bd a6cb 0f3e 9f16 143d d364 783d
00000250: ddc4 1e3d ef4f a2bd 63a3 edbd 6a75 c73d
00000260: 357a 0abc c164 a6bd 34b8 91bc 93a7 023d
00000270: 2c87 90bd 45b2 b2bd 3328 233d 4f45 5dbd
00000280: b454 4b3d 17c7 683d 23a1 f0bc 55c9 3dbe
00000290: c66c 9fbd ed52 fe3d 8537 49bc 80ae 4ebd
000002a0: 5619 de3c a0fc 543d 6997 0abd 8a0a 7ebd
000002b0: b816 2f3d 185b c13d f70a 10bd ee10 513d
000002c0: db22 3b3e 076b 0dbe d82d 413d 08c8 2d3e
000002d0: a818 a23d e4ad 4cbd 2f3e c2bd d281 00bd
000002e0: 7735 6fbd fd2f 63bd ff54 b33c 7495 17be
000002f0: ff9d 86bd c834 36bd c481 b7bd 2b17 953d
00000300: a848 96bc ec06 4cbd acd3 333b c95c ad3d
00000310: 5cf2 04ba c726 863d a4b0 5e3d 5eae a2bd
00000320: e0c9 043e 2b01 223d fc16 8cbd 0ce3 0a3e
00000330: a00b c43d 9c42 a83d 8001 4d3b b183 1d3d
00000340: 4ed0 403d 167d fd3d 28c2 ea3c f16e e33c
00000350: a88e 6e3e c6ec 50bd 572b 463d 749f 653d
00000360: 5f7e adbc f11f 233d ed67 f83c df9a 043e
00000370: f75e babd 6c54 c3bd c15b ba3c 4438 4ebb
00000380: e91b 63bd 89ca d9bc ee86 263e d1a8 f3bd
00000390: 5e85 b4bd 512d a03d b8ca 293d 52e3 a73d
000003a0: 3482 183d 1f74 1dbc 5bfa 4a3e abd5 1cbd
000003b0: ff32 5f3c 910c 173d e25b bfbd 1152 29bd
000003c0: b6c4 fd3d 4bbe 203d 2dab 023d dcc5 ed3d
000003d0: f123 363e 8739 02bc cc8b 8dbd 5b82 47bd
000003e0: ea52 2a3d 38f2 d13d 8337 9fbc 0a6c b2bd
000003f0: acab 54bc 48a2 283d bc1b 53bb ddd2 593d

sequential_1/dense_3/MatMul f4 [11, 256]
-0.011719726 -0.068564594 -0.19335149 0.05095899 -0.079478174 0.12670691 -0.11244508 -0.27288353
-0.29828826 -0.2709851 -0.353822 0.099588394 -0.20062341 2.5791038e-05 0.06738921 -0.10367425
-0.23654076 -0.29438716 -0.20400381 0.012895973 0.02137985 -0.029240953 0.005117589 -0.1277725
-0.45566484 -0.10609634 -0.25897363 -0.24899776 0.02388362 -0.20585187 -0.114006475 -0.3043378
-0.18391551 -0.39952856 -0.05134787 0.061106555 0.08492161 -0.01444806 -0.08342146 -0.06322283
-0.22050302 -0.3001063 -0.032473236 0.1303349 -0.12607686 0.03095907 0.0808168 -0.40656054
-0.08639697 -0.15551752 0.060738783 -0.071807116 -0.0659217 -0.24843065 -0.10875342 -0.2798813
-0.13158618 -0.007049098 -0.33878112 0.019673184 -0.089833155 -0.16856246 -0.3691185 -0.16072603
-0.15768297 -0.017147511 -0.07822188 -0.13468918 -0.087684825 0.031660598 -0.02724717 -0.38194323
-0.2556718 0.035917092 -0.3649644 -0.19787042 -0.30216664 -0.210482 -0.1721326 -0.23320684
-0.043970197 -0.12930183 0.040156435 0.016381077 -0.13549319 -0.16230533 -0.0521447 -0.09803826
-0.06502566 -0.05967859 -0.2541412 -0.18323307 -0.020081721 -0.1712961 -0.06674151 0.08303546
0.12643503 -0.024952378 -0.060903084 -0.24157377 -0.39540988 -0.062346634 -0.09701188 -0.28827947
-0.05948444 -0.28125823 -0.37246132 -0.10268483 0.026178775 -0.18288486 -0.34184486 -0.27436835
-0.20809744 -0.28104946 -0.288441 -0.40326974 -0.020883342 -0.30458143 -0.07521152 -0.07617778
-0.09995816 -0.1235278 -0.41354346 -0.122728564 -0.06951315 0.039977018 -0.22979493 -0.40090442
-0.28130278 -0.18700512 -0.11615156 0.03955573 -0.18765454 -0.07848201 -0.088929854 -0.48039517
-0.13028914 -0.15790194 -0.31610817 -0.013719874 0.06373889 -0.28976458 -0.40357646 -0.084733665
-0.35593185 -0.3117357 -0.2365116 -0.4349164 -0.1046363 -0.34072432 -0.36363482 -0.13202693
-0.2699339 -0.055581987 -0.122167744 -0.03168272 0.009238535 -0.40842494 -0.12623265 -0.047880523
0.1250768 0.08521531 -0.074015535 -0.10888187 0.024493838 -0.051987465 -0.26822084 0.06177888
-0.36670756 0.061429344 -0.07683382 0.008814362 -0.18513939 -0.19706841 -0.07102309 -0.37873974
-0.05480926 -0.27446407 -0.15190552 0.055473585 -0.15496145 -0.149663 -0.13056831 -0.23796085
0.09148486 -0.12983415 -0.082105115 -0.06039784 0.0117044095 -0.14441858 -0.12567338 -0.112971134
-0.05523163 -0.32025513 -0.03212011 -0.045258258 -0.0942736 -0.26059464 -0.05489345 -0.15242566
-0.1635241 -0.28779402 -0.116413474 -0.36358726 0.014202995 0.093915075 0.060876723 -0.03545151
-0.030741733 -0.2974469 -0.29373083 0.053250853 -0.046674132 -0.12946738 -0.26331115 0.25842988
-0.4493343 -0.14929049 -0.1191387 -0.11845232 0.06446366 -0.08073735 -0.17905697 -0.01232734
-0.29126376 -0.090120934 0.061512295 0.026171045 -0.27809215 -0.48499125 -0.07484128 -0.23479374
-0.012259922 -0.011518482 -0.06402218 -0.101421446 -0.102744855 -0.16002107 -0.078365326 -0.06668824
-0.29655978 -0.13094051 -0.18597972 -0.08845883 -0.1646624 -0.32545805 -0.1499119 -0.30518186
-0.028303508 0.0679938 -0.15294461 -0.12126975 -0.12516938 -0.29500932 -0.18052424 -0.0601346
00000000: 1804 40bc 986b 8cbd effd 45be 60ba 503d
00000010: 74c5 a2bd 75bf 013e 9b49 e6bd 64b7 8bbe
00000020: 3db9 98be 8fbe 8abe 2828 b5be 00f5 cb3d
00000030: 3970 4dbe d559 d837 5b03 8a3d 2a53 d4bd
00000040: be37 72be eab9 96be 60e6 50be a249 533c
00000050: cc24 af3c b98a efbc 73b1 a73b cbd6 02be
00000060: e74c e9be 0a49 d9bd 3198 84be 45f9 7ebe
00000070: 95a7 c33c d5ca 52be 3a7c e9bd 2ad2 9bbe
00000080: 5954 3cbe 028f ccbe 2552 52bd de4a 7a3d
00000090: 62eb ad3d 8eb7 6cbc dfd8 aabd f97a 81bd
000000a0: 8bcb 61be 88a7 99be a802 05bd 8376 053e
000000b0: 4b1a 01be e09d fd3c 4783 a53d b428 d0be
000000c0: e5f0 b0bd fc3f 1fbe 3bc9 783d 9c0f 93bd
000000d0: f501 87bd 9b64 7ebe 1dba debd 9a4c 8fbe
000000e0: 87be 06be 1ffc e6bb b874 adbe a829 a13c
000000f0: 72fa b7bd a39b 2cbe 1afd bcbe 5d95 24be
00000100: a577 21be f078 8cbc cb32 a0bd f6eb 09be
00000110: 1a94 b3bd 8bae 013d 7535 dfbc 108e c3be
00000120: 6ae7 82be cd1d 133d 9ddc babe 8b9e 4abe
00000130: 96b5 9abe 9888 57be 8743 30be c6cd 6ebe
00000140: 181a 34bd b367 04be 137b 243d 9c31 863c
00000150: babe 0abe 5e33 26be ae95 55bd 49c8 c8bd
00000160: 2c2c 85bd 8a71 74bd cc1e 82be 73a1 3bbe
00000170: 6c82 a4bc 3f68 2fbe c6af 88bd 7f0e aa3d
00000180: 2f78 013e ee68 ccbc 8375 79bd 1d5f 77be
00000190: 2a73 cabe 2f5f 7fbd 2aae c6bd 5e99 93be
000001a0: f5a5 73bd 1401 90be 40b3 bebe 6d4c d2bd
000001b0: df74 d63c 2b46 3bbe 4a06 afbe 027a 8cbe
000001c0: 7f17 55be b7e5 8fbe 8aae 93be 5f79 cebe
000001d0: 8b13 abbc 19f2 9bbe 7f08 9abd 1903 9cbd
000001e0: ddb6 ccbd 25fc fcbd f8bb d3be 1d59 fbbd
000001f0: e95c 8ebd f1be 233d 5d4f 6bbe 5843 cdbe
00000200: eb06 90be 457e 3fbe dee0 edbd 3005 223d
00000210: 8328 40be 2dbb a0bd db20 b6bd 5bf6 f5be
00000220: 846a 05be 0cb1 21be eed8 a1be 53c9 60bc
00000230: 8989 823d 065c 94be 93a1 cebe d888 adbd
00000240: b33c b6be d29b 9fbe 1930 72be 5dad debe
00000250: 8e4b d6bd 6b73 aebe 582e babe 1132 07be
00000260: c734 8abe f0a9 63bd 1533 fabd bdc5 01bd
00000270: 395d 173c 131d d1be 2243 01be 5e1e 44bd
00000280: 2214 003e 5d85 ae3d 7595 97bd 75fd debd
00000290: 4da7 c83c cff0 54bd 3e54 89be da0b 7d3d
000002a0: 18c1 bbbe 569d 7b3d 0d5b 9dbd 1d6a 103c
000002b0: 2e95 3dbe 4dcc 49be 8e74 91bd 2dea c1be
000002c0: ad7f 60bd 8e86 8cbe 1f8d 1bbe 4538 633d
000002d0: 37ae 1ebe 4241 19be b3b3 05be 02ac 73be
000002e0: 6a5c bb3d 3ef3 04be ba26 a8bd ba63 77bd
000002f0: dac3 3f3c 77e2 13be 86b0 00be 695d e7bd
00000300: 903a 62bd 7bf8 a3be 6090 03bd b960 39bd
00000310: 8412 c1bd a96c 85be f4d7 60bd 7915 1cbe
00000320: dd72 27be bd59 93be 306a eebd 1c28 babe
00000330: aeb3 683c 8c56 c03d df59 793d 9a35 11bd
00000340: 16d6 fbbc f64a 98be e363 96be 911d 5a3d
00000350: 602d 3fbd 1993 04be b8d0 86be ec50 843e
00000360: 250f e6be 9bdf 18be fefe f3bd 2197 f2bd
00000370: 8605 843d a059 a5bd b65a 37be 9df8 49bc
00000380: 8620 95be 5391 b8bd 51f4 7b3d a964 d63c
00000390: 1862 8ebe c650 f8be 6346 99bd c56d 70be
000003a0: d7dd 48bc 04b8 3cbc 101e 83bd 0cb6 cfbd
000003b0: e56b d2bd 90dc 23be 007e a0bd d893 88bd
000003c0: afd6 97be 4515 06be 7871 3ebe e729 b5bd
000003d0: 439d 28be 70a2 a6be 8182 19be cc40 9cbe
000003e0: c2dc e7bc 5540 8b3d 839d 1cbe 465c f8bd
000003f0: 672c 00be 760b 97be 59db 38be b34f 76bd

sequential_1/conv2d_3/Conv2D f4 [32, 3, 3, 3]
0.09978062 0.18655448 -0.032541506 0.081782185 0.27229196 0.02193644 0.12130935 0.21981135
0.20521942 -0.018512715 0.12972486 -0.019681683 -0.09086865 -0.16321701 -0.059137683 -0.27470338
-0.18499294 -0.16033462 -0.06042671 -0.18226585 0.052108485 -0.0312944 -0.0017343754 -0.15673774
-0.04053909 -0.034853347 -0.14494362 -0.00922225 -0.14821574 -0.09550839 -0.027616007 0.17513134
0.13920201 0.05932239 0.2550059 0.17566332 0.098532476 0.03862999 0.17505585 0.04052666
0.18229492 -0.08522076 -0.0096286135 0.0662696 0.08728358 0.018359492 0.065824874 -0.009123202
0.071641535 -0.015744025 -0.03136608 -0.118116826 -0.30883938 -0.29267925 0.06784293 0.17990503
0.1504746 0.06417326 0.18699867 -0.02374096 -0.05326229 -0.2314079 -0.123192765 0.084860735
-0.056603633 0.13698779 -0.032399613 0.14101072 0.09479537 -0.2936356 -0.12120909 -0.081986554
0.034000847 -0.040596858 0.1238749 0.009727885 -0.0074989456 -0.03898763 0.047387045 -0.082983986
-0.031400025 -0.075374655 0.003004992 0.03466096 0.12026179 0.012998834 0.030478295 0.08507167
0.070925765 0.0593985 -0.14415954 -0.12434776 -0.07700506 -0.09315421 -0.0014646045 0.072602466
0.09741373 0.15236415 -0.02882759 -0.26664808 -0.13618854 -0.05782847 -0.074327126 -0.024633285
0.085039884 0.06431646 0.128139 0.13390444 -0.14313033 -0.055321444 -0.09792103 -0.011206135
0.1376323 0.025102861 0.070721194 0.006981285 0.057453137 -0.12030805 -0.067335285 -0.15457286
0.054236036 0.05377497 -0.0102434065 0.092177145 0.017310368 0.044020858 -0.11195382 -0.14209604
-0.0035001258 0.039332535 0.03047187 -0.030662071 0.061905257 0.118311025 -0.03695886 0.028865539
-0.11159304 0.104237385 0.033299144 0.16293553 0.04171208 0.06140881 0.03438177 -0.106621206
-0.114779614 -0.13639896 -0.1979365 0.07245101 0.12161469 0.17908572 0.034159455 -0.021284848
0.05246112 -0.14969273 -0.08700231 -0.11230309 0.039213523 0.05671788 0.06208686 0.042892754
0.04958791 0.111808956 -0.0151669 0.14019999 0.19422589 -0.01501357 -0.010013548 -0.09788043
-0.026091794 0.1337244 -0.07141896 0.07441544 0.073987864 0.15516679 0.16810928 -0.12649782
0.11086217 -0.19092461 0.025296845 0.072838776 -0.029158868 -0.10502366 0.16475666 -0.14137359
0.059147395 -0.11475056 -0.16529803 -0.21676047 0.04954042 -0.038477924 0.11095931 0.06314118
-0.01179951 0.09020408 -0.07358664 0.24681175 0.19929416 0.067511715 -0.07245721 -0.15681449
0.015743142 -0.1363648 -0.28874588 -0.19125873 -0.11944478 -0.12977391 0.09801458 0.045223203
0.05967966 0.05047228 0.017464463 0.14868972 0.0116795935 0.007247726 0.0065726126 -0.06482077
0.21324512 0.10878889 0.22311905 -0.0029875156 0.041965738 0.072230436 -0.05656291 0.059830625
-0.0851853 0.12000074 0.094051756 -0.05261091 4.1347685e-05 0.09527558 0.031264365 -0.059549727
-0.015481772 -0.17732802 -0.10094492 0.054009415 0.11772677 -0.20023033 -0.20405635 -0.058090415
-0.012350385 -0.205006 0.0014338234 0.22586745 0.02167803 0.097761944 -0.08380851 -0.12584949
0.05710884 -0.03347185 -0.12260674 0.007157005 0.03202551 0.19194824 0.08493787 -0.12821853
00000000: c859 cc3d 2308 3f3e 3e4a 05bd 6b7d a73d
00000010: da69 8b3e 0db4 b33c 0971 f83d 3a16 613e
00000020: 0a25 523e faa7 97bc 98d6 043e 7b3b a1bc
00000030: 5819 babd 5c22 27be 5b3a 72bd eca5 8cbe
00000040: ca6e 3dbe c22e 24be ff81 77bd e6a3 3abe
00000050: b56f 553d 8f2e 00bd fb53 e3ba dc7f 20be
00000060: 510c 26bd 62c2 0ebd 1a6c 14be ec18 17bc
00000070: dec5 17be e799 c3bd f73a e2bc a155 333e
00000080: f98a 0e3e 09fc 723d 2290 823e 16e1 333e
00000090: 65cb c93d 7b3a 1e3d d741 333e 48ff 253d
000000a0: 85ab 3a3e 3988 aebd 55c1 1dbc 5bb8 873d
000000b0: bcc1 b23d a566 963c 31cf 863d 7c79 15bc
000000c0: ccb8 923d 9df9 80bc b879 00bd 3ce7 f1bd
000000d0: 3220 9ebe 0eda 95be 3cf1 8a3d 0639 383e
000000e0: 0316 1a3e 456d 833d 947c 3f3e 677c c2bc
000000f0: 8f29 5abd 31f6 6cbe 7d4c fcbd 77cb ad3d
00000100: 36d9 67bd 8746 0c3e 75b5 04bd 1d65 103e
00000110: 1324 c23d 6857 96be 793c f8bd 91e8 a7bd
00000120: 7944 0b3d e448 26bd 20b2 fd3d b561 1f3c
00000130: b7b9 f5bb 7eb1 1fbd eb18 423d 82f3 a9bd
00000140: 509d 00bd 075e 9abd 66ef 443b a7f8 0d3d
00000150: d04b f63d 10f9 543c 9ead f93c 0e3a ae3d
00000160: 8741 913d d74b 733d 8f9e 13be 0aaa febd
00000170: d4b4 9dbd a2c7 bebd f9f7 bfba 9ab0 943d
00000180: da80 c73d 5905 1c3e d727 ecbc 1986 88be
00000190: 0275 0bbe 8cdd 6cbd d238 98bd becb c9bc
000001a0: 6429 ae3d 59b8 833d df36 033e 3f1e 093e
000001b0: c290 12be bd98 62bd d28a c8bd f099 37bc
000001c0: 7bef 0c3e 84a4 cd3c 46d6 903d 43c3 e43b
000001d0: fb53 6b3d 1164 f6bd 15e7 89bd 5948 1ebe
000001e0: 9b26 5e3d 2543 5c3d f6d3 27bc 5fc7 bc3d
000001f0: 79ce 8d3c 374f 343d 0b48 e5bd a081 11be
00000200: 5e62 65bb 271b 213d 25a0 f93c 062f fbbc
00000210: 5e90 7d3d 0d4d f23d 2c62 17bd 6c77 ec3c
00000220: e48a e4bd 697a d53d af64 083d 92d8 263e
00000230: 49da 2a3d ce87 7b3d e6d3 0c3d 385c dabd
00000240: 9311 ebbd 2bac 0bbe deaf 4abe 3261 943d
00000250: 1f11 f93d 3f62 373e c9ea 0b3d 905d aebc
00000260: 79e1 563d 0d49 19be 442e b2bd 2aff e5bd
00000270: 5c9e 203d 0251 683d cb4e 7e3d 50b0 2f3d
00000280: b11c 4b3d 18fc e43d 977e 78bc 9690 0f3e
00000290: 27e3 463e 7afb 75bc dd0f 24bc 8975 c8bd
000002a0: 75be d5bc 0def 083e 1b44 92bd 1f67 983d
000002b0: f386 973d 0be4 1e3e d724 2c3e a588 01be
000002c0: b50b e33d be81 43be 543b cf3c 7f2c 953d
000002d0: 94de eebc a516 d7bd f8b5 283e 3dc4 10be
000002e0: 8a44 723d 5702 ebbd e343 29be 75f6 5dbe
000002f0: e5ea 4a3d 079b 1dbd a23e e33d 2a50 813d
00000300: bb52 41bc ebbc b83d 98b4 96bd 38bc 7c3e
00000310: c513 4c3e 9543 8a3d 7264 94bd fa93 20be
00000320: c3f7 803c 37a3 0bbe 80d6 93be 54d9 43be
00000330: 779f f4bd 74e3 04be debb c83d f73b 393d
00000340: a972 743d 05bc 4e3d a211 8f3c 1e42 183e
00000350: c45b 3f3c 557e ed3b 125f d73b c0c0 84bd
00000360: ee5c 5a3e b6cc de3d 5279 643e 32ca 43bb
00000370: 44e4 2b3d 8ded 933d 83ae 67bd f510 753d
00000380: a175 aebd f3c2 f53d 359e c03d 8a7e 57bd
00000390: bd6c 2d38 d81f c33d 100f 003d 6aea 73bd
000003a0: 42a7 7dbc 7a95 35be 36bc cebd fa38 5d3d
000003b0: bc1a f13d 2e09 4dbe 26f4 50be 37f0 6dbd
000003c0: 4559 4abc 18ed 51be 21ef bb3a cc49 673e
000003d0: 2096 b13c 6a37 c83d cca3 abbd b0de 00be
000003e0: f6ea 693d c719 09bd 3e19 fbbd 4f85 ea3b
000003f0: 2e2d 033d 148e 443e e8f3 ad3d b84b 03be

sequential_1/conv2d_4/Conv2D f4 [64, 3, 3, 32]
0.04786505 0.009367573 0.031683493 -0.054427847 0.053556632 0.046847437 0.046470128 -0.030691355
0.03864422 -0.11252017 0.023010695 0.11386929 0.006020572 0.04492029 -0.09687462 -0.08826769
0.082441755 0.06491779 0.20684364 0.061850905 0.04032014 0.017286638 0.057019368 -0.031417646
-0.017958252 0.07743645 -0.042625267 0.2230892 0.06205099 0.014131448 0.11510524 0.031290743
-0.05521745 -0.0055773617 0.0532916 0.07959031 -0.07597118 0.053556204 -0.108268045 0.10068099
0.06680145 0.039885547 0.044410687 -0.035335563 0.022450348 0.01199294 0.0014960597 0.11869722
0.012365616 0.046808388 0.051035717 0.023657508 -0.025594756 0.02297701 -0.0549855 0.09948445
0.04861427 -0.0072546797 -0.013762245 0.16790766 0.039705593 0.005856198 -0.026617555 -0.008501121
0.02105933 -0.17871499 -0.06768009 0.093178906 -0.035735194 -0.13959122 -0.09857047 0.17416681
0.032323733 0.0928185 0.037698876 0.066398844 -0.12164693 0.23860726 -0.030491827 -0.049771223
0.15274854 -0.018816775 0.051315315 -0.108915426 0.08790055 0.019709067 0.03785655 -0.114924334
-0.15775602 -0.012181572 -0.0007100091 0.088234946 0.0735814 -0.080486044 -0.0999663 -0.066602655
-0.0977175 -0.11391131 0.13415939 -0.14483525 -0.012838815 0.007067116 -0.16091183 -0.06731336
-0.08658072 -0.052960627 -0.13942163 -0.05101049 0.038205046 -0.116755486 -0.10510096 -0.08068435
0.098907724 0.1657859 0.106617235 0.24457549 -0.052238457 0.19953342 0.011405811 0.15704814
-0.082972094 -0.11122002 -0.016331883 0.08830093 0.33391094 -0.05351667 0.008694129 -0.08522098
-0.16005005 -0.112398766 0.07507115 -0.15650195 -0.074176274 0.07394076 -0.07192621 0.18131268
-0.029571086 -0.016743002 0.040248882 -0.15927856 0.039875112 -0.073709734 -0.19769606 -0.3288961
0.14481641 0.010811684 0.115840375 0.05731112 -0.046986714 0.058699783 0.0047657355 -0.1519583
-0.14414586 -0.010897027 -0.2768445 0.15061948 0.053707507 -0.02566393 0.1099305 -0.1395706
0.04310976 0.044203557 0.045666505 -0.017109603 0.017478129 0.0068550347 0.03132081 0.16613953
0.13890849 0.18975635 -0.03850184 0.12539671 0.025553651 0.07511527 -0.07017581 -0.07043525
0.28588372 0.030942287 0.28709343 -0.035558887 0.057286963 -0.027525293 -0.11026108 -0.16678531
-0.09305545 0.0417028 -0.15625155 -0.010482532 0.073596455 0.0954668 0.17424662 -0.009308284
-0.090910144 -0.05352872 -0.018242847 0.045485184 0.085285254 0.13489576 -0.030361343 -0.03639467
-0.11615604 -0.20401923 -0.13961254 0.11076976 0.027699914 0.0508557 0.21458705 0.16705221
-0.19062455 -0.12568998 -0.16825728 -0.055140484 -0.05446319 -0.061405584 -0.004898663 0.16789411
0.005028688 -0.16685666 0.11594957 -0.1035172 0.07813996 -0.0061228527 -0.2083637 0.04492321
-0.0790226 0.008013373 -0.013296874 -0.124122865 -0.029324874 0.0016828696 -0.021507861 -0.12622686
-0.13416949 -0.12286328 -0.27149034 -0.11991901 -0.033206854 -0.19558102 0.053326827 -0.0013153512
-0.10104892 0.07520237 0.052244067 0.08009763 -0.20916033 -0.03331523 0.07885558 0.162566
-0.042272087 0.05132866 -0.020946443 0.1273405 -0.1101768 0.040384803 -0.08657647 -0.021234527
00000000: 250e 443d 737a 193c 8dc6 013d bcef 5ebd
00000010: 335e 5b3d 19e3 3f3d 7657 3e3d 706c fbbc
00000020: 6749 1e3d fa70 e6bd ed80 bc3c 4d34 e93d
00000030: 3848 c53b 57fe 373d 3366 c6bd b1c5 b4bd
00000040: 39d7 a83d 9ef3 843d d2ce 533e 6057 7d3d
00000050: bb26 253d b59c 8d3c 248d 693d caaf 00bd
00000060: 2f1d 93bc 0097 9e3d d597 2ebd 7f71 643e
00000070: 2e29 7e3d 9787 673c 4cbc eb3d b92a 003d
00000080: b12b 62bd 4dc2 b6bb 4b48 5a3d 3f00 a33d
00000090: c796 9bbd c05d 5b3d a3bb ddbd d631 ce3d
000000a0: 33cf 883d 075f 233d fbe7 353d 06bc 10bd
000000b0: cbe9 b73c 097e 443c 6f17 c43a 8717 f33d
000000c0: 2799 4a3c 27ba 3f3d d40a 513d 64cd c13c
000000d0: 18ac d1bc 483a bc3c 7a38 61bd 81be cb3d
000000e0: c21f 473d aab8 edbb 0a7b 61bc fcef 2b3e
000000f0: 55a2 223d 59e5 bf3b 0f0d dabc 4948 0bbc
00000100: 9e84 ac3c 1001 37be dc9b 8abd 95d4 be3d
00000110: 115f 12bd 00f1 0ebe 51df c9bd c958 323e
00000120: e465 043d a017 be3d 236a 1a3d 1efc 873d
00000130: 0722 f9bd 7655 743e ffc9 f9bc e9dc 4bbd
00000140: 1d6a 1c3e a325 9abc 0230 523d 0d0f dfbd
00000150: 3405 b43d e974 a13c 780f 1b3d 735d ebbd
00000160: cb8a 21be 3795 47bc e71f 3aba 86b4 b43d
00000170: d8b1 963d ded5 a4bd 22bb ccbd f966 88bd
00000180: 1d20 c8bd 554a e9bd 1461 093e b14f 14be
00000190: e559 52bc 4493 e73b 12c6 24be 96db 89bd
000001a0: 3c51 b1bd 3eed 58bd 8bc4 0ebe 60f0 50bd
000001b0: e57c 1c3d 801d efbd 2c3f d7bd d63d a5bd
000001c0: 2290 ca3d c7c3 293e 235a da3d ff71 7a3e
000001d0: fef7 55bd 7d52 4c3e 70df 3a3c 3ad1 203e
000001e0: 46ed a9bd 52c7 e3bd 71ca 85bc 1ed7 b43d
000001f0: 60f6 aa3e 4c34 5bbd d271 0e3c 5688 aebd
00000200: 29e4 23be 5331 e6bd e7be 993d 0c42 20be
00000210: bbe9 97bd 416e 973d 0c4e 93bd 08aa 393e
00000220: 103f f2bc 9f28 89bc 03dc 243d eb19 23be
00000230: 1654 233d 21f5 96bd d670 4abe 1265 a8be
00000240: c14a 143e 7d23 313c b83d ed3d 11bf 6a3d
00000250: 2475 40bd 2f6f 703d e329 9c3b f59a 1bbe
00000260: f99a 13be 7289 32bc 90be 8dbe fe3b 1a3e
00000270: 67fc 5b3d 2a3d d2bc 3e23 e13d 98eb 0ebe
00000280: dc93 303d ca0e 353d cd0c 3b3d 7029 8cbc
00000290: 4b2e 8f3c 33a0 e03b 404a 003d 7b20 2a3e
000002a0: 073e 0e3e 7d4f 423e 1bb4 1dbd ff67 003e
000002b0: e455 d13c 09d6 993d 56b8 8fbd 5b40 90bd
000002c0: 5a5f 923e ae7a fd3c e9fd 923e 32a6 11bd
000002d0: bca5 6a3d b97c e1bc 90d0 e1bd c5c9 2abe
000002e0: db93 bebd 8ed0 2a3d 6800 20be edbe 2bbc
000002f0: bdb9 963d 1984 c33d b56d 323e c681 18bc
00000300: 192f babd ee40 5bbd 0672 95bc ac4e 3a3d
00000310: 09aa ae3d 1d22 0a3e 5ab8 f8bc 9412 15bd
00000320: 38e3 edbd 6bea 50be 97f6 0ebe 42db e23d
00000330: eeea e23c 114e 503d b5bc 5b3e bc0f 2b3e
00000340: 1533 43be e0b4 00be a34b 2cbe fdda 61bd
00000350: cb14 5fbd 6c84 7bbd f784 a0bb 6fec 2b3e
00000360: b1c7 a43b 79dc 2abe f876 ed3d d300 d4bd
00000370: d807 a03d 36a2 c8bb 4b5d 55be 6601 383d
00000380: 9ad6 a1bd 864a 033c 22db 59bc 2134 febd
00000390: b83a f0bc bc93 dc3a 4131 b0bc 9d41 01be
000003a0: ba63 09be be9f fbbd c800 8bbe 1998 f5bd
000003b0: e903 08bd 6446 48be 3b6d 5a3d dd67 acba
000003c0: bcf2 cebd b303 9a3d e0fd 553d 3a0a a43d
000003d0: 202e 56be 8d75 08bd 097f a13d b477 263e
000003e0: 7f25 2dbd 003e 523d e097 abbc 8c65 023e
000003f0: 60a4 e1bd 896a 253d 014f b1bd 08f4 adbc

sequential_1/conv2d_5/Conv2D f4 [64, 3, 3, 64]
0.0028616672 0.0562661 0.006848628 0.0246567 0.03494504 -0.03897948 0.07465493 -0.054747567
0.016714571 0.02641864 0.0071979933 -0.0027048218 -0.026945109 0.010361499 0.03559504 -0.037085082
-0.09798606 0.116647705 0.029676482 -0.018170072 0.020310083 0.0421255 -0.07421593 0.00441387
0.0410717 -0.05902909 -0.034714054 0.009351964 -0.0052672117 0.07800375 -0.057376243 -0.16764891
-0.00446839 -0.055922385 -0.11214642 0.08712545 -0.10349533 -0.039228823 0.003953792 0.019064879
-0.013338546 -0.016796183 0.1855138 -0.048335556 0.12737735 -0.08264841 -0.07892842 0.053337965
-0.08536803 0.0475391 0.042261947 0.08308307 -0.045782987 -0.05194182 0.04978452 -0.12216055
-0.095414035 0.059128184 -0.09456479 -0.11817691 0.0011275966 -0.029270729 0.03014937 -0.0205538
0.08445634 0.14295414 0.16493313 0.0028904125 0.07329948 0.022314083 -0.10384388 -0.1869885
-0.11968048 -0.08023472 -0.09654549 -0.2566538 -0.11303073 -0.035737794 0.004258149 0.07409399
0.063820235 -0.037566535 0.13598388 -0.18589047 0.053856365 -0.031379815 -0.029136674 0.011589043
-0.06609744 0.07339272 0.13221571 -0.1491421 -0.019129165 0.03590432 -0.019857746 -0.22848235
-0.27907586 -0.022608787 0.040123396 0.17696646 -0.28983927 -0.12183849 -0.22183353 -0.025214422
-0.022474747 -0.05274388 0.046441678 0.06052462 0.13447364 0.09644933 0.0067097987 -0.07991114
-0.2247475 0.036334664 -0.10751407 -0.12710564 -0.18332231 -0.13716942 0.1477841 0.031341285
0.023269398 -0.044306308 -0.0013258586 0.032359112 -0.16969395 -0.0031979224 0.048251607 0.043582447
0.050347816 0.13560955 -0.0010437381 -0.05302527 0.18965563 0.19288069 0.063384786 0.021343764
-0.04157106 -0.037953705 -0.042879093 -0.019869775 -0.06284811 -0.033625007 -0.08580916 0.13271104
0.018453494 -0.053696457 -0.013890903 0.050169565 0.13857001 -0.054871533 0.0399401 -0.16890709
0.06856693 -0.0240997 -0.06681389 -0.0045752316 -0.0696323 -0.030514235 0.053438812 0.08464778
-0.20194578 -0.02640417 0.1031859 0.0898396 0.010227521 -0.05450699 0.1289886 -0.19178237
0.07153667 0.04380669 0.08000561 0.11894172 0.10443537 -0.072806224 0.11269536 -0.070119455
0.051622167 0.14707777 -0.00844517 -0.026657093 0.0075407214 0.122472316 -0.014085298 0.039427992
0.030910302 0.102823935 0.1895888 0.10518005 -0.006580554 0.13198997 0.0650863 0.02941454
-0.010496044 0.10939732 0.099327184 -0.054638162 -0.02279398 0.089274175 0.10582447 0.0066481866
-0.13194734 0.03974576 0.08658375 0.029255968 -0.042536523 -0.06017473 0.0025762983 0.04018696
0.046549186 -0.16514648 -0.08340993 -0.0854836 0.06586998 0.031493925 -0.03516902 -0.008391536
0.033359848 -0.046062496 -0.08802093 -0.14902407 -0.09868943 0.05014951 0.01791236 -0.057836052
0.053611625 -0.07328041 -0.06553897 -0.019388458 -0.26243258 -0.04805576 0.047131278 -0.10806583
0.0065078256 -0.1584175 -0.085192874 0.05564493 -0.014637016 0.098811686 0.023987938 0.029953193
-0.16416454 0.016550208 -0.07888016 -0.121441565 -0.08018593 -0.041370843 0.10672938 0.027543897
0.012608352 -0.0461516 0.057133697 -0.09966554 -0.08453717 -0.015311815 0.005138122 -0.049336877
00000000: cf8a 3b3b 4877 663d 756a e03b d9fc c93c
00000010: 8822 0f3d f2a8 1fbd afe4 983d fc3e 60bd
00000020: ffec 883c e76b d83c 25dd eb3b 6143 31bb
00000030: fdbb dcbc 47c3 293c 1bcc 113d 87e6 17bd
00000040: eaac c8bd fee4 ee3d 181c f33c 67d9 94bc
00000050: 5561 a63c ca8b 2c3d 86fe 97bd 3aa2 903b
00000060: cd3a 283d 7dc8 71bd 5330 0ebd fb38 193c
00000070: 9398 acbb 6ec0 9f3d 5a03 6bbd 28ac 2bbe
00000080: 926b 92bb df0e 65bd 06ad e5bd d46e b23d
00000090: 5cf5 d3bd 67ae 20bd d08e 813b f32d 9c3c
000000a0: eb89 5abc 2698 89bc 54f7 3d3e 81fb 45bd
000000b0: 356f 023e 9243 a9bd 39a5 a1bd e978 5a3d
000000c0: 6fd5 aebd 5cb8 423d dd1a 2d3d 7527 aa3d
000000d0: f186 3bbd f2c0 54bd daea 4b3d 4f2f fabd
000000e0: 6f68 c3bd 6530 723d 2fab c1bd bc06 f2bd
000000f0: ddcb 933a 2bc9 efbc d0fb f63c 7160 a8bc
00000100: 72f7 ac3d 9262 123e 3be4 283e 136d 3d3b
00000110: 0a1e 963d 06cc b63c 1aac d4bd ea79 3fbe
00000120: 0a1b f5bd 1a52 a4bd a4b9 c5bd 2068 83be
00000130: a87c e7bd cb61 12bd f187 8b3b 97be 973d
00000140: 2fb4 823d 5edf 19bd 5c3f 0b3e 125a 3ebe
00000150: 7e98 5c3d 1f88 00bd 09b0 eebc f8df 3d3c
00000160: 185e 87bd ec4e 963d 8e63 073e b5b8 18be
00000170: c4b4 9cbc 6910 133d b6ac a2bc 47f7 69be
00000180: 08e3 8ebe 1036 b9bc 6e58 243d b236 353e
00000190: d065 94be 7586 f9bd 5428 63be 7a8e cebc
000001a0: f61c b8bc f709 58bd a139 3e3d aae8 773d
000001b0: 75b3 093e 3a87 c53d dfdd db3b 74a8 a3bd
000001c0: 3524 66be a8d3 143d 5630 dcbd fb27 02be
000001d0: d8b8 3bbe 2476 0cbe b754 173e b85f 003d
000001e0: 779f be3c 887a 35bd 6fc8 adba fd8a 043d
000001f0: 40c4 2dbe 3c94 51bb 7aa3 453d 8283 323d
00000200: 8339 4e3d 3bdd 0a3e 0ace 88ba 0731 59bd
00000210: 1635 423e 8482 453e e2cf 813d 1ed9 ae3c
00000220: 6a46 2abd 5875 1bbd fda1 2fbd f0c5 a2bc
00000230: 83b6 80bd 60ba 09bd b6bc afbd 67e5 073e
00000240: c82b 973c d1f0 5bbd ac96 63bc 9a7e 4d3d
00000250: 4ce5 0d3e f9c0 60bd 3b98 233d fbf5 2cbe
00000260: d26c 8c3d bc6c c5bc b9d5 88bd d3eb 95bb
00000270: 619b 8ebd fdf8 f9bc a8e2 5a3d d15b ad3d
00000280: e0ca 4ebe 8f4d d8bc 2153 d33d d3fd b73d
00000290: 5591 273c b942 5fbd 9615 043e 9962 44be
000002a0: d181 923d a56e 333d fbd9 a33d b797 f33d
000002b0: 36e2 d53d 6e1b 95bd d3cc e63d ca9a 8fbd
000002c0: c471 533d 8e9b 163e 9c5d 0abc fa5f dabc
000002d0: 2818 f73b c4d2 fa3d 06c6 66bc 3f7f 213d
000002e0: 9a37 fd3c 5b95 d23d 9123 423e a368 d73d
000002f0: b0a1 d7bb 6128 073e f74b 853d c3f6 f03c
00000300: 99f7 2bbc b40b e03d 0d6c cb3d 44cc 5fbd
00000310: 71ba babc 61d5 b63d 80ba d83d 08d9 d93b
00000320: 341d 07be 73cc 223d d252 b13d 36aa ef3c
00000330: c73a 2ebd c779 76bd 1dd7 283b 159b 243d
00000340: 5caa 3e3d 291c 29be d3d2 aabd 0712 afbd
00000350: d7e6 863d c6ff 003d 640d 10bd a77c 09bc
00000360: 56a4 083d 07ac 3cbd 5144 b4bd c499 18be
00000370: af1d cabd 9369 4d3d f1bc 923c 7fe5 6cbd
00000380: dd97 5b3d 0a14 96bd 4c39 86bd 8bd4 9ebc
00000390: 905d 86be 1ed6 44bd ba0c 413d 9e51 ddbd
000003a0: 993f d53b 3238 22be 9a79 aebd f0eb 633d
000003b0: 18d0 6fbc c85d ca3d 5a82 c43c 6660 f53c
000003c0: c01a 28be 4d94 873c ec8b a1bd 5bb6 f8bd
000003d0: 8538 a4bd 7974 29bd ef94 da3d bda3 e13c
000003e0: 4393 4e3c 7609 3dbd 0605 6a3d 721d ccbd
000003f0: d321 adbd 68de 7abc b15d a83b 7715 4abd
