a_output_actual/dig-s3-q.tflite (tflite, 62224 bytes, 5 tensors)

sequential_3/conv2d_9/Conv2D i1 [32, 3, 3, 3]
000000 3a 26 fc 14 d6 45 bb 1c 1b 36 7f fa 3e e4 0a da
       58 38 -4 20 -42 69 -69 28 27 54 127 -6 62 -28 10 -38
000010 c1 c3 22 37 31 dd b4 09 ce b3 fd e0 02 5d ff eb
       -63 -61 34 55 49 -35 -76 9 -50 -77 -3 -32 2 93 -1 -21
000020 ef 81 96 ae 6a 2b 3d 0b 2e a1 ba 91 21 39 69 f8
       -17 -127 -106 -82 106 43 61 11 46 -95 -70 -111 33 57 105 -8
000030 4f 30 23 ca 2f db 14 54 4f 0a 7f 2a fc c7 cd d0
       79 48 35 -54 47 -37 20 84 79 10 127 42 -4 -57 -51 -48
000040 0b 09 2a fd f8 ce e2 bb cf 30 34 1b d6 89 1d d3
       11 9 42 -3 -8 -50 -30 -69 -49 48 52 27 -42 -119 29 -45
000050 c9 0a 7f 5c 36 fa e5 f5 ae ac 3a 0b 44 ac 0c 0c
       -55 10 127 92 54 -6 -27 -11 -82 -84 58 11 68 -84 12 12
000060 f6 b0 e8 e5 21 07 cd ea d9 30 21 ef c1 1d f8 3e
       -10 -80 -24 -27 33 7 -51 -22 -39 48 33 -17 -63 29 -8 62
000070 5c 62 19 7a 7f b5 cd bd c0 d9 e7 3c 0a 00 de ec
       92 98 25 122 127 -75 -51 -67 -64 -39 -25 60 10 0 -34 -20
000080 d7 ec c7 c9 f7 f6 bf 1e a9 16 48 72 68 4b 73 7f
       -41 -20 -57 -55 -9 -10 -65 30 -87 22 72 114 104 75 115 127
000090 1f c2 e6 c2 ee 95 b3 98 98 1f 17 24 1e c2 6e ed
       31 -62 -26 -62 -18 -107 -77 -104 -104 31 23 36 30 -62 110 -19
0000a0 d7 ca de c0 0c 9f 7f 52 07 41 05 38 0c a1 00 32
       -41 -54 -34 -64 12 -97 127 82 7 65 5 56 12 -95 0 50
0000b0 a9 3a 2b 15 c5 f2 3d ae bc d8 a4 a9 0b 0c 18 19
       -87 58 43 21 -59 -14 61 -82 -68 -40 -92 -87 11 12 24 25
0000c0 b6 07 81 b3 a5 de 7a 79 2a da 33 bf 05 eb c3 32
       -74 7 -127 -77 -91 -34 122 121 42 -38 51 -65 5 -21 -61 50
0000d0 2e 7c 02 4a 3d dd f4 3e 37 47 1c 38 06 58 be d6
       46 124 2 74 61 -35 -12 62 55 71 28 56 6 88 -66 -42
0000e0 1b 1a 2c 5e 81 af 00 04 f1 92 36 b2 15 b1 a3 a2
       27 26 44 94 -127 -81 0 4 -15 -110 54 -78 21 -79 -93 -94
0000f0 31 3c 2e cf 39 18 0d 81 dd d3 b7 ce fc bb ff ed
       49 60 46 -49 57 24 13 -127 -35 -45 -73 -50 -4 -69 -1 -19

sequential_3/conv2d_10/Conv2D i1 [32, 3, 3, 32]
000000 1d 44 f5 12 e6 f7 f1 21 20 c2 30 e7 09 2a f7 e0
       29 68 -11 18 -26 -9 -15 33 32 -62 48 -25 9 42 -9 -32
000010 ec fc fd 0e 00 e7 ff df 16 09 fb f0 11 df 0b 10
       -20 -4 -3 14 0 -25 -1 -33 22 9 -5 -16 17 -33 11 16
000020 3f 47 11 40 e6 dd fb f1 16 e4 f6 fe 02 f2 22 0b
       63 71 17 64 -26 -35 -5 -15 22 -28 -10 -2 2 -14 34 11
000030 13 0f 1f 14 d8 05 05 aa b9 ce 20 34 14 e6 2d df
       19 15 31 20 -40 5 5 -86 -71 -50 32 52 20 -26 45 -33
000040 34 0c 08 1f 0a 36 07 eb 09 2b b7 aa e7 01 f2 eb
       52 12 8 31 10 54 7 -21 9 43 -73 -86 -25 1 -14 -21
000050 cf d3 e2 11 11 f6 10 23 d8 bb 30 e6 f6 cb 19 fa
       -49 -45 -30 17 17 -10 16 35 -40 -69 48 -26 -10 -53 25 -6
000060 04 28 bd b5 1e 1b f2 1e d8 eb fc dc e5 f9 be d9
       4 40 -67 -75 30 27 -14 30 -40 -21 -4 -36 -27 -7 -66 -39
000070 c5 e8 cd 0f ec 39 20 3c 3f 1d eb 17 31 df 03 12
       -59 -24 -51 15 -20 57 32 60 63 29 -21 23 49 -33 3 18
000080 0f 55 f2 2c 06 c4 d7 07 f0 cd 23 07 00 e7 19 03
       15 85 -14 44 6 -60 -41 7 -16 -51 35 7 0 -25 25 3
000090 14 26 f1 1e d8 15 2a ea 81 d5 28 20 9e dd ec 14
       20 38 -15 30 -40 21 42 -22 -127 -43 40 32 -98 -35 -20 20
0000a0 5a 13 52 4b 10 0e d6 01 33 00 f1 f2 46 19 1c 16
       90 19 82 75 16 14 -42 1 51 0 -15 -14 70 25 28 22
0000b0 e2 10 28 3b fe aa 2b f1 de e7 1c 17 0c 1b 1b ea
       -30 16 40 59 -2 -86 43 -15 -34 -25 28 23 12 27 27 -22
0000c0 27 08 01 03 0c ec f4 0a ca 0d 0c 10 ee 2e f4 f3
       39 8 1 3 12 -20 -12 10 -54 13 12 16 -18 46 -12 -13
0000d0 ce fb df a7 30 2e e6 0e f0 df e9 c1 da 21 e3 30
       -50 -5 -33 -89 48 46 -26 14 -16 -33 -23 -63 -38 33 -29 48
0000e0 2e 3c 12 0a e5 b9 df 1e c6 ec e5 11 27 03 dc c8
       46 60 18 10 -27 -71 -33 30 -58 -20 -27 17 39 3 -36 -56
0000f0 e4 f7 11 d6 bf 2a dd 01 d7 01 1c f2 d6 00 26 0a
       -28 -9 17 -42 -65 42 -35 1 -41 1 28 -14 -42 0 38 10

sequential_3/conv2d_11/Conv2D i1 [32, 3, 3, 32]
000000 18 13 eb 0a 50 ff 12 d3 38 15 38 27 e0 22 1d 0a
       24 19 -21 10 80 -1 18 -45 56 21 56 39 -32 34 29 10
000010 36 13 1c 07 19 1f 1a e8 10 2d ea f8 3c 27 f2 15
       54 19 28 7 25 31 26 -24 16 45 -22 -8 60 39 -14 21
000020 1b 27 f0 ec e7 d5 d2 e2 fc f6 d1 db 01 33 cc 15
       27 39 -16 -20 -25 -43 -46 -30 -4 -10 -47 -37 1 51 -52 21
000030 be fb 1e 18 dd d1 f6 e5 63 f1 ee b2 da e9 d2 ac
       -66 -5 30 24 -35 -47 -10 -27 99 -15 -18 -78 -38 -23 -46 -84
000040 22 3b 12 c6 fc ef e5 06 13 f7 ee ee ef 26 ee 58
       34 59 18 -58 -4 -17 -27 6 19 -9 -18 -18 -17 38 -18 88
000050 e9 f4 10 03 0d 16 fa 0f 1f fc ee 01 2b 00 ee c2
       -23 -12 16 3 13 22 -6 15 31 -4 -18 1 43 0 -18 -62
000060 17 10 f3 dc fb 01 e6 ec c2 18 e1 f9 c3 dc 1b ea
       23 16 -13 -36 -5 1 -26 -20 -62 24 -31 -7 -61 -36 27 -22
000070 1b 0e df e2 db dd 14 0c c0 e0 d7 ab 10 08 05 09
       27 14 -33 -30 -37 -35 20 12 -64 -32 -41 -85 16 8 5 9
000080 e4 3d e5 ca d8 1c da e0 01 af fb d4 1d c8 07 e3
       -28 61 -27 -54 -40 28 -38 -32 1 -81 -5 -44 29 -56 7 -29
000090 38 d8 05 da e1 c1 f6 53 15 f2 cb 08 c0 ec b6 c4
       56 -40 5 -38 -31 -63 -10 83 21 -14 -53 8 -64 -20 -74 -60
0000a0 10 0e ee f9 fc df 12 16 f0 d7 f0 08 21 ff ef 01
       16 14 -18 -7 -4 -33 18 22 -16 -41 -16 8 33 -1 -17 1
0000b0 03 e6 f7 19 1f d3 de 16 26 1c 3d 14 cf 01 29 bf
       3 -26 -9 25 31 -45 -34 22 38 28 61 20 -49 1 41 -65
0000c0 da fa e3 0e 07 a6 1a 0a 16 e2 07 04 fc bb 23 07
       -38 -6 -29 14 7 -90 26 10 22 -30 7 4 -4 -69 35 7
0000d0 1e c7 c6 e1 ce f3 fb 33 ee 10 06 02 14 fc fb ea
       30 -57 -58 -31 -50 -13 -5 51 -18 16 6 2 20 -4 -5 -22
0000e0 0a bc 10 23 f1 d4 f5 2d e3 e1 05 d5 20 ff 27 3e
       10 -68 16 35 -15 -44 -11 45 -29 -31 5 -43 32 -1 39 62
0000f0 d8 ec e0 7f 13 f4 3a 1b 1e f1 31 dd ee df d6 fa
       -40 -20 -32 127 19 -12 58 27 30 -15 49 -35 -18 -33 -42 -6

sequential_3/dense_6/MatMul i1 [128, 256] scale=0.0042704474 zero_point=0
000000 fe 07 20 2e e3 df 16 f8 40 df f4 ed 31 fb fa fd
       -0.008540895 0.029893132 0.13665432 0.19644058 -0.12384298 -0.14092477 0.09394984 -0.03416358 0.27330863 -0.14092477 -0.05124537 -0.0811385 0.20925193 -0.021352237 -0.025622685 -0.012811342
000010 df fa f2 ff f8 fc fd d7 03 1b fb e9 0a 25 d2 d6
       -0.14092477 -0.025622685 -0.059786264 -0.0042704474 -0.03416358 -0.01708179 -0.012811342 -0.17508835 0.012811342 0.11530208 -0.021352237 -0.09822029 0.042704474 0.15800655 -0.19644058 -0.1793588
000020 f1 da 08 08 ff 14 11 eb 07 f6 f0 ff 24 0d 05 08
       -0.06405671 -0.162277 0.03416358 0.03416358 -0.0042704474 0.08540895 0.07259761 -0.0896794 0.029893132 -0.042704474 -0.06832716 -0.0042704474 0.15373611 0.05551582 0.021352237 0.03416358
000030 00 f4 18 01 13 ec fe 19 00 fc 14 10 0c f0 38 03
       0.0 -0.05124537 0.10249074 0.0042704474 0.0811385 -0.08540895 -0.008540895 0.10676119 0.0 -0.01708179 0.08540895 0.06832716 0.05124537 -0.06832716 0.23914506 0.012811342
000040 31 ee 27 23 f6 38 eb f7 f8 25 08 ff 08 08 c8 e7
       0.20925193 -0.07686806 0.16654745 0.14946567 -0.042704474 0.23914506 -0.0896794 -0.03843403 -0.03416358 0.15800655 0.03416358 -0.0042704474 0.03416358 0.03416358 -0.23914506 -0.10676119
000050 08 02 0f 31 f2 e3 17 08 d3 0e 11 33 11 44 ce fd
       0.03416358 0.008540895 0.06405671 0.20925193 -0.059786264 -0.12384298 0.09822029 0.03416358 -0.19217013 0.059786264 0.07259761 0.21779282 0.07259761 0.29039043 -0.21352237 -0.012811342
000060 f7 fa 26 5a c8 1c 2b 08 f9 09 ef f4 2a f6 08 e2
       -0.03843403 -0.025622685 0.162277 0.38434026 -0.23914506 0.11957253 0.18362924 0.03416358 -0.029893132 0.03843403 -0.07259761 -0.05124537 0.1793588 -0.042704474 0.03416358 -0.12811342
000070 0f f6 dc f1 dc 01 e6 1e f6 ef 1b ed 01 fb 44 0e
       0.06405671 -0.042704474 -0.15373611 -0.06405671 -0.15373611 0.0042704474 -0.11103164 0.12811342 -0.042704474 -0.07259761 0.11530208 -0.0811385 0.0042704474 -0.021352237 0.29039043 0.059786264
000080 d5 05 e6 d3 22 18 e7 22 13 16 0b 22 21 06 2b 28
       -0.18362924 0.021352237 -0.11103164 -0.19217013 0.14519522 0.10249074 -0.10676119 0.14519522 0.0811385 0.09394984 0.04697492 0.14519522 0.14092477 0.025622685 0.18362924 0.1708179
000090 05 26 15 0e 2f 0c 2d e8 2c 0d fa fa ed d0 03 13
       0.021352237 0.162277 0.0896794 0.059786264 0.20071103 0.05124537 0.19217013 -0.10249074 0.18789968 0.05551582 -0.025622685 -0.025622685 -0.0811385 -0.20498148 0.012811342 0.0811385
0000a0 eb fe 08 df f6 28 ff 18 fe da f2 de f7 39 f9 fa
       -0.0896794 -0.008540895 0.03416358 -0.14092477 -0.042704474 0.1708179 -0.0042704474 0.10249074 -0.008540895 -0.162277 -0.059786264 -0.14519522 -0.03843403 0.2434155 -0.029893132 -0.025622685
0000b0 0c 1b 21 12 0c 0a f4 e1 13 0e f6 e4 e3 10 1e 09
       0.05124537 0.11530208 0.14092477 0.07686806 0.05124537 0.042704474 -0.05124537 -0.13238387 0.0811385 0.059786264 -0.042704474 -0.11957253 -0.12384298 0.06832716 0.12811342 0.03843403
0000c0 f9 10 00 dd 18 07 1c 12 ea d3 12 38 08 f7 f1 de
       -0.029893132 0.06832716 0.0 -0.14946567 0.10249074 0.029893132 0.11957253 0.07686806 -0.09394984 -0.19217013 0.07686806 0.23914506 0.03416358 -0.03843403 -0.06405671 -0.14519522
0000d0 20 22 00 07 03 13 2e 09 e8 04 ee fc 08 02 df f0
       0.13665432 0.14519522 0.0 0.029893132 0.012811342 0.0811385 0.19644058 0.03843403 -0.10249074 0.01708179 -0.07686806 -0.01708179 0.03416358 0.008540895 -0.14092477 -0.06832716
0000e0 df 0f 00 dd 07 1d 1f fe e3 1d 0d fb ef 03 25 26
       -0.14092477 0.06405671 0.0 -0.14946567 0.029893132 0.12384298 0.13238387 -0.008540895 -0.12384298 0.12384298 0.05551582 -0.021352237 -0.07259761 0.012811342 0.15800655 0.162277
0000f0 0e 05 fb 0e f2 0f f1 f5 eb 09 e6 e5 13 fe fe 17
       0.059786264 0.021352237 -0.021352237 0.059786264 -0.059786264 0.06405671 -0.06405671 -0.04697492 -0.0896794 0.03843403 -0.11103164 -0.11530208 0.0811385 -0.008540895 -0.008540895 0.09822029

sequential_3/dense_7/MatMul i1 [11, 128] scale=0.0060479334 zero_point=0
000000 ff bb bf ce c3 db a4 f5 b6 ac 0f 02 b4 f9 b0 08
       -0.0060479334 -0.4173074 -0.39311567 -0.30239666 -0.36892393 -0.22377354 -0.5564099 -0.06652727 -0.44754708 -0.5080264 0.090719 0.012095867 -0.45964295 -0.042335533 -0.48383468 0.048383467
000010 c1 bb b7 9e 96 a9 0e de d5 ce fd e3 ce 04 eb c0
       -0.3810198 -0.4173074 -0.44149914 -0.59269744 -0.6410809 -0.5261702 0.084671065 -0.20562974 -0.26006114 -0.30239666 -0.0181438 -0.17539006 -0.30239666 0.024191733 -0.1270066 -0.38706774
000020 f4 04 da dc e0 d9 f5 b6 e5 f6 e1 cd 04 fd f8 cc
       -0.0725752 0.024191733 -0.22982147 -0.2177256 -0.19353387 -0.23586941 -0.06652727 -0.44754708 -0.1632942 -0.060479335 -0.18748593 -0.3084446 0.024191733 -0.0181438 -0.048383467 -0.31449252
000030 9e cd a7 0b cd f1 ae f0 01 b1 d9 22 fb b4 b0 cc
       -0.59269744 -0.3084446 -0.53826606 0.06652727 -0.3084446 -0.090719 -0.49593052 -0.096766934 0.0060479334 -0.47778675 -0.23586941 0.20562974 -0.030239668 -0.45964295 -0.48383468 -0.31449252
000040 17 06 f0 9e c5 c4 d9 99 02 db ed f2 d6 cd fe f2
       0.13910247 0.0362876 -0.096766934 -0.59269744 -0.35682806 -0.362876 -0.23586941 -0.62293714 0.012095867 -0.22377354 -0.11491074 -0.084671065 -0.2540132 -0.3084446 -0.012095867 -0.084671065
000050 ed ec f9 f5 b0 bb 01 e4 e3 f0 02 db bb 10 0e b1
       -0.11491074 -0.12095867 -0.042335533 -0.06652727 -0.48383468 -0.4173074 0.0060479334 -0.16934213 -0.17539006 -0.096766934 0.012095867 -0.22377354 -0.4173074 0.096766934 0.084671065 -0.47778675
000060 c4 f4 b5 fa d4 ed 1a 1d e8 9d d5 e4 f1 c3 0e 13
       -0.362876 -0.0725752 -0.453595 -0.0362876 -0.26610908 -0.11491074 0.15724626 0.17539006 -0.1451504 -0.5987454 -0.26006114 -0.16934213 -0.090719 -0.36892393 0.084671065 0.11491074
000070 f4 0e d5 d7 d3 de d6 dc bd ee fe f0 b8 b1 d0 d0
       -0.0725752 0.084671065 -0.26006114 -0.24796526 -0.272157 -0.20562974 -0.2540132 -0.2177256 -0.40521154 -0.1088628 -0.012095867 -0.096766934 -0.4354512 -0.47778675 -0.2903008 -0.2903008
000080 ee 03 eb c8 fa 1a c4 f6 b8 0a d5 ed 2c fd d4 bf
       -0.1088628 0.0181438 -0.1270066 -0.33868426 -0.0362876 0.15724626 -0.362876 -0.060479335 -0.4354512 0.060479335 -0.26006114 -0.11491074 0.26610908 -0.0181438 -0.26610908 -0.39311567
000090 fb 9d f7 bc e0 0f d0 17 d1 de be f6 db de d6 e2
       -0.030239668 -0.5987454 -0.0544314 -0.41125947 -0.19353387 0.090719 -0.2903008 0.13910247 -0.28425288 -0.20562974 -0.3991636 -0.060479335 -0.22377354 -0.20562974 -0.2540132 -0.181438
0000a0 be fb ac f5 c7 a8 ba ba 17 db ca db b1 00 cf 05
       -0.3991636 -0.030239668 -0.5080264 -0.06652727 -0.3447322 -0.53221816 -0.42335534 -0.42335534 0.13910247 -0.22377354 -0.3265884 -0.22377354 -0.47778675 0.0 -0.29634872 0.030239668
0000b0 a9 d4 c9 ef bd 14 c3 a8 ea ef be 17 ef f0 ed f7
       -0.5261702 -0.26610908 -0.33263633 -0.10281487 -0.40521154 0.12095867 -0.36892393 -0.53221816 -0.13305454 -0.10281487 -0.3991636 0.13910247 -0.10281487 -0.096766934 -0.11491074 -0.0544314
0000c0 e9 0e e4 d4 d2 9f c2 fc e1 e5 ff d1 0a b3 f6 d6
       -0.13910247 0.084671065 -0.16934213 -0.26610908 -0.27820495 -0.58664954 -0.37497187 -0.024191733 -0.18748593 -0.1632942 -0.0060479334 -0.28425288 0.060479335 -0.46569088 -0.060479335 -0.2540132
0000d0 01 ef a5 1e 0e f9 f9 bb f0 e2 e4 ee c7 e1 e2 04
       0.0060479334 -0.10281487 -0.55036193 0.181438 0.084671065 -0.042335533 -0.042335533 -0.4173074 -0.096766934 -0.181438 -0.16934213 -0.1088628 -0.3447322 -0.18748593 -0.181438 0.024191733
0000e0 c9 21 20 a8 f7 02 c1 f8 0e f0 ab fe d9 c1 fa ca
       -0.33263633 0.1995818 0.19353387 -0.53221816 -0.0544314 0.012095867 -0.3810198 -0.048383467 0.084671065 -0.096766934 -0.5140743 -0.012095867 -0.23586941 -0.3810198 -0.0362876 -0.3265884
0000f0 d9 f9 e5 c6 cd e1 b8 b1 ca ea cd b9 c3 e8 ac f1
       -0.23586941 -0.042335533 -0.1632942 -0.35078013 -0.3084446 -0.18748593 -0.4354512 -0.47778675 -0.3265884 -0.13305454 -0.3084446 -0.42940328 -0.36892393 -0.1451504 -0.5080264 -0.090719
