a_output_actual/dig-s1-q.tflite (tflite, 201072 bytes, 5 tensors)

sequential_1/conv2d_3/Conv2D i1 [32, 3, 3, 3]
0	0x2e	46
1	0x56	86
2	0xf1	-15
3	0x26	38
4	0x7e	126
5	0x0a	10
6	0x38	56
7	0x66	102
8	0x5f	95
9	0xf7	-9
10	0x3c	60
11	0xf7	-9
12	0xd6	-42
13	0xb5	-75
14	0xe5	-27
15	0x81	-127
16	0xaa	-86
17	0xb6	-74
18	0xe4	-28
19	0xac	-84
20	0x18	24
21	0xf2	-14
22	0xff	-1
23	0xb8	-72
24	0xed	-19
25	0xf0	-16
26	0xbd	-67
27	0xfc	-4
28	0xc3	-61
29	0xd9	-39
30	0xf5	-11
31	0x48	72
32	0x39	57
33	0x18	24
34	0x69	105
35	0x48	72
36	0x29	41
37	0x10	16
38	0x48	72
39	0x11	17
40	0x4b	75
41	0xdd	-35
42	0xfc	-4
43	0x1b	27
44	0x24	36
45	0x08	8
46	0x1b	27
47	0xfc	-4
48	0x1d	29
49	0xfa	-6
50	0xf3	-13
51	0xcf	-49
52	0x81	-127
53	0x88	-120
54	0x1d	29
55	0x4e	78
56	0x41	65
57	0x1c	28
58	0x51	81
59	0xf6	-10
60	0xe9	-23
61	0x9c	-100
62	0xcb	-53
63	0x25	37
64	0xe8	-24
65	0x3b	59
66	0xf2	-14
67	0x3d	61
68	0x29	41
69	0x81	-127
70	0xcc	-52
71	0xdd	-35
72	0x0f	15
73	0xee	-18
74	0x36	54
75	0x04	4
76	0xfd	-3
77	0xef	-17
78	0x14	20
79	0xdc	-36
80	0xf2	-14
81	0xdc	-36
82	0x01	1
83	0x11	17
84	0x39	57
85	0x06	6
86	0x0f	15
87	0x29	41
88	0x22	34
89	0x1c	28
90	0xbb	-69
91	0xc5	-59
92	0xdb	-37
93	0xd4	-44
94	0xff	-1
95	0x23	35
96	0x2e	46
97	0x49	73
98	0xf2	-14
99	0x81	-127
100	0xbf	-65
101	0xe4	-28
102	0xdd	-35
103	0xf4	-12
104	0x29	41
105	0x1f	31
106	0x3d	61
107	0x40	64
108	0x8a	-118
109	0xd3	-45
110	0xb0	-80
111	0xf7	-9
112	0x71	113
113	0x15	21
114	0x3a	58
115	0x06	6
116	0x2f	47
117	0x9d	-99
118	0xc9	-55
119	0x81	-127
120	0x2d	45
121	0x2c	44
122	0xf8	-8
123	0x4c	76
124	0x0e	14
125	0x24	36
126	0xa4	-92
127	0x8b	-117
128	0xfd	-3
129	0x20	32
130	0x19	25
131	0xe7	-25
132	0x33	51
133	0x61	97
134	0xe2	-30
135	0x13	19
136	0xb8	-72
137	0x43	67
138	0x15	21
139	0x69	105
140	0x1b	27
141	0x27	39
142	0x16	22
143	0xbc	-68
144	0xb6	-74
145	0xa8	-88
146	0x81	-127
147	0x2e	46
148	0x4e	78
149	0x73	115
150	0x16	22
151	0xf2	-14
152	0x22	34
153	0xa0	-96
154	0xc8	-56
155	0xb8	-72
156	0x19	25
157	0x24	36
158	0x28	40
159	0x1c	28
160	0x20	32
161	0x48	72
162	0xf7	-9
163	0x52	82
164	0x72	114
165	0xf7	-9
166	0xfa	-6
167	0xc7	-57
168	0xf1	-15
169	0x4e	78
170	0xd6	-42
171	0x2c	44
172	0x2b	43
173	0x5b	91
174	0x62	98
175	0xb6	-74
176	0x41	65
177	0x90	-112
178	0x0f	15
179	0x2b	43
180	0xef	-17
181	0xc2	-62
182	0x61	97
183	0xad	-83
184	0x23	35
185	0xbd	-67
186	0x9f	-97
187	0x81	-127
188	0x1d	29
189	0xef	-17
190	0x31	49
191	0x1c	28
192	0xfb	-5
193	0x28	40
194	0xe0	-32
195	0x6d	109
196	0x58	88
197	0x1e	30
198	0xe0	-32
199	0xbb	-69
200	0x07	7
201	0xc4	-60
202	0x81	-127
203	0xac	-84
204	0xcb	-53
205	0xc7	-57
206	0x2b	43
207	0x14	20
208	0x1a	26
209	0x16	22
210	0x08	8
211	0x41	65
212	0x05	5
213	0x03	3
214	0x03	3
215	0xe3	-29
216	0x79	121
217	0x3e	62
218	0x7f	127
219	0xfe	-2
220	0x18	24
221	0x29	41
222	0xe0	-32
223	0x22	34
224	0xd0	-48
225	0x44	68
226	0x36	54
227	0xe2	-30
228	0x00	0
229	0x36	54
230	0x12	18
231	0xde	-34
232	0xf7	-9
233	0x9b	-101
234	0xc7	-57
235	0x1f	31
236	0x43	67
237	0x8e	-114
238	0x8c	-116
239	0xdf	-33
240	0xf9	-7
241	0x8b	-117
242	0x01	1
243	0x56	86
244	0x08	8
245	0x25	37
246	0xe0	-32
247	0xd0	-48
248	0x16	22
249	0xf3	-13
250	0xd1	-47
251	0x03	3
252	0x0c	12
253	0x49	73
254	0x20	32
255	0xcf	-49

sequential_1/conv2d_4/Conv2D i1 [64, 3, 3, 32]
0	0x12	18
1	0x04	4
2	0x0c	12
3	0xeb	-21
4	0x14	20
5	0x12	18
6	0x12	18
7	0xf4	-12
8	0x0f	15
9	0xd5	-43
10	0x09	9
11	0x2b	43
12	0x02	2
13	0x11	17
14	0xdb	-37
15	0xde	-34
16	0x1f	31
17	0x19	25
18	0x4f	79
19	0x18	24
20	0x0f	15
21	0x07	7
22	0x16	22
23	0xf4	-12
24	0xf9	-7
25	0x1d	29
26	0xf0	-16
27	0x55	85
28	0x18	24
29	0x05	5
30	0x2c	44
31	0x0c	12
32	0xeb	-21
33	0xfe	-2
34	0x14	20
35	0x1e	30
36	0xe3	-29
37	0x14	20
38	0xd7	-41
39	0x26	38
40	0x19	25
41	0x0f	15
42	0x11	17
43	0xf3	-13
44	0x09	9
45	0x05	5
46	0x01	1
47	0x2d	45
48	0x05	5
49	0x12	18
50	0x13	19
51	0x09	9
52	0xf6	-10
53	0x09	9
54	0xeb	-21
55	0x26	38
56	0x12	18
57	0xfd	-3
58	0xfb	-5
59	0x40	64
60	0x0f	15
61	0x02	2
62	0xf6	-10
63	0xfd	-3
64	0x08	8
65	0xbc	-68
66	0xe6	-26
67	0x23	35
68	0xf2	-14
69	0xcb	-53
70	0xdb	-37
71	0x42	66
72	0x0c	12
73	0x23	35
74	0x0e	14
75	0x19	25
76	0xd2	-46
77	0x5b	91
78	0xf4	-12
79	0xed	-19
80	0x3a	58
81	0xf9	-7
82	0x14	20
83	0xd7	-41
84	0x21	33
85	0x07	7
86	0x0e	14
87	0xd4	-44
88	0xc4	-60
89	0xfb	-5
90	0x00	0
91	0x22	34
92	0x1c	28
93	0xe1	-31
94	0xda	-38
95	0xe7	-25
96	0xdb	-37
97	0xd5	-43
98	0x33	51
99	0xc9	-55
100	0xfb	-5
101	0x03	3
102	0xc3	-61
103	0xe6	-26
104	0xdf	-33
105	0xec	-20
106	0xcb	-53
107	0xed	-19
108	0x0f	15
109	0xd4	-44
110	0xd8	-40
111	0xe1	-31
112	0x26	38
113	0x3f	63
114	0x29	41
115	0x5d	93
116	0xec	-20
117	0x4c	76
118	0x04	4
119	0x3c	60
120	0xe0	-32
121	0xd6	-42
122	0xfa	-6
123	0x22	34
124	0x7f	127
125	0xec	-20
126	0x03	3
127	0xe0	-32
128	0xc3	-61
129	0xd5	-43
130	0x1d	29
131	0xc4	-60
132	0xe4	-28
133	0x1c	28
134	0xe5	-27
135	0x45	69
136	0xf5	-11
137	0xfa	-6
138	0x0f	15
139	0xc3	-61
140	0x0f	15
141	0xe4	-28
142	0xb5	-75
143	0x83	-125
144	0x37	55
145	0x04	4
146	0x2c	44
147	0x16	22
148	0xee	-18
149	0x16	22
150	0x02	2
151	0xc6	-58
152	0xc9	-55
153	0xfc	-4
154	0x97	-105
155	0x39	57
156	0x14	20
157	0xf6	-10
158	0x2a	42
159	0xcb	-53
160	0x10	16
161	0x11	17
162	0x11	17
163	0xf9	-7
164	0x07	7
165	0x03	3
166	0x0c	12
167	0x3f	63
168	0x35	53
169	0x48	72
170	0xf1	-15
171	0x30	48
172	0x0a	10
173	0x1d	29
174	0xe5	-27
175	0xe5	-27
176	0x6d	109
177	0x0c	12
178	0x6d	109
179	0xf2	-14
180	0x16	22
181	0xf6	-10
182	0xd6	-42
183	0xc1	-63
184	0xdd	-35
185	0x10	16
186	0xc5	-59
187	0xfc	-4
188	0x1c	28
189	0x24	36
190	0x42	66
191	0xfc	-4
192	0xdd	-35
193	0xec	-20
194	0xf9	-7
195	0x11	17
196	0x20	32
197	0x33	51
198	0xf4	-12
199	0xf2	-14
200	0xd4	-44
201	0xb2	-78
202	0xcb	-53
203	0x2a	42
204	0x0b	11
205	0x13	19
206	0x52	82
207	0x40	64
208	0xb7	-73
209	0xd0	-48
210	0xc0	-64
211	0xeb	-21
212	0xeb	-21
213	0xe9	-23
214	0xfe	-2
215	0x40	64
216	0x02	2
217	0xc1	-63
218	0x2c	44
219	0xd9	-39
220	0x1e	30
221	0xfe	-2
222	0xb1	-79
223	0x11	17
224	0xe2	-30
225	0x03	3
226	0xfb	-5
227	0xd1	-47
228	0xf5	-11
229	0x01	1
230	0xf8	-8
231	0xd0	-48
232	0xcd	-51
233	0xd1	-47
234	0x99	-103
235	0xd2	-46
236	0xf3	-13
237	0xb6	-74
238	0x14	20
239	0xff	-1
240	0xda	-38
241	0x1d	29
242	0x14	20
243	0x1e	30
244	0xb0	-80
245	0xf3	-13
246	0x1e	30
247	0x3e	62
248	0xf0	-16
249	0x14	20
250	0xf8	-8
251	0x30	48
252	0xd6	-42
253	0x0f	15
254	0xdf	-33
255	0xf8	-8

sequential_1/conv2d_5/Conv2D i1 [64, 3, 3, 64]
0	0x01	1
1	0x19	25
2	0x03	3
3	0x0b	11
4	0x0f	15
5	0xef	-17
6	0x21	33
7	0xe8	-24
8	0x07	7
9	0x0c	12
10	0x03	3
11	0xff	-1
12	0xf4	-12
13	0x05	5
14	0x10	16
15	0xf0	-16
16	0xd5	-43
17	0x33	51
18	0x0d	13
19	0xf8	-8
20	0x09	9
21	0x12	18
22	0xdf	-33
23	0x02	2
24	0x12	18
25	0xe6	-26
26	0xf1	-15
27	0x04	4
28	0xfe	-2
29	0x22	34
30	0xe7	-25
31	0xb7	-73
32	0xfe	-2
33	0xe7	-25
34	0xcf	-49
35	0x26	38
36	0xd3	-45
37	0xef	-17
38	0x02	2
39	0x08	8
40	0xfa	-6
41	0xf9	-7
42	0x51	81
43	0xeb	-21
44	0x38	56
45	0xdc	-36
46	0xdd	-35
47	0x17	23
48	0xdb	-37
49	0x15	21
50	0x13	19
51	0x24	36
52	0xec	-20
53	0xe9	-23
54	0x16	22
55	0xca	-54
56	0xd6	-42
57	0x1a	26
58	0xd7	-41
59	0xcc	-52
60	0x00	0
61	0xf3	-13
62	0x0d	13
63	0xf7	-9
64	0x25	37
65	0x3f	63
66	0x48	72
67	0x01	1
68	0x20	32
69	0x0a	10
70	0xd2	-46
71	0xae	-82
72	0xcc	-52
73	0xdd	-35
74	0xd6	-42
75	0x90	-112
76	0xce	-50
77	0xf0	-16
78	0x02	2
79	0x20	32
80	0x1c	28
81	0xf0	-16
82	0x3c	60
83	0xaf	-81
84	0x18	24
85	0xf2	-14
86	0xf3	-13
87	0x05	5
88	0xe3	-29
89	0x20	32
90	0x3a	58
91	0xbf	-65
92	0xf8	-8
93	0x10	16
94	0xf7	-9
95	0x9c	-100
96	0x86	-122
97	0xf6	-10
98	0x12	18
99	0x4e	78
100	0x81	-127
101	0xcb	-53
102	0x9f	-97
103	0xf5	-11
104	0xf6	-10
105	0xe9	-23
106	0x14	20
107	0x1b	27
108	0x3b	59
109	0x2a	42
110	0x03	3
111	0xdd	-35
112	0x9e	-98
113	0x10	16
114	0xd1	-47
115	0xc8	-56
116	0xb0	-80
117	0xc4	-60
118	0x41	65
119	0x0e	14
120	0x0a	10
121	0xed	-19
122	0xff	-1
123	0x0e	14
124	0xb6	-74
125	0xff	-1
126	0x15	21
127	0x13	19
128	0x16	22
129	0x3b	59
130	0x00	0
131	0xe9	-23
132	0x53	83
133	0x55	85
134	0x1c	28
135	0x09	9
136	0xee	-18
137	0xef	-17
138	0xed	-19
139	0xf7	-9
140	0xe4	-28
141	0xf1	-15
142	0xda	-38
143	0x3a	58
144	0x08	8
145	0xe8	-24
146	0xfa	-6
147	0x16	22
148	0x3d	61
149	0xe8	-24
150	0x12	18
151	0xb6	-74
152	0x1e	30
153	0xf5	-11
154	0xe3	-29
155	0xfe	-2
156	0xe1	-31
157	0xf3	-13
158	0x17	23
159	0x25	37
160	0xa8	-88
161	0xf4	-12
162	0x2d	45
163	0x27	39
164	0x04	4
165	0xe8	-24
166	0x39	57
167	0xac	-84
168	0x1f	31
169	0x13	19
170	0x23	35
171	0x34	52
172	0x2e	46
173	0xe0	-32
174	0x31	49
175	0xe1	-31
176	0x17	23
177	0x40	64
178	0xfc	-4
179	0xf4	-12
180	0x03	3
181	0x36	54
182	0xfa	-6
183	0x11	17
184	0x0e	14
185	0x2d	45
186	0x53	83
187	0x2e	46
188	0xfd	-3
189	0x3a	58
190	0x1d	29
191	0x0d	13
192	0xfb	-5
193	0x30	48
194	0x2c	44
195	0xe8	-24
196	0xf6	-10
197	0x27	39
198	0x2e	46
199	0x03	3
200	0xc6	-58
201	0x11	17
202	0x26	38
203	0x0d	13
204	0xed	-19
205	0xe6	-26
206	0x01	1
207	0x12	18
208	0x14	20
209	0xb8	-72
210	0xdb	-37
211	0xdb	-37
212	0x1d	29
213	0x0e	14
214	0xf1	-15
215	0xfc	-4
216	0x0f	15
217	0xec	-20
218	0xd9	-39
219	0xbf	-65
220	0xd5	-43
221	0x16	22
222	0x08	8
223	0xe7	-25
224	0x17	23
225	0xe0	-32
226	0xe3	-29
227	0xf8	-8
228	0x8d	-115
229	0xeb	-21
230	0x15	21
231	0xd1	-47
232	0x03	3
233	0xbb	-69
234	0xdb	-37
235	0x18	24
236	0xfa	-6
237	0x2b	43
238	0x0b	11
239	0x0d	13
240	0xb8	-72
241	0x07	7
242	0xdd	-35
243	0xcb	-53
244	0xdd	-35
245	0xee	-18
246	0x2f	47
247	0x0c	12
248	0x06	6
249	0xec	-20
250	0x19	25
251	0xd4	-44
252	0xdb	-37
253	0xf9	-7
254	0x02	2
255	0xea	-22

sequential_1/dense_2/MatMul i1 [256, 512] scale=0.0029790627 zero_point=0
0	0xf9	-0.02085344
1	0x01	0.0029790627
2	0x05	0.014895313
3	0x11	0.050644066
4	0xd4	-0.13107876
5	0xe9	-0.068518445
6	0x05	0.014895313
7	0x1d	0.08639282
8	0xf2	-0.04170688
9	0x10	0.047665004
10	0xe0	-0.09533001
11	0x15	0.06256032
12	0xd6	-0.12512064
13	0x05	0.014895313
14	0xda	-0.11320438
15	0xed	-0.05660219
16	0xf5	-0.03276969
17	0xf0	-0.047665004
18	0xf6	-0.029790627
19	0x1e	0.08937188
20	0xf2	-0.04170688
21	0xe3	-0.08639282
22	0xf0	-0.047665004
23	0xf2	-0.04170688
24	0x05	0.014895313
25	0xf5	-0.03276969
26	0xfa	-0.017874377
27	0xe5	-0.080434695
28	0x0f	0.04468594
29	0xfc	-0.011916251
30	0xca	-0.16086939
31	0xf9	-0.02085344
32	0x08	0.023832502
33	0xe9	-0.068518445
34	0x09	0.026811564
35	0xf9	-0.02085344
36	0x15	0.06256032
37	0x1d	0.08639282
38	0xdf	-0.09830907
39	0xfd	-0.008937188
40	0x13	0.05660219
41	0xfe	-0.0059581255
42	0xf4	-0.035748754
43	0xf2	-0.04170688
44	0xef	-0.050644066
45	0xc5	-0.1757647
46	0xcd	-0.1519322
47	0xf1	-0.04468594
48	0xfa	-0.017874377
49	0x23	0.104267195
50	0x13	0.05660219
51	0xdf	-0.09830907
52	0xf9	-0.02085344
53	0xdf	-0.09830907
54	0xe0	-0.09533001
55	0x0c	0.035748754
56	0xe7	-0.07447657
57	0x0c	0.035748754
58	0xf6	-0.029790627
59	0x01	0.0029790627
60	0xd1	-0.14001594
61	0xec	-0.059581254
62	0xe2	-0.08937188
63	0x09	0.026811564
64	0xe3	-0.08639282
65	0xf9	-0.02085344
66	0xed	-0.05660219
67	0xfb	-0.014895313
68	0x10	0.047665004
69	0xf2	-0.04170688
70	0x08	0.023832502
71	0x05	0.014895313
72	0x16	0.06553938
73	0xdc	-0.10724626
74	0x11	0.050644066
75	0xff	-0.0029790627
76	0x15	0.06256032
77	0xe0	-0.09533001
78	0x08	0.023832502
79	0xd4	-0.13107876
80	0xec	-0.059581254
81	0xf5	-0.03276969
82	0x2e	0.13703689
83	0x24	0.10724626
84	0xf1	-0.04468594
85	0xf9	-0.02085344
86	0x19	0.07447657
87	0x02	0.0059581255
88	0x18	0.07149751
89	0x07	0.02085344
90	0xd4	-0.13107876
91	0x13	0.05660219
92	0xeb	-0.06256032
93	0xff	-0.0029790627
94	0xd9	-0.116183445
95	0xfd	-0.008937188
96	0xd5	-0.1280997
97	0x09	0.026811564
98	0x09	0.026811564
99	0x27	0.116183445
100	0x11	0.050644066
101	0xe3	-0.08639282
102	0x05	0.014895313
103	0x08	0.023832502
104	0x1c	0.08341376
105	0xe1	-0.092350945
106	0x07	0.02085344
107	0xec	-0.059581254
108	0xd6	-0.12512064
109	0xf6	-0.029790627
110	0xdf	-0.09830907
111	0x24	0.10724626
112	0x17	0.068518445
113	0xfa	-0.017874377
114	0xeb	-0.06256032
115	0xe7	-0.07447657
116	0xfc	-0.011916251
117	0xe6	-0.07745563
118	0xf6	-0.029790627
119	0x0e	0.04170688
120	0xef	-0.050644066
121	0xdd	-0.104267195
122	0x10	0.047665004
123	0x15	0.06256032
124	0x26	0.11320438
125	0xda	-0.11320438
126	0x11	0.050644066
127	0x0f	0.04468594
128	0x2e	0.13703689
129	0xe6	-0.07745563
130	0xe7	-0.07447657
131	0x37	0.16384844
132	0x03	0.008937188
133	0xf2	-0.04170688
134	0x3b	0.1757647
135	0xed	-0.05660219
136	0xfd	-0.008937188
137	0x1a	0.07745563
138	0x03	0.008937188
139	0x13	0.05660219
140	0x1a	0.07745563
141	0xf0	-0.047665004
142	0xe4	-0.08341376
143	0xf9	-0.02085344
144	0xef	-0.050644066
145	0x2f	0.14001594
146	0x0c	0.035748754
147	0x14	0.059581254
148	0x0d	0.038727816
149	0xe5	-0.080434695
150	0xd9	-0.116183445
151	0x21	0.09830907
152	0xfd	-0.008937188
153	0xe5	-0.080434695
154	0xfa	-0.017874377
155	0x0b	0.03276969
156	0xe8	-0.07149751
157	0xe3	-0.08639282
158	0x0d	0.038727816
159	0xee	-0.05362313
160	0x11	0.050644066
161	0x13	0.05660219
162	0xf6	-0.029790627
163	0xc2	-0.18470189
164	0xe6	-0.07745563
165	0x2a	0.12512064
166	0xfc	-0.011916251
167	0xef	-0.050644066
168	0x09	0.026811564
169	0x11	0.050644066
170	0xf5	-0.03276969
171	0xeb	-0.06256032
172	0x0e	0.04170688
173	0x20	0.09533001
174	0xf4	-0.035748754
175	0x11	0.050644066
176	0x3d	0.18172282
177	0xd2	-0.13703689
178	0x10	0.047665004
179	0x39	0.16980657
180	0x1b	0.080434695
181	0xef	-0.050644066
182	0xe0	-0.09533001
183	0xf5	-0.03276969
184	0xec	-0.059581254
185	0xed	-0.05660219
186	0x07	0.02085344
187	0xce	-0.14895314
188	0xea	-0.06553938
189	0xf1	-0.04468594
190	0xe2	-0.08937188
191	0x18	0.07149751
192	0xfa	-0.017874377
193	0xef	-0.050644066
194	0x01	0.0029790627
195	0x1c	0.08341376
196	0x00	0.0
197	0x16	0.06553938
198	0x12	0.05362313
199	0xe5	-0.080434695
200	0x2c	0.13107876
201	0x0d	0.038727816
202	0xe9	-0.068518445
203	0x2e	0.13703689
204	0x20	0.09533001
205	0x1c	0.08341376
206	0x01	0.0029790627
207	0x0d	0.038727816
208	0x10	0.047665004
209	0x2a	0.12512064
210	0x0a	0.029790627
211	0x09	0.026811564
212	0x4e	0.23236689
213	0xef	-0.050644066
214	0x10	0.047665004
215	0x13	0.05660219
216	0xf9	-0.02085344
217	0x0d	0.038727816
218	0x0a	0.029790627
219	0x2b	0.1280997
220	0xe1	-0.092350945
221	0xe0	-0.09533001
222	0x08	0.023832502
223	0xff	-0.0029790627
224	0xed	-0.05660219
225	0xf7	-0.026811564
226	0x37	0.16384844
227	0xd8	-0.11916251
228	0xe2	-0.08937188
229	0x1a	0.07745563
230	0x0e	0.04170688
231	0x1c	0.08341376
232	0x0c	0.035748754
233	0xfd	-0.008937188
234	0x43	0.19959721
235	0xf3	-0.038727816
236	0x05	0.014895313
237	0x0c	0.035748754
238	0xe1	-0.092350945
239	0xf2	-0.04170688
240	0x2a	0.12512064
241	0x0d	0.038727816
242	0x0b	0.03276969
243	0x27	0.116183445
244	0x3c	0.17874376
245	0xfd	-0.008937188
246	0xe9	-0.068518445
247	0xf0	-0.047665004
248	0x0e	0.04170688
249	0x22	0.10128813
250	0xf9	-0.02085344
251	0xe3	-0.08639282
252	0xfc	-0.011916251
253	0x0e	0.04170688
254	0xff	-0.0029790627
255	0x12	0.05362313

sequential_1/dense_3/MatMul i1 [11, 256] scale=0.0044153575 zero_point=0
0	0xfd	-0.013246072
1	0xf0	-0.07064572
2	0xd4	-0.19427574
3	0x0c	0.05298429
4	0xee	-0.07947643
5	0x1d	0.12804537
6	0xe7	-0.110383935
7	0xc2	-0.27375215
8	0xbc	-0.3002443
9	0xc3	-0.26933682
10	0xb0	-0.3532286
11	0x17	0.101553224
12	0xd3	-0.19869108
13	0x00	0.0
14	0x0f	0.066230364
15	0xe9	-0.101553224
16	0xca	-0.23842931
17	0xbd	-0.29582894
18	0xd2	-0.20310645
19	0x03	0.013246072
20	0x05	0.022076787
21	0xf9	-0.030907502
22	0x01	0.0044153575
23	0xe3	-0.12804537
24	0x99	-0.45478183
25	0xe8	-0.10596858
26	0xc5	-0.2605061
27	0xc8	-0.24726002
28	0x05	0.022076787
29	0xd1	-0.2075218
30	0xe6	-0.11479929
31	0xbb	-0.30465966
32	0xd6	-0.18544501
33	0xa6	-0.39738217
34	0xf4	-0.05298429
35	0x0e	0.061815005
36	0x13	0.083891794
37	0xfd	-0.013246072
38	0xed	-0.083891794
39	0xf2	-0.061815005
40	0xce	-0.22076787
41	0xbc	-0.3002443
42	0xf9	-0.030907502
43	0x1e	0.13246073
44	0xe3	-0.12804537
45	0x07	0.030907502
46	0x12	0.07947643
47	0xa4	-0.4062129
48	0xec	-0.08830715
49	0xdd	-0.15453751
50	0x0e	0.061815005
51	0xf0	-0.07064572
52	0xf1	-0.066230364
53	0xc8	-0.24726002
54	0xe7	-0.110383935
55	0xc1	-0.27816752
56	0xe2	-0.13246073
57	0xfe	-0.008830715
58	0xb3	-0.33998254
59	0x04	0.01766143
60	0xec	-0.08830715
61	0xda	-0.16778359
62	0xac	-0.37089002
63	0xdc	-0.15895286
64	0xdc	-0.15895286
65	0xfc	-0.01766143
66	0xee	-0.07947643
67	0xe1	-0.13687608
68	0xec	-0.08830715
69	0x07	0.030907502
70	0xfa	-0.026492145
71	0xa9	-0.3841361
72	0xc6	-0.25609073
73	0x08	0.03532286
74	0xad	-0.36647466
75	0xd3	-0.19869108
76	0xbc	-0.3002443
77	0xd0	-0.21193716
78	0xd9	-0.17219894
79	0xcb	-0.23401394
80	0xf6	-0.044153575
81	0xe3	-0.12804537
82	0x09	0.039738216
83	0x04	0.01766143
84	0xe1	-0.13687608
85	0xdb	-0.16336823
86	0xf4	-0.05298429
87	0xea	-0.09713787
88	0xf1	-0.066230364
89	0xf2	-0.061815005
90	0xc6	-0.25609073
91	0xd7	-0.18102966
92	0xfb	-0.022076787
93	0xd9	-0.17219894
94	0xf1	-0.066230364
95	0x13	0.083891794
96	0x1d	0.12804537
97	0xfa	-0.026492145
98	0xf2	-0.061815005
99	0xc9	-0.24284466
100	0xa6	-0.39738217
101	0xf2	-0.061815005
102	0xea	-0.09713787
103	0xbf	-0.28699824
104	0xf3	-0.057399645
105	0xc0	-0.28258288
106	0xac	-0.37089002
107	0xe9	-0.101553224
108	0x06	0.026492145
109	0xd7	-0.18102966
110	0xb3	-0.33998254
111	0xc2	-0.27375215
112	0xd1	-0.2075218
113	0xc0	-0.28258288
114	0xbf	-0.28699824
115	0xa5	-0.40179753
116	0xfb	-0.022076787
117	0xbb	-0.30465966
118	0xef	-0.075061075
119	0xef	-0.075061075
120	0xe9	-0.101553224
121	0xe4	-0.12363001
122	0xa2	-0.4150436
123	0xe4	-0.12363001
124	0xf0	-0.07064572
125	0x09	0.039738216
126	0xcc	-0.22959858
127	0xa5	-0.40179753
128	0xc0	-0.28258288
129	0xd6	-0.18544501
130	0xe6	-0.11479929
131	0x09	0.039738216
132	0xd5	-0.18986037
133	0xee	-0.07947643
134	0xec	-0.08830715
135	0x93	-0.48127398
136	0xe2	-0.13246073
137	0xdc	-0.15895286
138	0xb8	-0.31790572
139	0xfd	-0.013246072
140	0x0e	0.061815005
141	0xbe	-0.2914136
142	0xa5	-0.40179753
143	0xed	-0.083891794
144	0xaf	-0.35764396
145	0xb9	-0.3134904
146	0xca	-0.23842931
147	0x9d	-0.43712038
148	0xe8	-0.10596858
149	0xb3	-0.33998254
150	0xae	-0.36205932
151	0xe2	-0.13246073
152	0xc3	-0.26933682
153	0xf3	-0.057399645
154	0xe4	-0.12363001
155	0xf9	-0.030907502
156	0x02	0.008830715
157	0xa3	-0.41062826
158	0xe3	-0.12804537
159	0xf5	-0.048568934
160	0x1c	0.12363001
161	0x13	0.083891794
162	0xef	-0.075061075
163	0xe7	-0.110383935
164	0x06	0.026492145
165	0xf4	-0.05298429
166	0xc3	-0.26933682
167	0x0e	0.061815005
168	0xad	-0.36647466
169	0x0e	0.061815005
170	0xef	-0.075061075
171	0x02	0.008830715
172	0xd6	-0.18544501
173	0xd3	-0.19869108
174	0xf0	-0.07064572
175	0xaa	-0.37972075
176	0xf4	-0.05298429
177	0xc2	-0.27375215
178	0xde	-0.15012215
179	0x0d	0.057399645
180	0xdd	-0.15453751
181	0xde	-0.15012215
182	0xe2	-0.13246073
183	0xca	-0.23842931
184	0x15	0.092722505
185	0xe3	-0.12804537
186	0xed	-0.083891794
187	0xf2	-0.061815005
188	0x03	0.013246072
189	0xdf	-0.1457068
190	0xe4	-0.12363001
191	0xe6	-0.11479929
192	0xf3	-0.057399645
193	0xb7	-0.3223211
194	0xf9	-0.030907502
195	0xf6	-0.044153575
196	0xeb	-0.092722505
197	0xc5	-0.2605061
198	0xf4	-0.05298429
199	0xdd	-0.15453751
200	0xdb	-0.16336823
201	0xbf	-0.28699824
202	0xe6	-0.11479929
203	0xae	-0.36205932
204	0x03	0.013246072
205	0x15	0.092722505
206	0x0e	0.061815005
207	0xf8	-0.03532286
208	0xf9	-0.030907502
209	0xbd	-0.29582894
210	0xbd	-0.29582894
211	0x0c	0.05298429
212	0xf5	-0.048568934
213	0xe3	-0.12804537
214	0xc4	-0.26492146
215	0x3b	0.2605061
216	0x9a	-0.45036647
217	0xde	-0.15012215
218	0xe5	-0.119214654
219	0xe5	-0.119214654
220	0x0f	0.066230364
221	0xee	-0.07947643
222	0xd7	-0.18102966
223	0xfd	-0.013246072
224	0xbe	-0.2914136
225	0xec	-0.08830715
226	0x0e	0.061815005
227	0x06	0.026492145
228	0xc1	-0.27816752
229	0x92	-0.4856893
230	0xef	-0.075061075
231	0xcb	-0.23401394
232	0xfd	-0.013246072
233	0xfd	-0.013246072
234	0xf2	-0.061815005
235	0xe9	-0.101553224
236	0xe9	-0.101553224
237	0xdc	-0.15895286
238	0xee	-0.07947643
239	0xf1	-0.066230364
240	0xbd	-0.29582894
241	0xe2	-0.13246073
242	0xd6	-0.18544501
243	0xec	-0.08830715
244	0xdb	-0.16336823
245	0xb6	-0.32673645
246	0xde	-0.15012215
247	0xbb	-0.30465966
248	0xfa	-0.026492145
249	0x0f	0.066230364
250	0xdd	-0.15453751
251	0xe5	-0.119214654
252	0xe4	-0.12363001
253	0xbd	-0.29582894
254	0xd7	-0.18102966
255	0xf2	-0.061815005
