a_output_actual/dig-s3.tflite (tflite, 219284 bytes, 12 tensors)

dense_7/bias f4 [11]
0	0xbe7c1fa6	-0.24621448
1	0xbe43676e	-0.19082424
2	0xbe6064d9	-0.2191347
3	0xbe13b63f	-0.1442499
4	0xbe4a0a83	-0.19730572
5	0xbe5733aa	-0.21015802
6	0xbe8cc179	-0.27491358
7	0xbe4f9b6e	-0.20274135
8	0xbe4cf751	-0.20016219
9	0xbe558f22	-0.20855382
10	0xbe001952	-0.12509659

dense_6/bias f4 [128]
0	0xbd0bbb22	-0.03411401
1	0xbd09c068	-0.03363076
2	0xbb9eb1c1	-0.0048429673
3	0x3d8d1be6	0.06890087
4	0x3da368bd	0.079789616
5	0xbdc0035f	-0.09375643
6	0x3b9681b0	0.0045930967
7	0xbdd43283	-0.10361197
8	0x3d73c609	0.059515033
9	0x3a00aeb3	0.0004908845
10	0x3d6dd0d5	0.058060486
11	0xbc9af182	-0.018913988
12	0xbd0c9acc	-0.034327313
13	0xbc227fc0	-0.009918153
14	0x3da165c2	0.07880737
15	0xbc7e4b61	-0.015520901
16	0x3d452ad5	0.04813655
17	0x3cf4ac33	0.029867267
18	0xbcbc92c8	-0.02301921
19	0x3c34c014	0.011032123
20	0x3d5c46d0	0.05377847
21	0x3d5f940f	0.05458456
22	0xbd2c4f37	-0.042067733
23	0xbd6028bc	-0.054726347
24	0x3d831d34	0.064020544
25	0xbc403cca	-0.011733243
26	0xbb8b8af1	-0.0042585065
27	0xbcdd4a35	-0.027012924
28	0xbd6453ea	-0.05574409
29	0x3d3e974d	0.04653101
30	0xbc067f86	-0.008209115
31	0xbd5ceb46	-0.05393531
32	0xbd5837c9	-0.052787576
33	0xbd2f11b3	-0.04274149
34	0x3c97f138	0.01854764
35	0xbc20f9e6	-0.009825205
36	0xbda1a2af	-0.078923576
37	0x3e10d2dc	0.14142936
38	0xbb30dc14	-0.0026986646
39	0x3d586e0e	0.05283933
40	0xbcaa727b	-0.020806542
41	0xbc1b986d	-0.00949679
42	0xbb1ab707	-0.0023607628
43	0x3c38aa50	0.011271074
44	0xbcdf27a1	-0.027240576
45	0xbcdc4793	-0.026889598
46	0xbc4c096b	-0.012453417
47	0xbca5d609	-0.020243661
48	0x3dade23d	0.08490417
49	0xbd88dbc1	-0.0668254
50	0x3d53f47d	0.051746834
51	0xbdf2402f	-0.11828648
52	0xbc4bd225	-0.012440239
53	0xbd74e59d	-0.05978929
54	0x3dd567f8	0.10420221
55	0x3d2821da	0.04104791
56	0xbd1a78e4	-0.037712947
57	0x3ae8d75e	0.001776438
58	0x3d231f15	0.039824564
59	0xbd93ea32	-0.072224036
60	0xbdcb3a94	-0.09923282
61	0x3cfb07bf	0.030643342
62	0xbd76032c	-0.06006162
63	0x3d9678aa	0.073472336
64	0xbcbcc386	-0.023042452
65	0xbcca65b3	-0.024706697
66	0x3ca7f3dd	0.020502025
67	0x3db963a7	0.0905221
68	0x3d8b1579	0.06791205
69	0x3c82d025	0.015968392
70	0x3c53f839	0.012937599
71	0x3bd8d779	0.006617483
72	0xbcec2c68	-0.028829768
73	0x3b25398f	0.002521131
74	0xbcfc6d4a	-0.030813832
75	0x3d999158	0.07498425
76	0xbd811352	-0.06302513
77	0x3d2918ae	0.041283302
78	0xbceca56a	-0.02888747
79	0xbb8d8a0f	-0.0043194364
80	0xbde21a80	-0.11040211
81	0x3bbbfe1e	0.0057370802
82	0x3c2974ee	0.01034282
83	0xbd5280f3	-0.051392507
84	0xba9c6c5f	-0.0011934153
85	0xbd33c45e	-0.043888442
86	0xbcb35bab	-0.021894297
87	0xbd9a802b	-0.07543977
88	0xbd05d4b5	-0.032673556
89	0x3d2561f4	0.04037662
90	0xbd6acbb4	-0.057323173
91	0x3cc5f7af	0.024165956
92	0x3bc5e571	0.0060393144
93	0xbca26e3a	-0.01982795
94	0xbcfc8cf6	-0.030828934
95	0x3a83d55c	0.0010058093
96	0x3c04bc3c	0.008101519
97	0xbcde6e3e	-0.027152177
98	0x3d51afcb	0.05119304
99	0x3c8b8785	0.017032394
100	0xbd11ffe5	-0.03564443
101	0xbcf5f63f	-0.030024646
102	0xbd78f5e9	-0.060781393
103	0xbc4361d3	-0.011925179
104	0x3c224392	0.009903805
105	0x3c2325ee	0.009957774
106	0x3e11b2a2	0.142283
107	0xbcc5c59a	-0.024142075
108	0x3d02f04c	0.031967446
109	0x3dda2450	0.10651457
110	0xbda32c6e	-0.07967459
111	0xbd8d6a61	-0.06905056
112	0x3d938f1a	0.07205029
113	0xbdd5a633	-0.104320906
114	0xbdc13f0c	-0.09435853
115	0x3ddbca9f	0.10732006
116	0xbcd73ad5	-0.02627317
117	0xbd696554	-0.0569814
118	0x3d333bc5	0.043758173
119	0x3c263e19	0.010146641
120	0xbc49f8fc	-0.012327429
121	0x3c8797d3	0.016551888
122	0xbce8f9d8	-0.028439447
123	0x3d955ad5	0.072927155
124	0x3d387ea3	0.045042645
125	0x3d2434a7	0.040089276
126	0x3e14cd95	0.14531548
127	0x3dba0408	0.090828

conv2d_9/bias f4 [32]
0	0xbd645763	-0.0557474
1	0xbde57a1b	-0.112049304
2	0xbda4a1f7	-0.08038705
3	0xbdb704f5	-0.08936492
4	0xbd63f3ec	-0.055652544
5	0xbda5e95a	-0.08101149
6	0xbe600259	-0.21875896
7	0x3bb39fcb	0.0054816953
8	0x3ca043b0	0.019563526
9	0x3bb2d476	0.005457456
10	0xbe2b0bf6	-0.16703781
11	0xbdac4ec3	-0.0841346
12	0xbdcd085d	-0.10011361
13	0xbd97758c	-0.07395467
14	0xbe1cb5ea	-0.1530377
15	0xbe0b09ac	-0.13577908
16	0xbe01f990	-0.12692857
17	0xbd5cf297	-0.05394229
18	0xbe16a964	-0.14713055
19	0xbd47c0eb	-0.048767965
20	0xbe22eda1	-0.1591096
21	0x3c4fdb60	0.01268658
22	0xbd3b21c0	-0.045686483
23	0x3cac39ec	0.021023713
24	0xbe33611c	-0.17517513
25	0xbdbd3ca7	-0.09240084
26	0xbe6e7a58	-0.23288858
27	0xbd760c11	-0.0600701
28	0xbdb12d63	-0.08651235
29	0xbde950f5	-0.113923945
30	0xbb80abb1	-0.003926717
31	0xbd8c10c9	-0.06839139

conv2d_11/bias f4 [32]
0	0xbd9b0874	-0.07569972
1	0xbce3fe53	-0.027831232
2	0xbe7a5534	-0.24446565
3	0xbcb516e7	-0.022105647
4	0xbddbba95	-0.10728947
5	0xbd9dee51	-0.07711471
6	0xbe402b91	-0.1876662
7	0xbccd3bc0	-0.025052905
8	0xbdab4f08	-0.083646834
9	0x3ce3b4df	0.027796207
10	0xbd792cfe	-0.060833924
11	0xbd902c21	-0.07039667
12	0x3d8662b1	0.06561793
13	0xbdbef128	-0.09323341
14	0xbd1c35fe	-0.03813743
15	0xbdc124cb	-0.09430846
16	0xbd596aa7	-0.053080227
17	0x3e07c8ae	0.13260147
18	0xbe00c09c	-0.12573475
19	0x3dfe7fee	0.124267444
20	0xbe472382	-0.19447139
21	0xbd3b643d	-0.04574989
22	0x3ce04fc5	0.027381787
23	0x3d83a95b	0.06428786
24	0xbddb44dd	-0.10706494
25	0xbb20c143	-0.0024529255
26	0xbdd7a0ee	-0.10528742
27	0xbc97ee1c	-0.018546157
28	0x3d580e75	0.052748162
29	0xbc7373b1	-0.014859126
30	0xbc862b16	-0.016377967
31	0xbd899fe3	-0.06719949

conv2d_10/bias f4 [32]
0	0xbd958ef1	-0.073026545
1	0x3d790d71	0.060803834
2	0xbe9fc97c	-0.31208408
3	0xbd8db946	-0.06920104
4	0x3e43d013	0.19122343
5	0xbd094f97	-0.03352317
6	0x3d3237cb	0.04351024
7	0xbda6dc27	-0.081474595
8	0x3d79a95b	0.060952526
9	0xbe0e5125	-0.13898142
10	0xbd8997d2	-0.067184106
11	0xbda262a4	-0.079289705
12	0xbe1dbc86	-0.15403947
13	0xbe0ee688	-0.13955128
14	0x3df86842	0.121292606
15	0xbdf72374	-0.12067309
16	0xbdf872a4	-0.12131241
17	0xbcd145c5	-0.025545964
18	0xbd416841	-0.047218565
19	0xbe2ef247	-0.17084609
20	0xbdf2cf76	-0.11855976
21	0x3d0fb9a3	0.035089146
22	0xbd0bd46b	-0.034138124
23	0x3da37d96	0.07982938
24	0xbaa72824	-0.0012753052
25	0xbd733f67	-0.059386637
26	0x3b40a862	0.002939724
27	0xbd807d81	-0.06273938
28	0x3cd04433	0.025423145
29	0x3e280453	0.164079
30	0xbd1f3636	-0.03887006
31	0xbd2441a2	-0.040101655

sequential_3/batch_normalization_3/FusedBatchNormV3 f4 [3]
0	0x3c21eea1	0.009883554
1	0x3c743d26	0.014907157
2	0x3c360fbe	0.011112152

sequential_3/batch_normalization_3/FusedBatchNormV31 f4 [3]
0	0xbfa1b2de	-1.2632711
1	0xbfed1c57	-1.8524274
2	0xbfb7bbca	-1.4354184

sequential_3/dense_6/MatMul f4 [128, 256]
0	0xbbd58671	-0.006516271
1	0x3cefd6b6	0.029277187
2	0x3e0be389	0.13661017
3	0x3e49b510	0.19697976
4	0xbe001890	-0.1250937
5	0xbe0f7907	-0.14011012
6	0x3dc20bd6	0.09474914
7	0xbd034fc5	-0.032058496
8	0x3e8b705d	0.27234164
9	0xbe11eaf7	-0.14249788
10	0xbd4c86d5	-0.049933273
11	0xbda32efb	-0.07967945
12	0x3e58228b	0.21106927
13	0xbc9f3317	-0.019433541
14	0xbcdb064f	-0.026736407
15	0xbc48af33	-0.012248802
16	0xbe122954	-0.14273578
17	0xbcdc0e37	-0.026862247
18	0xbd734c89	-0.05939916
19	0xbbcb44a5	-0.0062032514
20	0xbd0caadd	-0.034342635
21	0xbc86a6a6	-0.016436886
22	0xbc3e9874	-0.011633027
23	0xbe33e360	-0.17567205
24	0x3c33c205	0.010971551
25	0x3de9e674	0.114209086
26	0xbcbcb863	-0.023037141
27	0xbdcb9658	-0.09940785
28	0x3d343d2e	0.044003658
29	0x3e23def6	0.16003022
30	0xbe472815	-0.19448884
31	0xbe38feec	-0.18065995
32	0xbd86b995	-0.06578366
33	0xbe25109f	-0.16119622
34	0x3d113180	0.035447598
35	0x3d033663	0.03203429
36	0xbb306ed4	-0.0026921527
37	0x3dacf819	0.084457584
38	0x3d944f97	0.07241743
39	0xbdba8d09	-0.091089316
40	0x3cf3c17a	0.029755343
41	0xbd33dcfa	-0.04391191
42	0xbd8f64d3	-0.070016526
43	0xbbb558d5	-0.0055342712
44	0x3e1e5438	0.15461814
45	0x3d644bfb	0.055736523
46	0x3cb736d0	0.022365004
47	0x3d0ea6a2	0.034826882
48	0x3a95c617	0.0011426833
49	0xbd4bbb21	-0.049739007
50	0x3dd00704	0.10157588
51	0x3bcc70c2	0.0062390277
52	0x3da2ae51	0.079434045
53	0xbdb1ea54	-0.08687273
54	0xbbf1c74e	-0.0073784953
55	0x3ddb4cc3	0.107080005
56	0x3a7ba6ea	0.0009599762
57	0xbc7ef982	-0.015562417
58	0x3db2684c	0.08711299
59	0x3d8f5102	0.06997873
60	0x3d4fd9c2	0.05074478
61	0xbd889a5b	-0.06670066
62	0x3e73d676	0.23812279
63	0x3c5ed6e3	0.013601038
64	0x3e57af50	0.2106297
65	0xbda0f648	-0.078594744
66	0x3e2a31fc	0.1662063
67	0x3e1a2de5	0.1505657
68	0xbd30849f	-0.043095227
69	0x3e7608d8	0.24026811
70	0xbdba8e88	-0.09109217
71	0xbd19aee3	-0.0375203
72	0xbd0c1796	-0.03420218
73	0x3e219602	0.1577988
74	0x3d13c5a9	0.036077175
75	0xbbba0719	-0.0056771156
76	0x3d11f9b7	0.035638537
77	0x3d0d7fb6	0.034545623
78	0xbe7325ca	-0.23744884
79	0xbdda3aa7	-0.10655718
80	0x3d0c606b	0.03427164
81	0x3c1c5c27	0.009543455
82	0x3d80e542	0.062937275
83	0x3e5734b9	0.21016206
84	0xbd6e61f0	-0.05819887
85	0xbe00aa20	-0.12564898
86	0x3dca34f1	0.09873379
87	0x3d09cdee	0.033643655
88	0xbe46e1ba	-0.19422045
89	0x3d774512	0.060368605
90	0x3d91a1bd	0.07110927
91	0x3e5f2d8f	0.21794723
92	0x3d9288d5	0.07155005
93	0x3e95957c	0.2921561
94	0xbe5addaf	-0.21373628
95	0xbc6fd1e8	-0.014637448
96	0xbd21a47d	-0.03946351
97	0xbcdc0776	-0.026859026
98	0x3e27c6e8	0.1638447
99	0x3ec40242	0.38282973
100	0xbe72db02	-0.23716357
101	0x3df3ac21	0.11898065
102	0x3e3bbba1	0.18333293
103	0x3d082d57	0.033246364
104	0xbcf55016	-0.029945415
105	0x3d22c33b	0.039736968
106	0xbd91b756	-0.07115047
107	0xbd4fdcbe	-0.050747626
108	0x3e38be26	0.18041286
109	0xbd336050	-0.043793023
110	0x3d078a6a	0.033090986
111	0xbe030a91	-0.12797
112	0x3d858de7	0.06521206
113	0xbd36ad27	-0.044598725
114	0xbe1c1fca	-0.15246502
115	0xbd80d921	-0.06291414
116	0xbe1e0ca1	-0.15434505
117	0x3b26f3d7	0.002547493
118	0xbde410fe	-0.111360535
119	0x3e02e09a	0.12780991
120	0xbd2bdf10	-0.041960776
121	0xbd926394	-0.07147899
122	0x3dec4f27	0.115385346
123	0xbda38f9e	-0.07986377
124	0x3b5cdd51	0.003370125
125	0xbcb7d71e	-0.022441443
126	0x3e9451c1	0.28968623
127	0x3d7bbed9	0.061461303
128	0xbe3da772	-0.18520907
129	0x3cb52106	0.022110473
130	0xbde4b95b	-0.11168166
131	0xbe46cc01	-0.19413759
132	0x3e131847	0.1436473
133	0x3dd54b18	0.104147136
134	0xbddc8eff	-0.10769462
135	0x3e16dcae	0.1473262
136	0x3da69814	0.08134475
137	0x3dc4c1ee	0.09607302
138	0x3d3b2d01	0.045697216
139	0x3e131b52	0.1436589
140	0x3e116dd9	0.1420206
141	0x3ccc88bf	0.02496755
142	0x3e3d970b	0.1851465
143	0x3e2d8fb2	0.16949347
144	0x3ca5baa1	0.020230593
145	0x3e27697c	0.16348833
146	0x3db7f1c8	0.08981663
147	0x3d6c7dd5	0.05773719
148	0x3e4c44d5	0.19948132
149	0x3d570e69	0.052503977
150	0x3e46677d	0.19375415
151	0xbdce7ab7	-0.10082
152	0x3e3f3c90	0.18675447
153	0x3d698b6c	0.05701773
154	0xbcd9c0d6	-0.02658121
155	0xbcd8a4e6	-0.026445817
156	0xbda72aec	-0.081624836
157	0xbe503a8c	-0.20334834
158	0x3c45da93	0.012076038
159	0x3da412a6	0.080113694
160	0xbdb4fc2d	-0.08837161
161	0xbc2c6267	-0.010521508
162	0x3d10f5e8	0.035390764
163	0xbe12703b	-0.14300625
164	0xbd322c8a	-0.043499507
165	0x3e2d20e6	0.16907081
166	0xbb0da15b	-0.0021611068
167	0x3dcfa6db	0.10139247
168	0xbc2113ce	-0.009831382
169	0xbe27e36c	-0.16395348
170	0xbd7666bb	-0.060156565
171	0xbe153235	-0.14569934
172	0xbd2625df	-0.04056346
173	0x3e781b2e	0.24229118
174	0xbcef4c34	-0.029211141
175	0xbce1eb23	-0.027577942
176	0x3d52afd8	0.05143723
177	0x3dee2729	0.11628563
178	0x3e117a89	0.142069
179	0x3d9c2a15	0.07625214
180	0x3d4cffb3	0.05004854
181	0x3d272370	0.04080528
182	0xbd4a8996	-0.04944762
183	0xbe060aac	-0.13090008
184	0x3da26d03	0.079309486
185	0x3d727514	0.059193686
186	0xbd34abb0	-0.044109046
187	0xbdf149e1	-0.117816694
188	0xbdfcf6fd	-0.12351797
189	0x3d88dc01	0.066825874
190	0x3e01c052	0.1267102
191	0x3d23c54f	0.03998309
192	0xbcfbb6f6	-0.030726891
193	0x3d886c55	0.06661288
194	0xba9655ce	-0.0011469664
195	0xbe180185	-0.1484433
196	0x3dcf5db0	0.10125291
197	0x3ceb75a7	0.028742624
198	0x3df57afc	0.11986348
199	0x3d9ed1a5	0.0775483
200	0xbdbd6093	-0.09246936
201	0xbe42e8e0	-0.19034147
202	0x3d9f3e00	0.077754974
203	0x3e73cfbd	0.23809715
204	0x3d0f7d97	0.03503188
205	0xbd210369	-0.039309893
206	0xbd803829	-0.06260712
207	0xbe16a4d2	-0.14711311
208	0x3e0a67d1	0.13516165
209	0x3e1289b1	0.14310338
210	0x3a732bd8	0.00092762476
211	0x3cfd4ec7	0.030921353
212	0x3c57495a	0.013140047
213	0x3da9f810	0.08299267
214	0x3e49c681	0.1970463
215	0x3d1d20e9	0.038361464
216	0xbdd0d6ae	-0.10197197
217	0x3c776887	0.015100605
218	0xbd9fa412	-0.07794966
219	0xbc921853	-0.017833864
220	0x3d036f84	0.03208877
221	0x3c1cc9fd	0.009569642
222	0xbe0fa0b1	-0.14026143
223	0xbd8a4324	-0.06751087
224	0xbe0f9d19	-0.14024772
225	0x3d8532e7	0.065038495
226	0xba7b268e	-0.0009580635
227	0xbe18ce89	-0.14922537
228	0x3d02f3bd	0.03197073
229	0x3dfe9b4f	0.124319665
230	0x3e06892e	0.13138267
231	0xbbeddbce	-0.007258869
232	0xbdfa2f21	-0.122160204
233	0x3dfc4ac4	0.12318948
234	0x3d619611	0.055074755
235	0xbca237dc	-0.019802026
236	0xbd94cf72	-0.072661296
237	0x3c4c76e5	0.012479519
238	0x3e205c6a	0.15660253
239	0x3e283df3	0.16429882
240	0x3d782ef8	0.060591668
241	0x3cb50bc8	0.022100344
242	0xbcb073c8	-0.021539584
243	0x3d7a4308	0.061099082
244	0xbd6f3a1c	-0.058405027
245	0x3d86827b	0.06567856
246	0xbd839a84	-0.06425956
247	0xbd485e40	-0.04891801
248	0xbdbb23d8	-0.09137696
249	0x3d21beb6	0.039488517
250	0xbde0b3a0	-0.10971761
251	0xbdebc657	-0.1151244
252	0x3da76796	0.08174054
253	0xbbe02774	-0.0068406407
254	0xbc0dd86b	-0.008657555
255	0x3dc7e818	0.09761065

sequential_3/dense_7/MatMul f4 [11, 128]
0	0xbba14f68	-0.004922796
1	0xbed5b411	-0.41738942
2	0xbec979b8	-0.39350677
3	0xbe99985b	-0.2999905
4	0xbebc6d55	-0.36802164
5	0xbe625468	-0.22102511
6	0xbf0efbc6	-0.55852926
7	0xbd844d05	-0.06460003
8	0xbee47f66	-0.44628447
9	0xbf01ab60	-0.5065212
10	0x3dbff5e6	0.09373073
11	0x3c7430e0	0.014904231
12	0xbee9e2e4	-0.45680916
13	0xbd2668a1	-0.040627126
14	0xbef6adec	-0.48179567
15	0x3d510edc	0.05103956
16	0xbec3bf4d	-0.38231888
17	0xbed70dff	-0.42002866
18	0xbee20f45	-0.44152275
19	0xbf17af26	-0.5925163
20	0xbf237fa2	-0.6386663
21	0xbf065516	-0.5247358
22	0x3da988d7	0.08278053
23	0xbe51a26a	-0.20472112
24	0xbe862993	-0.26203594
25	0xbe99ae0b	-0.30015597
26	0xbc891ef0	-0.016738385
27	0xbe34201f	-0.17590378
28	0xbe9c0391	-0.3047147
29	0x3cd4777a	0.025935877
30	0xbdff9e42	-0.12481357
31	0xbec50934	-0.38483584
32	0xbd8f83d9	-0.0700757
33	0x3cb3f637	0.02196799
34	0xbe6947d0	-0.227813
35	0xbe6102ab	-0.21973674
36	0xbe45b9d8	-0.19309175
37	0xbe6e8d4f	-0.23296092
38	0xbd82b0db	-0.06381389
39	0xbee5f131	-0.44910577
40	0xbe253320	-0.16132784
41	0xbd6dff08	-0.058104545
42	0xbe4269ea	-0.18985716
43	0xbe9c9162	-0.30579668
44	0x3cb1d639	0.021708595
45	0xbc84ee1d	-0.016226823
46	0xbd522b5f	-0.051310893
47	0xbea07bdf	-0.31344506
48	0xbf182744	-0.59434915
49	0xbe9cd803	-0.30633554
50	0xbf09ac93	-0.5377895
51	0x3d8e3c36	0.06945078
52	0xbe9debd0	-0.30843973
53	0xbdb68481	-0.08911992
54	0xbefcaa3a	-0.49348623
55	0xbdc5f97e	-0.096667275
56	0x3bd8931c	0.0066093337
57	0xbef61f0f	-0.4807057
58	0xbe7000c3	-0.2343779
59	0x3e4fd9a8	0.20297873
60	0xbce6c049	-0.02816786
61	0xbeec6bac	-0.46175897
62	0xbef6c52c	-0.48197305
63	0xbea126c0	-0.31474876
64	0x3e10b90b	0.14133088
65	0x3d1e8fe0	0.03871143
66	0xbdc4e08d	-0.09613142
67	0xbf175a77	-0.59122413
68	0xbeb6348c	-0.35586965
69	0xbebabec6	-0.36473674
70	0xbe720c8b	-0.23637597
71	0xbf1ef128	-0.62086725
72	0x3c43c9e0	0.011949986
73	0xbe630753	-0.22170763
74	0xbdee2f13	-0.116300724
75	0xbda79324	-0.08182362
76	0xbe82a21c	-0.25514305
77	0xbe9d4119	-0.30713728
78	0xbc43302f	-0.011913343
79	0xbdb339fb	-0.08751293
80	0xbdea74ee	-0.11448084
81	0xbdfb02c6	-0.12256388
82	0xbd30c508	-0.043156654
83	0xbd8c395f	-0.0684688
84	0xbef93306	-0.4867174
85	0xbed45e5a	-0.41478235
86	0x3b98cb8e	0.0046629375
87	0xbe2fa755	-0.17153676
88	0xbe312857	-0.17300545
89	0xbdc24fa9	-0.0948785
90	0x3c1ea1ae	0.009682102
91	0xbe666c68	-0.22502291
92	0xbed64199	-0.41846922
93	0x3dc5028a	0.09619625
94	0x3dae1cb4	0.085015684
95	0xbef52e70	-0.47886992
96	0xbeba54a8	-0.36392713
97	0xbd95382a	-0.07286103
98	0xbee6e787	-0.45098516
99	0xbd0e7ac1	-0.034785036
100	0xbe884c57	-0.26620743
101	0xbdf16981	-0.117877014
102	0x3e20b954	0.15695697
103	0x3e322b71	0.17399384
104	0xbe11a9e4	-0.14224964
105	0xbf19a141	-0.6001168
106	0xbe855854	-0.26043952
107	0xbe2ae555	-0.16689046
108	0xbdb906ac	-0.09034476
109	0xbebcdf85	-0.36889282
110	0x3dadf8c0	0.08494711
111	0x3de6c514	0.112680584
112	0xbd990412	-0.074714795
113	0x3da91fd8	0.08258027
114	0xbe84fe2b	-0.25975165
115	0xbe8038d4	-0.25043356
116	0xbe8a166d	-0.26970235
117	0xbe514c98	-0.20439374
118	0xbe80cc0b	-0.25155672
119	0xbe60b17d	-0.21942706
120	0xbed03c4b	-0.40671
121	0xbddbe3c3	-0.107368015
122	0xbc447989	-0.011991867
123	0xbdcb19d5	-0.099170364
124	0xbeddbd0d	-0.43308297
125	0xbef34104	-0.4751054
126	0xbe957ac3	-0.29195222
127	0xbe94ccc5	-0.29062477
128	0xbdd8fed6	-0.10595481
129	0x3ca3684b	0.019947192
130	0xbe0110f7	-0.12604128
131	0xbeada754	-0.33916724
132	0xbd122cdb	-0.03568731
133	0x3e20315a	0.15643826
134	0xbebac4e1	-0.36478332
135	0xbd72631e	-0.059176557
136	0xbedf2e10	-0.4358983
137	0x3d781223	0.06056417
138	0xbe854bf5	-0.26034513
139	0xbdea3b93	-0.11437144
140	0x3e8948ee	0.26813453
141	0xbca365af	-0.019945947
142	0xbe887748	-0.26653504
143	0xbec9cb81	-0.39413074
144	0xbce64bc9	-0.028112309
145	0xbf18f663	-0.59750956
146	0xbd651c80	-0.055935383
147	0xbed2e04e	-0.41186756
148	0xbe44768f	-0.19185852
149	0x3db400b1	0.087891944
150	0xbe93ae7c	-0.2884406
151	0x3e0f2294	0.13978034
152	0xbe91d595	-0.28483263
153	0xbe51e6dd	-0.20498224
154	0xbecd775b	-0.40130123
155	0xbd6e9348	-0.058245927
156	0xbe6480c1	-0.2231474
157	0xbe53e8c3	-0.2069426
158	0xbe82b0d2	-0.25525528
159	0xbe39f139	-0.18158425
160	0xbecb8d93	-0.3975645
161	0xbd031387	-0.032001045
162	0xbf01759d	-0.5057009
163	0xbd830de2	-0.06399132
164	0xbeb1dc86	-0.3473856
165	0xbf087b54	-0.53313184
166	0xbed856a3	-0.422536
167	0xbed9f746	-0.42571467
168	0x3e0d1615	0.13777955
169	0xbe63d56a	-0.2224938
170	0xbea6ce14	-0.325791
171	0xbe66e42d	-0.2254798
172	0xbef394d0	-0.47574472
173	0xbb40fae3	-0.0029446415
174	0xbe971e07	-0.29515097
175	0x3cfaa666	0.030596923
176	0xbf0670ff	-0.5251617
177	0xbe88613e	-0.2663669
178	0xbea9ec73	-0.3318821
179	0xbdccf700	-0.10008049
180	0xbecf14eb	-0.40445647
181	0x3df84d10	0.121240735
182	0xbebe111c	-0.37122428
183	0xbf08c2e2	-0.5342237
184	0xbe054938	-0.13016212
185	0xbdd5c6d6	-0.104383156
186	0xbeccae56	-0.39976758
187	0x3e0fadec	0.1403119
188	0xbdd5ae53	-0.1043364
189	0xbdc226b3	-0.094800375
190	0xbdf16760	-0.11787295
191	0xbd5c0d01	-0.05372334
192	0xbe115958	-0.14194238
193	0x3db165e3	0.086620115
194	0xbe2b236b	-0.1671273
195	0xbe87a416	-0.26492375
196	0xbe8e4b13	-0.27791652
197	0xbf16adb0	-0.58858776
198	0xbec144d2	-0.37747818
199	0xbcdd014b	-0.026978156
200	0xbe42c09b	-0.19018786
201	0xbe26bc5f	-0.16282795
202	0xbc0afe8f	-0.008483543
203	0xbe922d67	-0.28550264
204	0x3d74b50f	0.059742983
205	0xbeede4c4	-0.46463597
206	0xbd74d1c4	-0.05977036
207	0xbe833871	-0.25629
208	0x3b8505cb	0.0040595285
209	0xbdd3489c	-0.103165835
210	0xbf0cb323	-0.5496084
211	0x3e373360	0.17890692
212	0x3db201bd	0.08691738
213	0xbd2a26a8	-0.04154077
214	0xbd2b3307	-0.04179671
215	0xbed68139	-0.41895464
216	0xbdc4aec0	-0.096036434
217	0xbe370f0c	-0.17876834
218	0xbe2cf0b9	-0.16888703
219	0xbddb4ff8	-0.10708612
220	0xbeb1a3db	-0.34695324
221	0xbe411119	-0.18854178
222	0xbe371875	-0.17880423
223	0x3cc5af41	0.02413142
224	0xbeaade0e	-0.3337254
225	0x3e4c35c9	0.19942392
226	0x3e4777aa	0.19479242
227	0xbf080f16	-0.5314802
228	0xbd6001d5	-0.054689247
229	0x3c34db68	0.011038639
230	0xbec2f596	-0.38077992
231	0xbd47f758	-0.04881987
232	0x3dad32da	0.08456965
233	0xbdc8ae53	-0.09798875
234	0xbf03f65f	-0.5154781
235	0xbc50fc2e	-0.012755437
236	0xbe7302b4	-0.237315
237	0xbec43d40	-0.3832798
238	0xbd0cb8ce	-0.03435593
239	0xbea5ee9f	-0.32408616
240	0xbe71e750	-0.23623395
241	0xbd29ed21	-0.04148591
242	0xbe29aca2	-0.1656976
243	0xbeb4e1c9	-0.3532851
244	0xbe9d5868	-0.3073151
245	0xbe4024e2	-0.1876407
246	0xbedde32e	-0.43337387
247	0xbef3f82a	-0.47650272
248	0xbea7f2a4	-0.32802308
249	0xbe078952	-0.13235977
250	0xbe9e38d1	-0.30902722
251	0xbeda9335	-0.42690435
252	0xbebe24b0	-0.37137365
253	0xbe14aecd	-0.14519806
254	0xbf027763	-0.5096342
255	0xbdbc8b99	-0.09206314

sequential_3/conv2d_9/Conv2D f4 [32, 3, 3, 3]
0	0x3de5291c	0.111894816
1	0x3d97f33d	0.07419441
2	0xbbeef72b	-0.0072926483
3	0x3d1e0c5d	0.03858601
4	0xbda5e436	-0.081001684
5	0x3e08b956	0.1335195
6	0xbe092934	-0.13394624
7	0x3d5cce4b	0.053907674
8	0x3d58b74b	0.052909177
9	0x3dd4d3dd	0.10391972
10	0x3e7b0a97	0.24515758
11	0xbc2f5fe0	-0.010704011
12	0x3df40ce2	0.1191652
13	0xbd5f9bc1	-0.054591898
14	0x3c9923f1	0.018693896
15	0xbd957bbb	-0.0729899
16	0xbdf74c19	-0.12075061
17	0xbdef78af	-0.116929404
18	0x3d8781d1	0.066165574
19	0x3ddad9ce	0.10686074
20	0x3dbfe538	0.09369892
21	0xbd8bcf5f	-0.06826662
22	0xbe17174d	-0.14754982
23	0x3c8f839c	0.01751881
24	0xbdc58d80	-0.096461296
25	0xbe183124	-0.14862496
26	0xbbc43749	-0.005988036
27	0xbd766212	-0.06015212
28	0x3b88c268	0.0041735657
29	0x3e2fb434	0.17158586
30	0xbb27a45d	-0.0025580146
31	0xbd209f93	-0.03921468
32	0xbd043662	-0.032278426
33	0xbe71183b	-0.235444
34	0xbe4a01ff	-0.19727324
35	0xbe1b5fd3	-0.15173273
36	0x3e48fe90	0.19628358
37	0x3da33dba	0.07970758
38	0x3de7a2a3	0.11310317
39	0x3ca376ac	0.019954048
40	0x3db05896	0.086106464
41	0xbe340eb7	-0.17583738
42	0xbe041697	-0.12899242
43	0xbe51fd29	-0.20506729
44	0x3d796e6a	0.060896315
45	0x3dd9bc9d	0.10631678
46	0x3e483f73	0.19555454
47	0xbc672a28	-0.014109172
48	0x3e15af0e	0.1461756
49	0x3db52703	0.088453315
50	0x3d85f4a5	0.06540803
51	0xbdcdf5ae	-0.10056625
52	0x3db3d430	0.08780706
53	0xbd8d53bc	-0.06900737
54	0x3d1ec3fe	0.03876113
55	0x3e2935d6	0.16524443
56	0x3e202db8	0.1564244
57	0x3ca3dc2d	0.020002449
58	0x3e805f9b	0.2507294
59	0x3da8f102	0.082490936
60	0xbc0a68b0	-0.008447811
61	0xbde54345	-0.11194471
62	0xbdce2cf2	-0.100671664
63	0xbdc3cc34	-0.09560433
64	0x3cb63913	0.022244012
65	0x3c932bac	0.01796516
66	0x3da844b9	0.08216233
67	0xbbd98dbe	-0.0066392114
68	0xbc73374e	-0.014844729
69	0xbdc8bc0f	-0.09801494
70	0xbd7638f8	-0.060112923
71	0xbe0c1e11	-0.13683344
72	0xbdc43fc2	-0.09582473
73	0x3dc3ca8f	0.09560119
74	0x3dd2c720	0.10291886
75	0x3d588cfb	0.052868824
76	0xbdab8c7e	-0.08376406
77	0xbe708a8e	-0.23490354
78	0x3d6bcb00	0.057566643
79	0xbdb51157	-0.08841198
80	0xbdddcc37	-0.108299665
81	0x3cb6d9d9	0.022320675
82	0x3e95c760	0.29253674
83	0x3e59183d	0.21200652
84	0x3dfcab25	0.12337331
85	0xbc66fe11	-0.01409866
86	0xbd7efbd1	-0.06225187
87	0xbcd8512b	-0.026405891
88	0xbe40980b	-0.18808
89	0xbe46a051	-0.19397093
90	0x3e085d40	0.13316822
91	0x3cc6315f	0.024193464
92	0x3e1f9ade	0.15586421
93	0xbe46cdbd	-0.1941442
94	0x3cdaeeb0	0.026725143
95	0x3ce06d02	0.027395729
96	0xbcc4d929	-0.024029331
97	0xbe3c28b7	-0.18374906
98	0xbd622ce2	-0.055218585
99	0xbd808035	-0.062744536
100	0x3d9a5f0a	0.075376585
101	0x3c8409da	0.016117979
102	0xbdee5e12	-0.11639036
103	0xbd535c1e	-0.05160152
104	0xbdb5ff69	-0.08886606
105	0x3de14422	0.109993234
106	0x3d9a6fca	0.07540853
107	0xbd1fc5cf	-0.039007004
108	0xbe236da1	-0.15959789
109	0x3d96cffd	0.07363889
110	0xbca21278	-0.019784197
111	0x3e220fc4	0.15826327
112	0x3e6fbd4a	0.23412052
113	0x3e7f1d5c	0.24913543
114	0x3d8227bb	0.06355234
115	0x3e9f5376	0.31118363
116	0x3ea544dc	0.32279098
117	0xbe4331f9	-0.19062032
118	0xbe0479b2	-0.12937048
119	0xbe2f9ba6	-0.17149219
120	0xbe25e6e9	-0.16201366
121	0xbdcccd4c	-0.10000095
122	0xbd833a6d	-0.06407628
123	0x3e1c4e50	0.15264249
124	0x3ccc6d5c	0.02495449
125	0xb96a10a5	-0.0002232218
126	0xbdb1633c	-0.086615056
127	0xbd525717	-0.051352587
128	0xbdd744a3	-0.10511138
129	0xbd4e896a	-0.050424017
130	0xbe13df18	-0.14440572
131	0xbe1065e5	-0.1410137
132	0xbcb79615	-0.022410432
133	0xbcc8f66b	-0.024531564
134	0xbe292599	-0.16518249
135	0x3d517e62	0.05114592
136	0xbe1a9122	-0.15094426
137	0x3d1c6be9	0.03818885
138	0x3dff7a3c	0.12474486
139	0x3e4a346a	0.19746557
140	0x3e3896e4	0.1802631
141	0x3e0490a4	0.12945801
142	0x3e4be8b9	0.19912995
143	0x3e60ed0a	0.21965423
144	0x3d58fb2f	0.052973922
145	0xbddd4742	-0.10804607
146	0xbd39b1c4	-0.045335546
147	0xbddad2fd	-0.10684774
148	0xbcfefbbf	-0.031125901
149	0xbe3e22f7	-0.18568026
150	0xbe08c587	-0.133566
151	0xbe375612	-0.17903927
152	0xbe38068c	-0.17971247
153	0x3d5bc27b	0.053652268
154	0x3d22395e	0.03960549
155	0x3d80e46f	0.0629357
156	0x3d580d16	0.052746855
157	0xbddd4bf9	-0.10805506
158	0x3e435cf1	0.19078423
159	0xbd034358	-0.032046646
160	0xbd9076cf	-0.07053911
161	0xbdbf1fe1	-0.09332252
162	0xbd67f047	-0.05662563
163	0xbdd96825	-0.10615567
164	0x3ca50a46	0.0201465
165	0xbe25e696	-0.16201243
166	0x3e58ba0e	0.21164724
167	0x3e0c9017	0.13726841
168	0x3c3325d3	0.010934311
169	0x3dde5f91	0.108580716
170	0x3c10d773	0.00884043
171	0x3dc05f32	0.09393157
172	0x3ca7434c	0.020417832
173	0xbe224796	-0.1584762
174	0x39eba5d5	0.00044946247
175	0x3dab77a9	0.08372433
176	0xbe147a76	-0.1449984
177	0x3dc5f071	0.09665001
178	0x3d93971d	0.07206557
179	0x3d0c2831	0.034218017
180	0xbdc868ac	-0.097855896
181	0xbcc37d0e	-0.023863342
182	0x3dcefa21	0.10106302
183	0xbe0b4171	-0.13599183
184	0xbde7697b	-0.11299416
185	0xbd8a2279	-0.067448564
186	0xbe1d9310	-0.15388131
187	0xbe14b0e9	-0.14520611
188	0x3c918732	0.017764661
189	0x3cdf8c0d	0.027288461
190	0x3d5def7f	0.05418348
191	0x3d67c8e5	0.056588072
192	0xbe2bce55	-0.16777928
193	0x3c81471e	0.015780982
194	0xbe939773	-0.28826484
195	0xbe3210f0	-0.17389274
196	0xbe52fc81	-0.20604135
197	0xbd9c663a	-0.07636686
198	0x3e8de047	0.27710173
199	0x3e8ca5e7	0.27470323
200	0x3dc344ad	0.09534583
201	0xbdb28c64	-0.08718184
202	0x3dec03c1	0.115241535
203	0xbe1654ee	-0.14680836
204	0x3c3d4c61	0.011553855
205	0xbd437fd3	-0.047729325
206	0xbe0d4f34	-0.13799745
207	0x3dea9ecb	0.114560686
208	0x3dd4bb6e	0.10387312
209	0x3e8facc1	0.28061488
210	0x3b9a351c	0.004706038
211	0x3e2b5471	0.1673143
212	0x3e0d3a7c	0.13791841
213	0xbda228bc	-0.07917926
214	0xbcd96eb9	-0.026542054
215	0x3e0f764f	0.14009975
216	0x3df52c17	0.119713
217	0x3e1ee083	0.15515332
218	0x3d788a12	0.06067855
219	0x3df7ebf8	0.12105554
220	0x3c511eb0	0.012763664
221	0x3e455934	0.1927231
222	0xbe140b02	-0.14457324
223	0xbdbd480f	-0.0924226
224	0x3d70e922	0.058816083
225	0x3d6b392d	0.057427574
226	0x3dc3eb2f	0.09566342
227	0x3e52681f	0.20547532
228	0xbe8dafca	-0.2767318
229	0xbe35b317	-0.17744099
230	0xba3cba49	-0.00071993895
231	0x3c093e89	0.008376726
232	0xbd070835	-0.03296681
233	0xbe745fe2	-0.23864701
234	0x3def7cd7	0.11693733
235	0xbe2e1e75	-0.17003806
236	0x3d3a5a4f	0.04549628
237	0xbe30dc60	-0.17271566
238	0xbe4fb977	-0.20285593
239	0xbe51e36e	-0.20496914
240	0x3ddcb291	0.10776246
241	0x3e056865	0.13028105
242	0x3dcd3a65	0.100209035
243	0xbdd80a97	-0.10548895
244	0x3dfb51c9	0.12271459
245	0x3d542e73	0.05180211
246	0x3ce32304	0.027726658
247	0xbe8ba77f	-0.27276227
248	0xbd9953cb	-0.07486685
249	0xbdc81acd	-0.09770737
250	0xbe20d156	-0.15704855
251	0xbddd6396	-0.1081001
252	0xbc16b16b	-0.009197573
253	0xbe17d0d2	-0.14825752
254	0xbb27d4ce	-0.002560902
255	0xbd2a362a	-0.04155556

sequential_3/conv2d_10/Conv2D f4 [32, 3, 3, 32]
0	0x3dbd200f	0.0923463
1	0x3e5bd319	0.21467246
2	0xbd0a145a	-0.033710815
3	0x3d632243	0.055452596
4	0xbda8fb11	-0.08251012
5	0xbce2b018	-0.027671859
6	0xbd447c52	-0.047970124
7	0x3dd439ca	0.10362585
8	0x3dd1a383	0.102362655
9	0xbe48ff82	-0.19628718
10	0x3e195a06	0.14975747
11	0xbda06d9e	-0.07833408
12	0x3cdf8ab4	0.027287818
13	0x3e06d45e	0.13166949
14	0xbce3db60	-0.027814567
15	0xbdcbd9ad	-0.09953628
16	0xbd7d0d18	-0.061780065
17	0xbc57a2d6	-0.013161382
18	0xbc17111d	-0.009220389
19	0x3d2e612a	0.04257313
20	0x398ade1e	0.000264869
21	0xbd9ea0f1	-0.07745541
22	0xbb9880c7	-0.0046540233
23	0xbdd4da40	-0.103931904
24	0x3d906937	0.07051318
25	0x3cec0522	0.028811041
26	0xbc8bb293	-0.017052924
27	0xbd4c1627	-0.049825814
28	0x3d5ace55	0.05341943
29	0xbdd4b799	-0.10386581
30	0x3d080bbd	0.03321432
31	0x3d4e853a	0.050420024
32	0x3e4cdb33	0.20005493
33	0x3e63b7c4	0.2223807
34	0x3d615af7	0.05501839
35	0x3e50219c	0.20325321
36	0xbdaa135d	-0.083044745
37	0xbde4fbe4	-0.11180857
38	0xbc84ac79	-0.016195523
39	0xbd44055b	-0.04785667
40	0x3d8e1842	0.069382206
41	0xbdb4115d	-0.08792374
42	0xbd057ad6	-0.03258785
43	0xbbebc2d9	-0.0071948585
44	0x3bc43bae	0.0059885597
45	0xbd35b3d5	-0.044360954
46	0x3dd8cb8e	0.105857
47	0x3d0ed4ec	0.034871027
48	0x3d74d4a1	0.05977309
49	0x3d3b69de	0.04575526
50	0x3dca0d8e	0.098658666
51	0x3d7d172c	0.061789677
52	0xbe00c736	-0.12575993
53	0x3c74ce7b	0.014941807
54	0x3c6e1dd5	0.01453348
55	0xbe8a827f	-0.27052686
56	0xbe63f942	-0.22263053
57	0xbe204da4	-0.15654618
58	0x3dcf6b2d	0.10127864
59	0x3e26fb5f	0.16306828
60	0x3d83b179	0.064303346
61	0xbda64664	-0.08118895
62	0x3e10e47f	0.14149664
63	0xbdd48fe0	-0.103790045
64	0x3e2892bc	0.16462225
65	0x3d1609a7	0.0366303
66	0x3cd654fc	0.02616357
67	0x3dc4ecbb	0.09615465
68	0x3cfeb6fd	0.031093115
69	0x3e2f1686	0.17098436
70	0x3cb34894	0.021885194
71	0xbd88fde7	-0.06689053
72	0x3cef29a9	0.02919467
73	0x3e09bc62	0.13450769
74	0xbe6bc85b	-0.23025648
75	0xbe8a8697	-0.2705581
76	0xbda3eebe	-0.08004521
77	0x3b1d5899	0.0024009107
78	0xbd397864	-0.04528083
79	0xbd84e4fb	-0.06488987
80	0xbe1f0e2c	-0.1553275
81	0xbe1020a3	-0.1407495
82	0xbdbfa997	-0.093585186
83	0x3d5f6a9b	0.054545026
84	0x3d5e0743	0.054206144
85	0xbd025934	-0.031823352
86	0x3d514b2a	0.051097073
87	0x3de2501d	0.11050437
88	0xbe0216fb	-0.12704079
89	0xbe5f5ed8	-0.21813524
90	0x3e1b0c06	0.15141305
91	0xbda6acf9	-0.08138461
92	0xbd062cc8	-0.03275755
93	0xbe2b1efc	-0.16711038
94	0x3da35bfb	0.07976528
95	0xbc97499f	-0.018467722
96	0x3c3ed4ba	0.011647398
97	0x3e002d5f	0.12517308
98	0xbe595d99	-0.21227111
99	0xbe709b27	-0.23496686
100	0x3dc35b34	0.0953888
101	0x3dae8e38	0.0852322
102	0xbd31edef	-0.0434398
103	0x3dc29f3a	0.09503026
104	0xbdff2afc	-0.124593705
105	0xbd87857c	-0.06617257
106	0xbc500688	-0.01269687
107	0xbde68535	-0.11255876
108	0xbdae5777	-0.08512776
109	0xbcb694fd	-0.02228784
110	0xbe55aa38	-0.20865715
111	0xbdfa4f1e	-0.12222122
112	0xbe3dde11	-0.18541743
113	0xbd9d09bf	-0.076678745
114	0xbe2358b3	-0.15951805
115	0x3d3ff533	0.0468647
116	0xbd7f2d52	-0.06229908
117	0x3e381fa3	0.17980818
118	0x3dcb70ee	0.09933649
119	0x3e41524f	0.18879054
120	0x3e4b5247	0.19855605
121	0x3dbccae7	0.09218388
122	0xbd85e801	-0.06538392
123	0x3d95a0eb	0.07306083
124	0x3e1ebd62	0.15501931
125	0xbdd395f9	-0.103313394
126	0x3c2aa7c3	0.010415974
127	0x3d68a0b4	0.056793883
128	0x3d45dde1	0.048307303
129	0x3e88624a	0.2663749
130	0xbd3789c8	-0.044809133
131	0x3e0e70e1	0.13910247
132	0x3c9164f1	0.017748328
133	0xbe41815a	-0.18897
134	0xbe057edb	-0.13036673
135	0x3cb8983b	0.022533527
136	0xbd4afd42	-0.04955793
137	0xbe2331dc	-0.15936989
138	0x3de2be36	0.11071436
139	0x3cb728b9	0.022358285
140	0x3916dd82	0.00014387633
141	0xbda1dfdc	-0.07904026
142	0x3d9f78fd	0.077867486
143	0x3c04b68d	0.008100164
144	0x3d7f7bce	0.06237393
145	0x3df5aa88	0.11995417
146	0xbd3dac90	-0.046307147
147	0x3dc2a789	0.09504611
148	0xbe00b9d0	-0.12570882
149	0x3d85f86a	0.06541522
150	0x3e0696e6	0.131435
151	0xbd8aff0c	-0.067869276
152	0xbeccee62	-0.40025622
153	0xbe0b6c21	-0.13615467
154	0x3e007b0c	0.12546939
155	0x3dcddaef	0.10051524
156	0xbe9e0167	-0.30860445
157	0xbde3000f	-0.110839956
158	0xbd7f03d9	-0.06225953
159	0x3d7d5460	0.061848044
160	0x3e91f9e1	0.28510955
161	0x3d71ee59	0.059065197
162	0x3e847678	0.25871634
163	0x3e72e489	0.23719992
164	0x3d494efe	0.0491476
165	0x3d328456	0.043583237
166	0xbe066431	-0.13124157
167	0x3b87b91e	0.0041419407
168	0x3e23280d	0.15933247
169	0x3a803e56	0.0009784203
170	0xbd409b5d	-0.047023166
171	0xbd36cd9c	-0.044629678
172	0x3e62b214	0.22138244
173	0x3da3c4fe	0.07996558
174	0x3db4826a	0.08813937
175	0x3d8cf54c	0.06882724
176	0xbdc199d8	-0.094531715
177	0x3d53131e	0.051531903
178	0x3dff3aea	0.12462409
179	0x3e3df038	0.18548667
180	0xbbb84822	-0.0056238333
181	0xbe8ad98a	-0.27119094
182	0x3e0987e4	0.13430744
183	0xbd3b9787	-0.045798805
184	0xbddb8909	-0.10719497
185	0xbda2c2e5	-0.079473294
186	0x3db2d5a2	0.087321535
187	0x3d914fd8	0.07095307
188	0x3d2138d2	0.03936083
189	0x3dabccee	0.083886966
190	0x3dad1a04	0.08452228
191	0xbd8b38f5	-0.06797973
192	0x3dfb2191	0.12262262
193	0x3cd8f206	0.026482593
194	0x3b005e3d	0.001958742
195	0x3c080824	0.008302722
196	0x3d1f433f	0.03888249
197	0xbd815c0b	-0.06316384
198	0xbd171549	-0.036885533
199	0x3d01e1c7	0.03170946
200	0xbe2f8d4f	-0.17143749
201	0x3d260063	0.040527713
202	0x3d18f78c	0.037345454
203	0x3d4ca124	0.049958363
204	0xbd6e64a2	-0.05820144
205	0x3e1360d0	0.143924
206	0xbd1ac07b	-0.03778122
207	0xbd25e8e2	-0.040505297
208	0xbe2254fc	-0.15852731
209	0xbc745fb6	-0.014915397
210	0xbdd60820	-0.104507685
211	0xbe906aec	-0.28206575
212	0x3e19dee8	0.15026438
213	0x3e136b42	0.14396384
214	0xbda637e0	-0.08116126
215	0x3d3a0739	0.045417044
216	0xbd5358c5	-0.05159833
217	0xbdd825de	-0.105540976
218	0xbd958ab6	-0.07301848
219	0xbe4ba54b	-0.19887273
220	0xbdf471b4	-0.1193575
221	0x3dd5e082	0.10443212
222	0xbdb8e41c	-0.090278834
223	0x3e1c6671	0.15273453
224	0x3e12dd54	0.14342242
225	0x3e42db78	0.19029033
226	0x3d620fdf	0.055190917
227	0x3d0612d6	0.032732807
228	0xbdaf09a9	-0.085467644
229	0xbe658bb6	-0.22416577
230	0xbdd36b43	-0.10323193
231	0x3dc21779	0.09477133
232	0xbe3b1cdc	-0.18272728
233	0xbd7e9dcf	-0.062162217
234	0xbdad25f2	-0.08454503
235	0x3d58bf59	0.05291686
236	0x3df90d85	0.12160782
237	0x3c06bf07	0.008224255
238	0xbde8869d	-0.113538004
239	0xbe338e9a	-0.17534867
240	0xbdb188e7	-0.0866869
241	0xbce09368	-0.027414039
242	0x3d57a383	0.05264617
243	0xbe08fe66	-0.13378295
244	0xbe5167ba	-0.20449725
245	0x3e06cd09	0.13164152
246	0xbde1e23b	-0.11029478
247	0x3b0a75a6	0.0021127253
248	0xbe032aa2	-0.12809232
249	0x3b8f0221	0.0043642675
250	0x3db26336	0.08710329
251	0xbd397071	-0.045273248
252	0xbe067a70	-0.13132644
253	0xb9ba3662	-0.00035517203
254	0x3df440e8	0.119264424
255	0x3cf9667a	0.030444372

sequential_3/conv2d_11/Conv2D f4 [32, 3, 3, 32]
0	0x3da6a128	0.08136207
1	0x3d83ff6c	0.06445202
2	0xbd936d0e	-0.07198535
3	0x3d0b8a19	0.034067247
4	0x3e8c682b	0.27423224
5	0xbb17eade	-0.0023180763
6	0x3d7d9a04	0.06191446
7	0xbe1e9aae	-0.15488693
8	0x3e42c811	0.19021632
9	0x3d955829	0.07292206
10	0x3e43cb9a	0.19120637
11	0x3e08066d	0.13283701
12	0xbdde3b92	-0.10851206
13	0x3deee4cf	0.116647355
14	0x3dc9d747	0.09855514
15	0x3d06ab2f	0.032878097
16	0x3e3e40ea	0.1857945
17	0x3d8405d7	0.06446426
18	0x3dc6f4d5	0.09714667
19	0x3cc92bb2	0.024556968
20	0x3db150e2	0.08658005
21	0x3dd92562	0.10602833
22	0x3db4071e	0.0879042
23	0xbda65935	-0.08122484
24	0x3d61db23	0.055140626
25	0x3e1db05a	0.15399304
26	0xbd9a925d	-0.07547448
27	0xbce7903b	-0.028267017
28	0x3e51b972	0.20480898
29	0x3e089eed	0.13341875
30	0xbd4b5ba7	-0.049647953
31	0x3d8ff0f7	0.07028382
32	0x3dc0bcbf	0.094110005
33	0x3e082aac	0.13297528
34	0xbd5cc75a	-0.053901054
35	0xbd8d17a3	-0.06889274
36	0xbdb24a0b	-0.08705529
37	0xbe1760e2	-0.14783052
38	0xbe21810e	-0.15771887
39	0xbdd3826b	-0.1032761
40	0xbc6afaba	-0.014342004
41	0xbd10fb13	-0.035395693
42	0xbe25727a	-0.1615695
43	0xbe00e2de	-0.12586543
44	0x3b8d186d	0.0043058903
45	0x3e3150ce	0.17315981
46	0xbe379f87	-0.17931949
47	0x3d93d8b9	0.07219071
48	0xbe665337	-0.22492681
49	0xbc936c4c	-0.017995976
50	0x3dd282c8	0.10278851
51	0x3daa8e49	0.0832792
52	0xbdf85cc8	-0.121270716
53	0xbe252401	-0.16127016
54	0xbd07046c	-0.0329632
55	0xbdbab161	-0.091158636
56	0x3eae07c0	0.33990288
57	0xbd5579b7	-0.05211803
58	0xbd7a6098	-0.061127275
59	0xbe888a4f	-0.2666802
60	0xbe06a504	-0.13148886
61	0xbda1b1a3	-0.0789521
62	0xbe229dd2	-0.15880516
63	0xbe936630	-0.287889
64	0x3ded2e82	0.11581136
65	0x3e4de3e1	0.2010646
66	0x3d77a8d0	0.060463727
67	0xbe4b771e	-0.19869658
68	0xbc7852f3	-0.015156495
69	0xbd689a35	-0.05678769
70	0xbdbd0c95	-0.092309155
71	0x3ca8435d	0.020539934
72	0x3d852dd9	0.06502885
73	0xbcf18e26	-0.029486727
74	0xbd817352	-0.06320824
75	0xbd819084	-0.06326392
76	0xbd6e9f51	-0.058257405
77	0x3e044895	0.12918313
78	0xbd78d6b4	-0.06075163
79	0x3e9ae910	0.30255938
80	0xbda04637	-0.078258924
81	0xbd24c595	-0.04022749
82	0x3d5d552d	0.054036308
83	0x3c37de33	0.01122241
84	0x3d3b7f69	0.045775805
85	0x3d9d5437	0.07682078
86	0xbca3a805	-0.019977579
87	0x3d5440e7	0.05181971
88	0x3ddcca32	0.10780753
89	0xbc5ea739	-0.013589674
90	0xbd7a037f	-0.06103849
91	0x3b6e35a1	0.0036347883
92	0x3e1759c0	0.1478033
93	0xba1e154f	-0.0006030397
94	0xbd808203	-0.06274798
95	0xbe5af2e7	-0.21381722
96	0x3da234b0	0.079202056
97	0x3d5b78d7	0.05358204
98	0xbd3bc3fd	-0.045841206
99	0xbdfba351	-0.122870095
100	0xbc8e5dae	-0.017378654
101	0x3b153121	0.0022764879
102	0xbdb5ccb4	-0.08876935
103	0xbd8aaadb	-0.06770869
104	0xbe5ad8fb	-0.21371834
105	0x3da68a50	0.0813185
106	0xbdd7101f	-0.10501122
107	0xbcc04003	-0.023468023
108	0xbe5524e6	-0.20814857
109	0xbdff219c	-0.12457582
110	0x3dbbb79e	0.091658816
111	0xbd9cbee9	-0.07653601
112	0x3dbdab70	0.09261215
113	0x3d4ae3ab	0.049533527
114	0xbde8e78a	-0.113722876
115	0xbdd49693	-0.10380282
116	0xbe01fa60	-0.12693167
117	0xbdf444f1	-0.11927212
118	0x3d8c2f7d	0.06844995
119	0x3d2d98a6	0.042381905
120	0xbe607db2	-0.21922949
121	0xbde1a4f6	-0.11017792
122	0xbe0ee779	-0.13955487
123	0xbe94bb7e	-0.29049295
124	0x3d634e6a	0.055494703
125	0x3ce20355	0.02758948
126	0x3c9859d6	0.018597525
127	0x3d034393	0.032046866
128	0xbdc361bb	-0.09540125
129	0x3e5595f9	0.20857991
130	0xbdbfd661	-0.093670614
131	0xbe3dfa00	-0.18552399
132	0xbe0a92b4	-0.13532525
133	0x3dc19734	0.09452668
134	0xbe0399d1	-0.12851645
135	0xbde0ac68	-0.10970384
136	0x3b7f1f1e	0.003892846
137	0xbe8e8a58	-0.27839923
138	0xbc92cf3f	-0.017921088
139	0xbe199efc	-0.15002054
140	0x3dc99ad0	0.09843981
141	0xbe4533ff	-0.19258116
142	0x3cc535fc	0.024073593
143	0xbdcb1b0d	-0.09917269
144	0x3e460fb4	0.19341928
145	0xbe0caf37	-0.13738714
146	0x3c966f37	0.018363578
147	0xbe03da8c	-0.12876338
148	0xbddab311	-0.106786855
149	0xbe5c54cf	-0.21516727
150	0xbd107270	-0.035265386
151	0x3e919055	0.2843043
152	0x3d949a29	0.07255966
153	0xbd3df0ff	-0.04637241
154	0xbe381b1f	-0.17979096
155	0x3ceb56e5	0.028727958
156	0xbe5f53d9	-0.21809329
157	0xbd8ea305	-0.06964687
158	0xbe80fb6f	-0.2519183
159	0xbe53e645	-0.2069331
160	0x3d5d841a	0.05408106
161	0x3d456083	0.048187744
162	0xbd7becd8	-0.06150517
163	0xbcb67011	-0.022270234
164	0xbc55c99c	-0.013048556
165	0xbde46f1e	-0.111540064
166	0x3d75feef	0.060057577
167	0x3d9c048c	0.07618055
168	0xbd5ea864	-0.05435981
169	0xbe111500	-0.14168167
170	0xbd5aea65	-0.053446192
171	0x3cea1b77	0.02857755
172	0x3de8b273	0.113621615
173	0xbba5e23f	-0.005062371
174	0xbd700bf0	-0.058605134
175	0x3b27a250	0.0025578924
176	0x3c30c4bc	0.010789093
177	0xbdb5419f	-0.08850407
178	0xbcfee1d9	-0.031113552
179	0x3dac54b2	0.08414592
180	0x3dda3f73	0.10656633
181	0xbe1d2f0f	-0.15349983
182	0xbdedd50c	-0.11612901
183	0x3d993af3	0.07481947
184	0x3e051f11	0.13000132
185	0x3dc34dfe	0.0953636
186	0x3e55c44d	0.20875664
187	0x3d8d1611	0.068889745
188	0xbe2ab3dd	-0.16670175
189	0x3b94124a	0.004518782
190	0x3e0f1384	0.13972288
191	0xbe6559a0	-0.2239747
192	0xbe06435a	-0.1311163
193	0xbca03e0f	-0.019560842
194	0xbdce22a9	-0.10065205
195	0x3d3db073	0.046310853
196	0x3cca9988	0.024731413
197	0xbe9db6ce	-0.3080353
198	0x3db743f3	0.08948507
199	0x3d131000	0.03590393
200	0x3d9d866e	0.07691656
201	0xbdd526d7	-0.10407799
202	0x3ccb6a97	0.0248311
203	0x3c66e84f	0.014093473
204	0xbc699e43	-0.014258924
205	0xbe733b5c	-0.23753113
206	0x3df26f9e	0.118376955
207	0x3cbf382c	0.023342215
208	0x3dd3da2f	0.103443496
209	0xbe479ade	-0.19492671
210	0xbe4b3b86	-0.19846925
211	0xbdd8c547	-0.10584503
212	0xbe2f659b	-0.17128603
213	0xbd316b80	-0.04331541
214	0xbc958b1a	-0.018254805
215	0x3e342dd9	0.17595614
216	0xbd801797	-0.062544994
217	0x3d5a1515	0.05324276
218	0x3cab672c	0.02092322
219	0x3bec4587	0.0072104367
220	0x3d8b8c11	0.06813825
221	0xbc674aa8	-0.0141169205
222	0xbc897ba7	-0.016782595
223	0xbd99bede	-0.07507108
224	0x3d0fb203	0.035081875
225	0xbe6ce475	-0.23134024
226	0x3d66619a	0.056245424
227	0x3df37abc	0.11888644
228	0xbd58fd27	-0.0529758
229	0xbe18d83f	-0.14926241
230	0xbd166232	-0.03671474
231	0x3e1f25f4	0.15541822
232	0xbdc8affa	-0.0979919
233	0xbdd94ed7	-0.10610741
234	0x3c8273bd	0.015924329
235	0xbe179cf5	-0.14805968
236	0x3de2e19c	0.11078188
237	0xbaf86910	-0.001895221
238	0x3e07971f	0.13241242
239	0x3e5ae930	0.21378016
240	0xbe0c2162	-0.1368461
241	0xbd8b3c8f	-0.0679866
242	0xbdde0cc5	-0.10842279
243	0x3edeab32	0.43489987
244	0x3d8571dd	0.06515858
245	0xbd21d497	-0.039509382
246	0x3e4c55c5	0.19954593
247	0x3dbcbd16	0.09215753
248	0x3dd466a0	0.10371137
249	0xbd56847b	-0.052372437
250	0x3e2b9c69	0.16758884
251	0xbdf65485	-0.120278396
252	0xbd7c824a	-0.06164769
253	0xbde442a1	-0.11145521
254	0xbe1341ed	-0.14380617
255	0xbca08b95	-0.019597808
