a_output_actual/dig-s0-q.tflite (tflite, 335904 bytes, 5 tensors)

sequential/conv2d/Conv2D i1 [32, 3, 3, 3]
00000000: af81 9fd9 2404 4024 2d01 1f2b 1956 39fe
00000010: 1313 2540 0213 36f1 e5af a4dc 0de4 d8a9
00000020: afb9 8c81 f9c4 2fec ee12 121e 2103 210b
00000030: 3468 3764 4043 148d 0acc f68c 7735 3cd3
00000040: 81ee b77a fa05 3e60 bbc9 b937 5670 4901
00000050: f8ff c4ff 2033 b848 2c37 e8f8 2146 6928
00000060: d2c7 2c04 0d0e 13fb dd81 c1b5 d507 2183
00000070: 9f81 c9df c470 5c07 674a bec5 fac0 0dfc
00000080: 4678 eb6f d325 cfea 6542 860b 17b6 8198
00000090: 5307 18e2 4179 01be d12a 7f05 1643 e92d
000000a0: 22ba ab97 ca4e 431e f35b 7fb7 fbcc babb
000000b0: 2ed2 691c daf9 b4e8 bc2f 056d f15b 1841
000000c0: e6f4 1a28 d1f9 3d2e 2deb a881 1bf3 16da
000000d0: 3627 97b6 e61d 11cf d0ac e6af dffa 32fc
000000e0: 0cc4 1fd9 b1cf 9e01 09ce 797f 7036 4828
000000f0: fe01 045b bd81 73db 0e4f e8d7 cfc5 c232
-81 -127 -97 -39 36 4 64 36
45 1 31 43 25 86 57 -2
19 19 37 64 2 19 54 -15
-27 -81 -92 -36 13 -28 -40 -87
-81 -71 -116 -127 -7 -60 47 -20
-18 18 18 30 33 3 33 11
52 104 55 100 64 67 20 -115
10 -52 -10 -116 119 53 60 -45
-127 -18 -73 122 -6 5 62 96
-69 -55 -71 55 86 112 73 1
-8 -1 -60 -1 32 51 -72 72
44 55 -24 -8 33 70 105 40
-46 -57 44 4 13 14 19 -5
-35 -127 -63 -75 -43 7 33 -125
-97 -127 -55 -33 -60 112 92 7
103 74 -66 -59 -6 -64 13 -4
70 120 -21 111 -45 37 -49 -22
101 66 -122 11 23 -74 -127 -104
83 7 24 -30 65 121 1 -66
-47 42 127 5 22 67 -23 45
34 -70 -85 -105 -54 78 67 30
-13 91 127 -73 -5 -52 -70 -69
46 -46 105 28 -38 -7 -76 -24
-68 47 5 109 -15 91 24 65
-26 -12 26 40 -47 -7 61 46
45 -21 -88 -127 27 -13 22 -38
54 39 -105 -74 -26 29 17 -49
-48 -84 -26 -81 -33 -6 50 -4
12 -60 31 -39 -79 -49 -98 1
9 -50 121 127 112 54 72 40
-2 1 4 91 -67 -127 115 -37
14 79 -24 -41 -49 -59 -62 50

sequential/conv2d_1/Conv2D i1 [64, 3, 3, 32]
00000000: 0996 17b4 cdf8 1131 880a f0d7 bf3d eafd
00000010: d71c 0f19 e7e3 d40e 6134 03bc de09 31fa
00000020: 27b3 3104 f0e6 e519 81a9 ccf2 911b b2e9
00000030: 0cc9 f017 00b4 b50d 51f0 00d4 bb1a 44c6
00000040: eed4 f22b eedf bb1f a5d0 f2f2 e40a d7de
00000050: 0dec fc35 e206 1be5 d8eb f1f1 e2e5 1f03
00000060: e704 22e0 e3df fc38 c122 cad9 d12e 12f8
00000070: f32c 3348 0eaf de1d 3c16 efed ce03 2dd8
00000080: e9a7 0601 bcd8 d22b a9cc dc04 da2a ee0b
00000090: 0ed6 d038 eeb7 0f13 31e6 17fe da2c 32dd
000000a0: f7b4 dc0f d521 f013 df10 f7e3 d824 d3e7
000000b0: 08fa 3a31 25cf 0fe7 f80f d9db ff10 31f8
000000c0: 170a 26f8 f001 0c04 f737 4211 df31 1eee
000000d0: f0ee f521 13f8 f5fb 4539 1cd8 d3e3 1224
000000e0: fe9c 23ff 141f 360f e8c2 123d f611 e3e2
000000f0: 30f7 b002 f2f8 3b35 1af1 00eb 1221 2ee1
9 -106 23 -76 -51 -8 17 49
-120 10 -16 -41 -65 61 -22 -3
-41 28 15 25 -25 -29 -44 14
97 52 3 -68 -34 9 49 -6
39 -77 49 4 -16 -26 -27 25
-127 -87 -52 -14 -111 27 -78 -23
12 -55 -16 23 0 -76 -75 13
81 -16 0 -44 -69 26 68 -58
-18 -44 -14 43 -18 -33 -69 31
-91 -48 -14 -14 -28 10 -41 -34
13 -20 -4 53 -30 6 27 -27
-40 -21 -15 -15 -30 -27 31 3
-25 4 34 -32 -29 -33 -4 56
-63 34 -54 -39 -47 46 18 -8
-13 44 51 72 14 -81 -34 29
60 22 -17 -19 -50 3 45 -40
-23 -89 6 1 -68 -40 -46 43
-87 -52 -36 4 -38 42 -18 11
14 -42 -48 56 -18 -73 15 19
49 -26 23 -2 -38 44 50 -35
-9 -76 -36 15 -43 33 -16 19
-33 16 -9 -29 -40 36 -45 -25
8 -6 58 49 37 -49 15 -25
-8 15 -39 -37 -1 16 49 -8
23 10 38 -8 -16 1 12 4
-9 55 66 17 -33 49 30 -18
-16 -18 -11 33 19 -8 -11 -5
69 57 28 -40 -45 -29 18 36
-2 -100 35 -1 20 31 54 15
-24 -62 18 61 -10 17 -29 -30
48 -9 -80 2 -14 -8 59 53
26 -15 0 -21 18 33 46 -31

sequential/conv2d_2/Conv2D i1 [64, 3, 3, 64]
00000000: db2d f819 e01a 00e7 e103 1828 0502 cf23
00000010: 00eb c726 1eee 05fd 54da f8ea f8e9 f1dc
00000020: eddf b2f0 fc2b d4da 1f20 f031 e4be 153e
00000030: f412 eb23 27c5 a4f9 cd10 f3ee 37f2 bf1f
00000040: e6f2 25f9 e6a4 11f6 f0f5 d4f7 05a7 c9f9
00000050: 1e0c f05c f1e6 06ef 17f9 06b5 e201 e747
00000060: 0c25 c11b f434 3f06 f5a4 0e3f 0adb 050c
00000070: e8ed 02f6 edd8 f5f6 f6e3 b2f2 f800 20ea
00000080: b9ed 29d1 14ee 2f11 f7ff e9fa 25d1 0419
00000090: f4ed 1501 b6f1 b2dc 301d 1a0d d9e9 d20a
000000a0: 40fb 1015 d6e2 5909 a4f3 1d4b fad5 060b
000000b0: 0b04 172f f7e0 f4f2 c7f2 02af 0fe4 dd1c
000000c0: 15f6 d109 0522 07f6 ccf2 151e 3e61 1016
000000d0: f703 fd32 29e6 e4c6 670e 1e10 b824 06c4
000000e0: 01f9 4103 bf08 00ed 40e1 06d0 10ff e5d7
000000f0: a6f8 0065 f117 f12a e603 9210 48ed baf7
-37 45 -8 25 -32 26 0 -25
-31 3 24 40 5 2 -49 35
0 -21 -57 38 30 -18 5 -3
84 -38 -8 -22 -8 -23 -15 -36
-19 -33 -78 -16 -4 43 -44 -38
31 32 -16 49 -28 -66 21 62
-12 18 -21 35 39 -59 -92 -7
-51 16 -13 -18 55 -14 -65 31
-26 -14 37 -7 -26 -92 17 -10
-16 -11 -44 -9 5 -89 -55 -7
30 12 -16 92 -15 -26 6 -17
23 -7 6 -75 -30 1 -25 71
12 37 -63 27 -12 52 63 6
-11 -92 14 63 10 -37 5 12
-24 -19 2 -10 -19 -40 -11 -10
-10 -29 -78 -14 -8 0 32 -22
-71 -19 41 -47 20 -18 47 17
-9 -1 -23 -6 37 -47 4 25
-12 -19 21 1 -74 -15 -78 -36
48 29 26 13 -39 -23 -46 10
64 -5 16 21 -42 -30 89 9
-92 -13 29 75 -6 -43 6 11
11 4 23 47 -9 -32 -12 -14
-57 -14 2 -81 15 -28 -35 28
21 -10 -47 9 5 34 7 -10
-52 -14 21 30 62 97 16 22
-9 3 -3 50 41 -26 -28 -58
103 14 30 16 -72 36 6 -60
1 -7 65 3 -65 8 0 -19
64 -31 6 -48 16 -1 -27 -41
-90 -8 0 101 -15 23 -15 42
-26 3 -110 16 72 -19 -70 -9

sequential/dense/MatMul i1 [512, 512] scale=0.0028888704 zero_point=0
00000000: edfa e4e6 09f4 0909 d505 ecfc ea00 f312
00000010: 1a11 eff7 f709 25f6 02fc dc19 020e 07f0
00000020: 1006 ee1e 2011 ec16 09f6 0216 edf9 100a
00000030: e5d6 fffc 1cf1 ed05 f923 dcf2 fef9 e0f0
00000040: 0de6 f0fc fa0a 04e7 3add f000 f4ee 0716
00000050: f100 e309 ef00 f523 1df9 150b 21f5 ff03
00000060: 0ce7 ebf8 defc 0cff e7e9 0405 080a f90e
00000070: ebe6 f107 fd1f 1204 f6fe e41a 0af9 0ad1
00000080: e3e3 0ef2 f904 f4f1 f9e4 f0d6 fed4 0902
00000090: dedb 0ced e9fc 0d0e e301 0916 faf6 1eef
000000a0: f815 edfd ffea 1dea f40c df0f f5ea f009
000000b0: 0403 e83b f900 f5f1 f519 210b eafc fcfc
000000c0: 16ed fd01 0901 e205 2103 f1f0 f311 0fe7
000000d0: ead8 e208 0620 ec26 0afb 1fe6 e3ec 02f1
000000e0: ffeb fbef f7ef cef8 19e3 0d01 d6fd ffd4
000000f0: f5ff 2be9 09ff ece3 fa06 0a12 edfa 0c0d
-0.05488854 -0.017333223 -0.080888376 -0.07511063 0.025999833 -0.034666445 0.025999833 0.025999833
-0.12422143 0.014444352 -0.05777741 -0.011555482 -0.06355515 0.0 -0.037555315 0.051999666
0.07511063 0.049110796 -0.049110796 -0.025999833 -0.025999833 0.025999833 0.106888205 -0.028888704
0.005777741 -0.011555482 -0.10399933 0.07222176 0.005777741 0.040444188 0.020222094 -0.046221927
0.046221927 0.017333223 -0.051999666 0.086666115 0.09244385 0.049110796 -0.05777741 0.06355515
0.025999833 -0.028888704 0.005777741 0.06355515 -0.05488854 -0.020222094 0.046221927 0.028888704
-0.0779995 -0.121332556 -0.0028888704 -0.011555482 0.080888376 -0.043333057 -0.05488854 0.014444352
-0.020222094 0.101110466 -0.10399933 -0.040444188 -0.005777741 -0.020222094 -0.09244385 -0.046221927
0.037555315 -0.07511063 -0.046221927 -0.011555482 -0.017333223 0.028888704 0.011555482 -0.07222176
0.16755448 -0.101110466 -0.046221927 0.0 -0.034666445 -0.051999666 0.020222094 0.06355515
-0.043333057 0.0 -0.08377724 0.025999833 -0.049110796 0.0 -0.031777576 0.101110466
0.08377724 -0.020222094 0.060666278 0.031777576 0.09533273 -0.031777576 -0.0028888704 0.008666611
0.034666445 -0.07222176 -0.060666278 -0.023110963 -0.09822159 -0.011555482 0.034666445 -0.0028888704
-0.07222176 -0.06644402 0.011555482 0.014444352 0.023110963 0.028888704 -0.020222094 0.040444188
-0.060666278 -0.07511063 -0.043333057 0.020222094 -0.008666611 0.08955498 0.051999666 0.011555482
-0.028888704 -0.005777741 -0.080888376 0.07511063 0.028888704 -0.020222094 0.028888704 -0.1357769
-0.08377724 -0.08377724 0.040444188 -0.040444188 -0.020222094 0.011555482 -0.034666445 -0.043333057
-0.020222094 -0.080888376 -0.046221927 -0.121332556 -0.005777741 -0.1271103 0.025999833 0.005777741
-0.09822159 -0.106888205 0.034666445 -0.05488854 -0.06644402 -0.011555482 0.037555315 0.040444188
-0.08377724 0.0028888704 0.025999833 0.06355515 -0.017333223 -0.028888704 0.086666115 -0.049110796
-0.023110963 0.060666278 -0.05488854 -0.008666611 -0.0028888704 -0.06355515 0.08377724 -0.06355515
-0.034666445 0.034666445 -0.09533273 0.043333057 -0.031777576 -0.06355515 -0.046221927 0.025999833
0.011555482 0.008666611 -0.06933289 0.17044336 -0.020222094 0.0 -0.031777576 -0.043333057
-0.031777576 0.07222176 0.09533273 0.031777576 -0.06355515 -0.011555482 -0.011555482 -0.011555482
0.06355515 -0.05488854 -0.008666611 0.0028888704 0.025999833 0.0028888704 -0.086666115 0.014444352
0.09533273 0.008666611 -0.043333057 -0.046221927 -0.037555315 0.049110796 0.043333057 -0.07222176
-0.06355515 -0.11555482 -0.086666115 0.023110963 0.017333223 0.09244385 -0.05777741 0.10977708
0.028888704 -0.014444352 0.08955498 -0.07511063 -0.08377724 -0.05777741 0.005777741 -0.043333057
-0.0028888704 -0.060666278 -0.014444352 -0.049110796 -0.025999833 -0.049110796 -0.14444353 -0.023110963
0.07222176 -0.08377724 0.037555315 0.0028888704 -0.121332556 -0.008666611 -0.0028888704 -0.1271103
-0.031777576 -0.0028888704 0.12422143 -0.06644402 0.025999833 -0.0028888704 -0.05777741 -0.08377724
-0.017333223 0.017333223 0.028888704 0.051999666 -0.05488854 -0.017333223 0.034666445 0.037555315

sequential/dense_1/MatMul i1 [11, 512] scale=0.0036647818 zero_point=0
00000000: d0ac 0bec e8d8 e90b f5cc a908 fef9 0c9f
00000010: d7e2 10fb 0105 01e0 e2e3 00d1 d9b5 d1f8
00000020: 0cc5 f2f0 0811 f6ec 0d11 d6e5 01c7 ced5
00000030: c902 d6dd f6e4 fed9 e8ea dec4 e205 b5aa
00000040: f302 16e6 f7e6 ecba 07fa fea4 ccf5 c6c0
00000050: dede fbc3 adf0 f5e8 bbe4 e49c a2ce efba
00000060: e2f3 de10 ede4 f3dc 00f5 b4df fae5 fceb
00000070: 1ba6 bd09 d8fd bf11 ec00 c00c 0fe1 00f9
00000080: d5f6 d4c5 c7d4 15c0 a111 e907 f4cd 9d08
00000090: daf9 c106 a3ff c0e9 c2ee d2fb 0cea eec3
000000a0: b1c7 ecd0 bee7 d0c0 a4e1 eded fde8 c2d6
000000b0: ed9f d8b8 b104 b9c4 0310 f314 0102 acde
000000c0: c1f2 eafb f21a d8aa db13 06da edd8 10f1
000000d0: fecc ece3 f8e0 f5fa 04ee dce0 e6e2 c4dd
000000e0: ebee efe1 daba e6c7 a1e0 c4a4 ffd6 eee5
000000f0: c7c1 14dc f202 e7b8 f0f1 ef01 bcec edef
-0.17590952 -0.30784166 0.0403126 -0.07329564 -0.08795476 -0.14659128 -0.08428998 0.0403126
-0.0403126 -0.19056866 -0.318836 0.029318254 -0.0073295636 -0.025653472 0.04397738 -0.35548383
-0.15025605 -0.10994346 0.05863651 -0.01832391 0.0036647818 0.01832391 0.0036647818 -0.11727302
-0.10994346 -0.10627867 0.0 -0.17224474 -0.14292648 -0.27485862 -0.17224474 -0.029318254
0.04397738 -0.21622212 -0.051306944 -0.05863651 0.029318254 0.06230129 -0.03664782 -0.07329564
0.047642164 0.06230129 -0.15392083 -0.09894911 0.0036647818 -0.20889257 -0.18323909 -0.15758562
-0.201563 0.0073295636 -0.15392083 -0.12826736 -0.03664782 -0.10261389 -0.0073295636 -0.14292648
-0.08795476 -0.0806252 -0.12460258 -0.21988691 -0.10994346 0.01832391 -0.27485862 -0.31517124
-0.047642164 0.0073295636 0.0806252 -0.09528433 -0.032983035 -0.09528433 -0.07329564 -0.25653473
0.025653472 -0.02198869 -0.0073295636 -0.33715993 -0.19056866 -0.0403126 -0.21255735 -0.23454604
-0.12460258 -0.12460258 -0.01832391 -0.22355169 -0.3041769 -0.05863651 -0.0403126 -0.08795476
-0.25286993 -0.10261389 -0.10261389 -0.36647817 -0.34448949 -0.18323909 -0.06230129 -0.25653473
-0.10994346 -0.047642164 -0.12460258 0.05863651 -0.069630854 -0.10261389 -0.047642164 -0.13193214
0.0 -0.0403126 -0.27852342 -0.1209378 -0.02198869 -0.09894911 -0.014659127 -0.076960415
0.09894911 -0.32983035 -0.24554038 0.032983035 -0.14659128 -0.010994345 -0.23821081 0.06230129
-0.07329564 0.0 -0.23454604 0.04397738 0.05497173 -0.11360823 0.0 -0.025653472
-0.15758562 -0.03664782 -0.1612504 -0.21622212 -0.20889257 -0.1612504 0.076960415 -0.23454604
-0.34815428 0.06230129 -0.08428998 0.025653472 -0.04397738 -0.18690388 -0.3628134 0.029318254
-0.13926171 -0.025653472 -0.23088126 0.02198869 -0.3408247 -0.0036647818 -0.23454604 -0.08428998
-0.22721647 -0.06596607 -0.16857997 -0.01832391 0.04397738 -0.0806252 -0.06596607 -0.22355169
-0.28951776 -0.20889257 -0.07329564 -0.17590952 -0.2418756 -0.091619544 -0.17590952 -0.23454604
-0.33715993 -0.11360823 -0.069630854 -0.069630854 -0.010994345 -0.08795476 -0.22721647 -0.15392083
-0.069630854 -0.35548383 -0.14659128 -0.26386428 -0.28951776 0.014659127 -0.26019952 -0.21988691
0.010994345 0.05863651 -0.047642164 0.07329564 0.0036647818 0.0073295636 -0.30784166 -0.12460258
-0.23088126 -0.051306944 -0.0806252 -0.01832391 -0.051306944 0.09528433 -0.14659128 -0.31517124
-0.13559693 0.069630854 0.02198869 -0.13926171 -0.069630854 -0.14659128 0.05863651 -0.05497173
-0.0073295636 -0.19056866 -0.07329564 -0.10627867 -0.029318254 -0.11727302 -0.0403126 -0.02198869
0.014659127 -0.06596607 -0.13193214 -0.11727302 -0.09528433 -0.10994346 -0.21988691 -0.12826736
-0.076960415 -0.06596607 -0.06230129 -0.11360823 -0.13926171 -0.25653473 -0.09528433 -0.20889257
-0.34815428 -0.11727302 -0.21988691 -0.33715993 -0.0036647818 -0.15392083 -0.06596607 -0.09894911
-0.20889257 -0.23088126 0.07329564 -0.13193214 -0.051306944 0.0073295636 -0.091619544 -0.26386428
-0.05863651 -0.05497173 -0.06230129 0.0036647818 -0.24920516 -0.07329564 -0.069630854 -0.06230129
