a_output_actual/dig-s2-q.tflite (tflite, 96912 bytes, 5 tensors)

sequential_2/conv2d_6/Conv2D i1 [32, 3, 3, 3]
00000000: c91d 53ef fcd8 d07f 56ed aa00 b74e 0e14
00000010: 1be7 670b e61e 8ca7 e0ee 6d0f e011 1137
00000020: 3c0f 3803 c9fd d0f4 37e5 4e7f 38d8 f6c1
00000030: a7d0 d3bc 2907 a499 b9e8 95ac 1df3 db0f
00000040: 0b21 db22 fe2f 43e9 7f43 5a1d 3f18 fdf0
00000050: 0a81 b81a 0801 dfe2 27e5 e2c1 cb0b 261d
00000060: 20dd 331c 020f 3010 4c2a f71f c41c 0ce2
00000070: 06e4 8197 ace4 c6fd b6fd ba2c 062f 1d0a
00000080: 0d47 6101 7265 501a 2781 cf12 df1e 6bcd
00000090: 2acb e90a 2bab 53e8 fcc4 20e4 03ec c70b
000000a0: fc9d 3a3e 24d6 fe2d 81b4 942d fc04 4320
000000b0: 27be b6d3 1200 2e4c 420f d9fb e934 6eec
000000c0: 0839 3828 15f0 b125 441a 280d 11ff 5ed8
000000d0: 81a4 1693 bddc ecdd ae24 e596 e9cb f66e
000000e0: 1faa c204 290c 7681 365b 98ce eac8 170b
000000f0: cef1 2e02 13fd c2bb ebff e831 2b56 0cff
-55 29 83 -17 -4 -40 -48 127
86 -19 -86 0 -73 78 14 20
27 -25 103 11 -26 30 -116 -89
-32 -18 109 15 -32 17 17 55
60 15 56 3 -55 -3 -48 -12
55 -27 78 127 56 -40 -10 -63
-89 -48 -45 -68 41 7 -92 -103
-71 -24 -107 -84 29 -13 -37 15
11 33 -37 34 -2 47 67 -23
127 67 90 29 63 24 -3 -16
10 -127 -72 26 8 1 -33 -30
39 -27 -30 -63 -53 11 38 29
32 -35 51 28 2 15 48 16
76 42 -9 31 -60 28 12 -30
6 -28 -127 -105 -84 -28 -58 -3
-74 -3 -70 44 6 47 29 10
13 71 97 1 114 101 80 26
39 -127 -49 18 -33 30 107 -51
42 -53 -23 10 43 -85 83 -24
-4 -60 32 -28 3 -20 -57 11
-4 -99 58 62 36 -42 -2 45
-127 -76 -108 45 -4 4 67 32
39 -66 -74 -45 18 0 46 76
66 15 -39 -5 -23 52 110 -20
8 57 56 40 21 -16 -79 37
68 26 40 13 17 -1 94 -40
-127 -92 22 -109 -67 -36 -20 -35
-82 36 -27 -106 -23 -53 -10 110
31 -86 -62 4 41 12 118 -127
54 91 -104 -50 -22 -56 23 11
-50 -15 46 2 19 -3 -62 -69
-21 -1 -24 49 43 86 12 -1

sequential_2/conv2d_7/Conv2D i1 [32, 3, 3, 32]
00000000: 2a05 1d25 4796 eedf 07ff fda9 ec32 4305
00000010: 03d4 41d4 bf01 29ca 3b0e e0ff 1730 a7d1
00000020: dcda cfaa 12eb b620 b1d2 b71f d536 f0f1
00000030: c0f4 c2f6 e8f3 01d7 fc07 38d4 d8c8 bbcb
00000040: 08fc c1aa 1af7 26e6 0418 fe2f 0bff fce1
00000050: c803 ba0f 16db f3c6 a4cf e1b7 e408 b3f9
00000060: 450f 0cb0 2db9 ffe3 ae12 ff2f f720 f2d1
00000070: 23e7 9e08 0509 f091 f42a f5ce dbf5 a4dc
00000080: e6c0 05ae 2a0a b0d1 f5ea 81ee b0b5 f408
00000090: 0ad9 e5f0 0606 cf14 0d07 ddc5 f4b8 f0d9
000000a0: beb2 0fca b0a0 23b7 f9e8 a40a de1f f6a8
000000b0: fba4 dbf9 bfff c824 afed ebe3 100b b0d6
000000c0: d2b8 42e7 ea10 0ebe 244b 08fa ddbc 48f9
000000d0: af02 b161 bb60 d2ff 181b c7ed 01e1 8916
000000e0: f1cf f444 e0a3 c4eb 12ef c5c3 9ff8 13a9
000000f0: 14c5 fa34 d9c3 f5c3 251e eeea 2d0b b1e2
42 5 29 37 71 -106 -18 -33
7 -1 -3 -87 -20 50 67 5
3 -44 65 -44 -65 1 41 -54
59 14 -32 -1 23 48 -89 -47
-36 -38 -49 -86 18 -21 -74 32
-79 -46 -73 31 -43 54 -16 -15
-64 -12 -62 -10 -24 -13 1 -41
-4 7 56 -44 -40 -56 -69 -53
8 -4 -63 -86 26 -9 38 -26
4 24 -2 47 11 -1 -4 -31
-56 3 -70 15 22 -37 -13 -58
-92 -49 -31 -73 -28 8 -77 -7
69 15 12 -80 45 -71 -1 -29
-82 18 -1 47 -9 32 -14 -47
35 -25 -98 8 5 9 -16 -111
-12 42 -11 -50 -37 -11 -92 -36
-26 -64 5 -82 42 10 -80 -47
-11 -22 -127 -18 -80 -75 -12 8
10 -39 -27 -16 6 6 -49 20
13 7 -35 -59 -12 -72 -16 -39
-66 -78 15 -54 -80 -96 35 -73
-7 -24 -92 10 -34 31 -10 -88
-5 -92 -37 -7 -65 -1 -56 36
-81 -19 -21 -29 16 11 -80 -42
-46 -72 66 -25 -22 16 14 -66
36 75 8 -6 -35 -68 72 -7
-81 2 -79 97 -69 96 -46 -1
24 27 -57 -19 1 -31 -119 22
-15 -49 -12 68 -32 -93 -60 -21
18 -17 -59 -61 -97 -8 19 -87
20 -59 -6 52 -39 -61 -11 -61
37 30 -18 -22 45 11 -79 -30

sequential_2/conv2d_8/Conv2D i1 [32, 3, 3, 32]
00000000: 0f45 081a 160a f0f5 9ed4 fe34 0619 1c0c
00000010: c7d8 03e3 1714 fb11 db04 c209 eeee dd49
00000020: fdee f124 ea0c fbf2 c7f9 0f41 1303 ff20
00000030: 16d3 fc20 f8e9 ba18 0dd9 d3f9 5316 c231
00000040: e2e3 ed3a e2bd e817 d9ee fe27 031c 2e19
00000050: 5b72 e714 f5f9 dcdb eae6 fba4 0819 15d9
00000060: edf8 1303 0fc7 fe0c d045 093a 2d05 000e
00000070: b503 00b5 3b03 3bfb 1b27 d6f3 f5f2 dcf8
00000080: f4f7 f8c8 471c e4f8 e6db 05e8 23e9 0912
00000090: d411 ff13 60d2 d2fe b8a7 cb0f 18d7 4049
000000a0: 0be6 e3c5 3ae4 aac5 2ab0 ff30 5ad7 46f9
000000b0: 2429 dff9 064a ebeb d5e8 ad0d cf4d 5ae5
000000c0: 15f1 0ef5 fb13 0beb 1426 f11e d915 fddb
000000d0: e113 01dd a9e8 ebf3 1920 16f3 cf04 fc3c
000000e0: ee12 81eb fc3d e3aa dedc c3de b34c 3820
000000f0: cadb 1b2a e419 c9ba 0113 240a c8fd f91c
15 69 8 26 22 10 -16 -11
-98 -44 -2 52 6 25 28 12
-57 -40 3 -29 23 20 -5 17
-37 4 -62 9 -18 -18 -35 73
-3 -18 -15 36 -22 12 -5 -14
-57 -7 15 65 19 3 -1 32
22 -45 -4 32 -8 -23 -70 24
13 -39 -45 -7 83 22 -62 49
-30 -29 -19 58 -30 -67 -24 23
-39 -18 -2 39 3 28 46 25
91 114 -25 20 -11 -7 -36 -37
-22 -26 -5 -92 8 25 21 -39
-19 -8 19 3 15 -57 -2 12
-48 69 9 58 45 5 0 14
-75 3 0 -75 59 3 59 -5
27 39 -42 -13 -11 -14 -36 -8
-12 -9 -8 -56 71 28 -28 -8
-26 -37 5 -24 35 -23 9 18
-44 17 -1 19 96 -46 -46 -2
-72 -89 -53 15 24 -41 64 73
11 -26 -29 -59 58 -28 -86 -59
42 -80 -1 48 90 -41 70 -7
36 41 -33 -7 6 74 -21 -21
-43 -24 -83 13 -49 77 90 -27
21 -15 14 -11 -5 19 11 -21
20 38 -15 30 -39 21 -3 -37
-31 19 1 -35 -87 -24 -21 -13
25 32 22 -13 -49 4 -4 60
-18 18 -127 -21 -4 61 -29 -86
-34 -36 -61 -34 -77 76 56 32
-54 -37 27 42 -28 25 -55 -70
1 19 36 10 -56 -3 -7 28

sequential_2/dense_4/MatMul i1 [256, 256] scale=0.0041270587 zero_point=0
00000000: 0ffd ebff 1212 f5f4 e703 f407 f4f4 16f7
00000010: fefc f9e4 1408 fd16 0f04 e706 e7f0 0ffd
00000020: 13ff 0603 ecfe efe6 e7fc 0a0b f302 f100
00000030: 0b17 f700 e5ea 04eb 120d fafc eb0f f612
00000040: 08fb eef4 feec 13e4 020c 1012 e9ef 02f2
00000050: 00fa e515 10f7 fbea 13fa f4f9 e518 e703
00000060: e615 f70d fbf1 0409 fc05 10fa 09eb e812
00000070: 12ea 1018 0c00 ebe3 f2eb f8fb 0002 e608
00000080: 0605 0fe9 f901 f1fe f108 0df1 eae6 080c
00000090: fcfc e60e 02fc 0b10 ee00 f8f6 0e0a fdf5
000000a0: 100c fe15 eff2 090d ea06 ee0b fee8 ea06
000000b0: e5ef 0e01 06e8 fb17 150b fc03 e4f1 edf5
000000c0: f7e7 0600 e5e5 0efa fe04 fb17 0bf4 0bf4
000000d0: ef0b f8f7 edeb fcfd f5fe f005 e9ee 03e8
000000e0: f4ec 0ee5 f416 04fe 0fe7 e4ee 0912 0cf9
000000f0: 00f4 ea11 ff07 fcef fa00 0c0d ebef e9e8
0.06190588 -0.0123811755 -0.08666823 -0.0041270587 0.07428706 0.07428706 -0.045397647 -0.049524702
-0.10317647 0.0123811755 -0.049524702 0.02888941 -0.049524702 -0.049524702 0.09079529 -0.03714353
-0.008254117 -0.016508235 -0.02888941 -0.11555764 0.082541175 0.03301647 -0.0123811755 0.09079529
0.06190588 0.016508235 -0.10317647 0.024762351 -0.10317647 -0.06603294 0.06190588 -0.0123811755
0.07841411 -0.0041270587 0.024762351 0.0123811755 -0.082541175 -0.008254117 -0.070159994 -0.10730352
-0.10317647 -0.016508235 0.041270588 0.045397647 -0.05365176 0.008254117 -0.06190588 0.0
0.045397647 0.09492235 -0.03714353 0.0 -0.111430585 -0.09079529 0.016508235 -0.08666823
0.07428706 0.05365176 -0.024762351 -0.016508235 -0.08666823 0.06190588 -0.041270588 0.07428706
0.03301647 -0.020635294 -0.07428706 -0.049524702 -0.008254117 -0.082541175 0.07841411 -0.11555764
0.008254117 0.049524702 0.06603294 0.07428706 -0.09492235 -0.070159994 0.008254117 -0.05777882
0.0 -0.024762351 -0.111430585 0.08666823 0.06603294 -0.03714353 -0.020635294 -0.09079529
0.07841411 -0.024762351 -0.049524702 -0.02888941 -0.111430585 0.099049404 -0.10317647 0.0123811755
-0.10730352 0.08666823 -0.03714353 0.05365176 -0.020635294 -0.06190588 0.016508235 0.03714353
-0.016508235 0.020635294 0.06603294 -0.024762351 0.03714353 -0.08666823 -0.099049404 0.07428706
0.07428706 -0.09079529 0.06603294 0.099049404 0.049524702 0.0 -0.08666823 -0.1196847
-0.05777882 -0.08666823 -0.03301647 -0.020635294 0.0 0.008254117 -0.10730352 0.03301647
0.024762351 0.020635294 0.06190588 -0.09492235 -0.02888941 0.0041270587 -0.06190588 -0.008254117
-0.06190588 0.03301647 0.05365176 -0.06190588 -0.09079529 -0.10730352 0.03301647 0.049524702
-0.016508235 -0.016508235 -0.10730352 0.05777882 0.008254117 -0.016508235 0.045397647 0.06603294
-0.07428706 0.0 -0.03301647 -0.041270588 0.05777882 0.041270588 -0.0123811755 -0.045397647
0.06603294 0.049524702 -0.008254117 0.08666823 -0.070159994 -0.05777882 0.03714353 0.05365176
-0.09079529 0.024762351 -0.07428706 0.045397647 -0.008254117 -0.099049404 -0.09079529 0.024762351
-0.111430585 -0.070159994 0.05777882 0.0041270587 0.024762351 -0.099049404 -0.020635294 0.09492235
0.08666823 0.045397647 -0.016508235 0.0123811755 -0.11555764 -0.06190588 -0.07841411 -0.045397647
-0.03714353 -0.10317647 0.024762351 0.0 -0.111430585 -0.111430585 0.05777882 -0.024762351
-0.008254117 0.016508235 -0.020635294 0.09492235 0.045397647 -0.049524702 0.045397647 -0.049524702
-0.070159994 0.045397647 -0.03301647 -0.03714353 -0.07841411 -0.08666823 -0.016508235 -0.0123811755
-0.045397647 -0.008254117 -0.06603294 0.020635294 -0.09492235 -0.07428706 0.0123811755 -0.099049404
-0.049524702 -0.082541175 0.05777882 -0.111430585 -0.049524702 0.09079529 0.016508235 -0.008254117
0.06190588 -0.10317647 -0.11555764 -0.07428706 0.03714353 0.07428706 0.049524702 -0.02888941
0.0 -0.049524702 -0.09079529 0.070159994 -0.0041270587 0.02888941 -0.016508235 -0.070159994
-0.024762351 0.0 0.049524702 0.05365176 -0.08666823 -0.070159994 -0.09492235 -0.099049404

sequential_2/dense_5/MatMul i1 [11, 256] scale=0.0056692264 zero_point=0
00000000: fadd dcc9 d1e1 c9f8 e2c7 d0d0 d8e1 f400
00000010: efc1 d1eb d4e5 1dc2 9bf7 b9e6 d5d2 bdef
00000020: cde9 a80c 0df0 ead3 11c1 00e2 14e0 e7f6
00000030: faea c20a c8f8 cdfd cd0b f7d6 c4f6 03d4
00000040: c90e bcf7 d7a6 efea fe0a 05cc efe7 1cc5
00000050: fbdc f0e7 affe 2503 e9f4 d5ea cfeb fbdf
00000060: fcd3 f6df ef03 bec7 fdbf e7d9 e8ff c5c1
00000070: cbe1 e0fa f80a e0be eae3 faf6 d6c5 e52e
00000080: ece7 f8f0 f80c f3b9 f7ff 000c 0ce4 bfe1
00000090: d9f9 fcc6 fb11 f2df f6ef ddd6 ffc2 0ffa
000000a0: dfe9 e78a b7b9 d4e9 05c9 bedd 04e6 adda
000000b0: 11f3 deb7 cde2 e4fa 03d1 f6c6 d3bf c6d4
000000c0: 05ec f2da dfe2 01c1 eacb d600 fcf5 ddef
000000d0: defb 02dc b1b7 dad7 cfdd fcea d6b4 9ec5
000000e0: e8ff d211 e008 f9df dcd1 0bc5 e3ea 0ac5
000000f0: 05f2 feff dbbc 00e1 efe6 b9f0 fe05 e9be
-0.034015357 -0.19842292 -0.20409214 -0.31180745 -0.26645365 -0.17574602 -0.31180745 -0.04535381
-0.17007679 -0.3231459 -0.27212286 -0.27212286 -0.22676906 -0.17574602 -0.068030715 0.0
-0.09637685 -0.35716125 -0.26645365 -0.11905375 -0.24944596 -0.15306911 0.16440757 -0.35149205
-0.57259184 -0.051023036 -0.40251508 -0.14739989 -0.24377674 -0.26078442 -0.37983817 -0.09637685
-0.28913054 -0.13039221 -0.49889192 0.068030715 0.07369994 -0.09070762 -0.12472298 -0.25511518
0.09637685 -0.35716125 0.0 -0.17007679 0.11338453 -0.18141524 -0.14173067 -0.056692265
-0.034015357 -0.12472298 -0.35149205 0.056692265 -0.3174767 -0.04535381 -0.28913054 -0.017007679
-0.28913054 0.06236149 -0.051023036 -0.2381075 -0.34015357 -0.056692265 0.017007679 -0.24944596
-0.31180745 0.07936917 -0.3855074 -0.051023036 -0.23243828 -0.51023036 -0.09637685 -0.12472298
-0.011338453 0.056692265 0.028346132 -0.29479977 -0.09637685 -0.14173067 0.15873834 -0.33448437
-0.028346132 -0.20409214 -0.09070762 -0.14173067 -0.45920733 -0.011338453 0.20976138 0.017007679
-0.13039221 -0.068030715 -0.24377674 -0.12472298 -0.2777921 -0.11905375 -0.028346132 -0.18708447
-0.022676906 -0.25511518 -0.056692265 -0.18708447 -0.09637685 0.017007679 -0.37416893 -0.3231459
-0.017007679 -0.36849973 -0.14173067 -0.22109982 -0.13606143 -0.0056692264 -0.33448437 -0.35716125
-0.300469 -0.17574602 -0.18141524 -0.034015357 -0.04535381 0.056692265 -0.18141524 -0.37416893
-0.12472298 -0.16440757 -0.034015357 -0.056692265 -0.2381075 -0.33448437 -0.15306911 0.26078442
-0.11338453 -0.14173067 -0.04535381 -0.09070762 -0.04535381 0.068030715 -0.07369994 -0.40251508
-0.051023036 -0.0056692264 0.0 0.068030715 0.068030715 -0.15873834 -0.36849973 -0.17574602
-0.22109982 -0.039684586 -0.022676906 -0.32881513 -0.028346132 0.09637685 -0.07936917 -0.18708447
-0.056692265 -0.09637685 -0.19842292 -0.2381075 -0.0056692264 -0.35149205 0.085038394 -0.034015357
-0.18708447 -0.13039221 -0.14173067 -0.66896874 -0.41385353 -0.40251508 -0.24944596 -0.13039221
0.028346132 -0.31180745 -0.37416893 -0.19842292 0.022676906 -0.14739989 -0.4705458 -0.2154306
0.09637685 -0.07369994 -0.1927537 -0.41385353 -0.28913054 -0.17007679 -0.15873834 -0.034015357
0.017007679 -0.26645365 -0.056692265 -0.32881513 -0.25511518 -0.36849973 -0.32881513 -0.24944596
0.028346132 -0.11338453 -0.07936917 -0.2154306 -0.18708447 -0.17007679 0.0056692264 -0.35716125
-0.12472298 -0.300469 -0.2381075 0.0 -0.022676906 -0.06236149 -0.19842292 -0.09637685
-0.1927537 -0.028346132 0.011338453 -0.20409214 -0.44786888 -0.41385353 -0.2154306 -0.23243828
-0.2777921 -0.19842292 -0.022676906 -0.12472298 -0.2381075 -0.4308612 -0.5555842 -0.33448437
-0.13606143 -0.0056692264 -0.26078442 0.09637685 -0.18141524 0.04535381 -0.039684586 -0.18708447
-0.20409214 -0.26645365 0.06236149 -0.33448437 -0.16440757 -0.12472298 0.056692265 -0.33448437
0.028346132 -0.07936917 -0.011338453 -0.0056692264 -0.20976138 -0.3855074 0.0 -0.17574602
-0.09637685 -0.14739989 -0.40251508 -0.09070762 -0.011338453 0.028346132 -0.13039221 -0.37416893
